…
[36m(ClientAppActor pid=157317)[0m Overriding class names with single class.
[36m(ClientAppActor pid=157319)[0m [Client 5] Device: cuda:0[32m [repeated 7x across cluster] (Ray deduplicates logs by default. Set RAY_DEDUP_LOGS=0 to disable log deduplication, or see https://docs.ray.io/en/master/ray-observability/user-guides/configure-logging.html#log-deduplication for more options.)[0m
[36m(ClientAppActor pid=157317)[0m 
[36m(ClientAppActor pid=157317)[0m                    from  n    params  module                                       arguments                     
[36m(ClientAppActor pid=157317)[0m   0                  -1  1       464  ultralytics.nn.modules.conv.Conv             [3, 16, 3, 2]                 
[36m(ClientAppActor pid=157317)[0m   1                  -1  1      4672  ultralytics.nn.modules.conv.Conv             [16, 32, 3, 2]                
[36m(ClientAppActor pid=157317)[0m   2                  -1  1      7360  ultralytics.nn.modules.block.C2f             [32, 32, 1, True]             
[36m(ClientAppActor pid=157317)[0m   3                  -1  1     18560  ultralytics.nn.modules.conv.Conv             [32, 64, 3, 2]                
[36m(ClientAppActor pid=157317)[0m   4                  -1  2     49664  ultralytics.nn.modules.block.C2f             [64, 64, 2, True]             
[36m(ClientAppActor pid=157317)[0m   5                  -1  1     73984  ultralytics.nn.modules.conv.Conv             [64, 128, 3, 2]               
[36m(ClientAppActor pid=157317)[0m   6                  -1  2    197632  ultralytics.nn.modules.block.C2f             [128, 128, 2, True]           
[36m(ClientAppActor pid=157317)[0m   7                  -1  1    295424  ultralytics.nn.modules.conv.Conv             [128, 256, 3, 2]              
[36m(ClientAppActor pid=157317)[0m   8                  -1  1    460288  ultralytics.nn.modules.block.C2f             [256, 256, 1, True]           
[36m(ClientAppActor pid=157317)[0m   9                  -1  1    164608  ultralytics.nn.modules.block.SPPF            [256, 256, 5]                 
[36m(ClientAppActor pid=157317)[0m  10                  -1  1         0  torch.nn.modules.upsampling.Upsample         [None, 2, 'nearest']          
[36m(ClientAppActor pid=157317)[0m  11             [-1, 6]  1         0  ultralytics.nn.modules.conv.Concat           [1]                           
[36m(ClientAppActor pid=157317)[0m  12                  -1  1    148224  ultralytics.nn.modules.block.C2f             [384, 128, 1]                 
[36m(ClientAppActor pid=157317)[0m  13                  -1  1         0  torch.nn.modules.upsampling.Upsample         [None, 2, 'nearest']          
[36m(ClientAppActor pid=157317)[0m  14             [-1, 4]  1         0  ultralytics.nn.modules.conv.Concat           [1]                           
[36m(ClientAppActor pid=157317)[0m  15                  -1  1     37248  ultralytics.nn.modules.block.C2f             [192, 64, 1]                  
[36m(ClientAppActor pid=157317)[0m  16                  -1  1     36992  ultralytics.nn.modules.conv.Conv             [64, 64, 3, 2]                
[36m(ClientAppActor pid=157317)[0m  17            [-1, 12]  1         0  ultralytics.nn.modules.conv.Concat           [1]                           
[36m(ClientAppActor pid=157317)[0m  18                  -1  1    123648  ultralytics.nn.modules.block.C2f             [192, 128, 1]                 
[36m(ClientAppActor pid=157317)[0m  19                  -1  1    147712  ultralytics.nn.modules.conv.Conv             [128, 128, 3, 2]              
[36m(ClientAppActor pid=157317)[0m  20             [-1, 9]  1         0  ultralytics.nn.modules.conv.Concat           [1]                           
[36m(ClientAppActor pid=157317)[0m  21                  -1  1    493056  ultralytics.nn.modules.block.C2f             [384, 256, 1]                 
[36m(ClientAppActor pid=157317)[0m  22        [15, 18, 21]  1    751507  ultralytics.nn.modules.head.Detect           [1, [64, 128, 256]]           
[36m(ClientAppActor pid=157317)[0m Model summary: 129 layers, 3,011,043 parameters, 3,011,027 gradients, 8.2 GFLOPs
[36m(ClientAppActor pid=157317)[0m 
[36m(ClientAppActor pid=157317)[0m Transferred 355/355 items from pretrained weights
[36m(ClientAppActor pid=157317)[0m [34m[1mTensorBoard: [0mStart with 'tensorboard --logdir runs/detect/train688', view at http://localhost:6006/
[36m(ClientAppActor pid=157317)[0m Freezing layer 'model.22.dfl.conv.weight'
[36m(ClientAppActor pid=157317)[0m [34m[1mAMP: [0mrunning Automatic Mixed Precision (AMP) checks...
[36m(ClientAppActor pid=157324)[0m 
[36m(ClientAppActor pid=157324)[0m  12                  -1  1    148224  ultralytics.nn.modules.block.C2f             [384, 128, 1]                 
[36m(ClientAppActor pid=157324)[0m  15                  -1  1     37248  ultralytics.nn.modules.block.C2f             [192, 64, 1]                  
[36m(ClientAppActor pid=157324)[0m  18                  -1  1    123648  ultralytics.nn.modules.block.C2f             [192, 128, 1]                 
[36m(ClientAppActor pid=157324)[0m  21                  -1  1    493056  ultralytics.nn.modules.block.C2f             [384, 256, 1]                 
[36m(ClientAppActor pid=157322)[0m 
[36m(ClientAppActor pid=157322)[0m  12                  -1  1    148224  ultralytics.nn.modules.block.C2f             [384, 128, 1]                 
[36m(ClientAppActor pid=157322)[0m  15                  -1  1     37248  ultralytics.nn.modules.block.C2f             [192, 64, 1]                  
[36m(ClientAppActor pid=157322)[0m  18                  -1  1    123648  ultralytics.nn.modules.block.C2f             [192, 128, 1]                 
[36m(ClientAppActor pid=157322)[0m  21                  -1  1    493056  ultralytics.nn.modules.block.C2f             [384, 256, 1]                 
[36m(ClientAppActor pid=157324)[0m 
[36m(ClientAppActor pid=157322)[0m 
[36m(ClientAppActor pid=157321)[0m 
[36m(ClientAppActor pid=157321)[0m  12                  -1  1    148224  ultralytics.nn.modules.block.C2f             [384, 128, 1]                 
[36m(ClientAppActor pid=157317)[0m [34m[1mtrain: [0mScanning /WehbeDocker/YOLOV8N/datasets/client_7/train/labels.cache... 262 images, 0 backgrounds, 0 corrupt: 100%|â–ˆâ–ˆâ–ˆâ–ˆâ–ˆâ–ˆâ–ˆâ–ˆâ–ˆâ–ˆ| 262/262 [00:00<?, ?it/s][34m[1mtrain: [0mScanning /WehbeDocker/YOLOV8N/datasets/client_7/train/labels.cache... 262 images, 0 backgrounds, 0 corrupt: 100%|â–ˆâ–ˆâ–ˆâ–ˆâ–ˆâ–ˆâ–ˆâ–ˆâ–ˆâ–ˆ| 262/262 [00:00<?, ?it/s]
…
pt: 100%|â–ˆâ–ˆâ–ˆâ–ˆâ–ˆâ–ˆâ–ˆâ–ˆâ–ˆâ–ˆ| 128/128 [00:00<?, ?it/s]
[36m(ClientAppActor pid=157325)[0m [34m[1mval: [0mScanning /WehbeDocker/YOLOV8N/datasets/client_1/valid/labels.cache... 41 images, 0 backgrounds, 0 corrupt: 100%|â–ˆâ–ˆâ–ˆâ–ˆâ–ˆâ–ˆâ–ˆâ–ˆâ–ˆâ–ˆ| 41/41 [00:00<?, ?it/s][34m[1mval: [0mScanning /WehbeDocker/YOLOV8N/datasets/client_1/valid/labels.cache... 41 images, 0 backgrounds, 0 corrupt: 100%|â–ˆâ–ˆâ–ˆâ–ˆâ–ˆâ–ˆâ–ˆâ–ˆâ–ˆâ–ˆ| 41/41 [00:00<?, ?it/s][32m [repeated 12x across cluster][0m
[36m(ClientAppActor pid=157321)[0m  15                  -1  1     37248  ultralytics.nn.modules.block.C2f             [192, 64, 1]                  
[36m(ClientAppActor pid=157321)[0m  18                  -1  1    123648  ultralytics.nn.modules.block.C2f             [192, 128, 1]                 
[36m(ClientAppActor pid=157321)[0m  21                  -1  1    493056  ultralytics.nn.modules.block.C2f             [384, 256, 1]                 
[36m(ClientAppActor pid=157325)[0m 
[36m(ClientAppActor pid=157325)[0m  12                  -1  1    148224  ultralytics.nn.modules.block.C2f             [384, 128, 1]                 
[36m(ClientAppActor pid=157325)[0m  15                  -1  1     37248  ultralytics.nn.modules.block.C2f             [192, 64, 1]                  
[36m(ClientAppActor pid=157325)[0m  18                  -1  1    123648  ultralytics.nn.modules.block.C2f             [192, 128, 1]                 
[36m(ClientAppActor pid=157325)[0m  21                  -1  1    493056  ultralytics.nn.modules.block.C2f             [384, 256, 1]                 
[36m(ClientAppActor pid=157327)[0m 
[36m(ClientAppActor pid=157327)[0m  12                  -1  1    148224  ultralytics.nn.modules.block.C2f             [384, 128, 1]                 
[36m(ClientAppActor pid=157327)[0m  15                  -1  1     37248  ultralytics.nn.modules.block.C2f             [192, 64, 1]                  
[36m(ClientAppActor pid=157327)[0m  18                  -1  1    123648  ultralytics.nn.modules.block.C2f             [192, 128, 1]                 
[36m(ClientAppActor pid=157327)[0m  21                  -1  1    493056  ultralytics.nn.modules.block.C2f             [384, 256, 1]                 
[36m(ClientAppActor pid=157321)[0m 
[36m(ClientAppActor pid=157325)[0m 
[36m(ClientAppActor pid=157327)[0m 
[36m(ClientAppActor pid=157318)[0m 
[36m(ClientAppActor pid=157318)[0m  12                  -1  1    148224  ultralytics.nn.modules.block.C2f             [384, 128, 1]                 
[36m(ClientAppActor pid=157318)[0m  15                  -1  1     37248  ultralytics.nn.modules.block.C2f             [192, 64, 1]                  
[36m(ClientAppActor pid=157318)[0m  18                  -1  1    123648  ultralytics.nn.modules.block.C2f             [192, 128, 1]                 
[36m(ClientAppActor pid=157318)[0m  21                  -1  1    493056  ultralytics.nn.modules.block.C2f             [384, 256, 1]                 
[36m(ClientAppActor pid=157319)[0m 
[36m(ClientAppActor pid=157319)[0m  12                  -1  1    148224  ultralytics.nn.modules.block.C2f             [384, 128, 1]                 
[36m(ClientAppActor pid=157319)[0m  15                  -1  1     37248  ultralytics.nn.modules.block.C2f             [192, 64, 1]                  
[36m(ClientAppActor pid=157319)[0m  18                  -1  1    123648  ultralytics.nn.modules.block.C2f             [192, 128, 1]                 
[36m(ClientAppActor pid=157319)[0m  21                  -1  1    493056  ultralytics.nn.modules.block.C2f             [384, 256, 1]                 
[36m(ClientAppActor pid=157318)[0m 
[36m(ClientAppActor pid=157319)[0m 
[36m(ClientAppActor pid=157317)[0m [34m[1mAMP: [0mchecks passed âœ…
[36m(ClientAppActor pid=157317)[0m Plotting labels to runs/detect/train688/labels.jpg... 
[36m(ClientAppActor pid=157319)[0m New https://pypi.org/project/ultralytics/8.3.121 available ðŸ˜ƒ Update with 'pip install -U ultralytics'[32m [repeated 7x across cluster][0m
…
mixup=0.0, copy_paste=0.0, copy_paste_mode=flip, auto_augment=randaugment, erasing=0.4, crop_fraction=1.0, cfg=None, tracker=botsort.yaml, save_dir=runs/detect/train694[32m [repeated 7x across cluster][0m
[36m(ClientAppActor pid=157319)[0m Overriding class names with single class.[32m [repeated 7x across cluster][0m
[36m(ClientAppActor pid=157319)[0m                    from  n    params  module                                       arguments                     [32m [repeated 7x across cluster][0m
[36m(ClientAppActor pid=157319)[0m  19                  -1  1    147712  ultralytics.nn.modules.conv.Conv             [128, 128, 3, 2]              [32m [repeated 49x across cluster][0m
[36m(ClientAppActor pid=157319)[0m   8                  -1  1    460288  ultralytics.nn.modules.block.C2f             [256, 256, 1, True]           [32m [repeated 28x across cluster][0m
[36m(ClientAppActor pid=157319)[0m   9                  -1  1    164608  ultralytics.nn.modules.block.SPPF            [256, 256, 5]                 [32m [repeated 7x across cluster][0m
[36m(ClientAppActor pid=157319)[0m  13                  -1  1         0  torch.nn.modules.upsampling.Upsample         [None, 2, 'nearest']          [32m [repeated 14x across cluster][0m
[36m(ClientAppActor pid=157319)[0m  20             [-1, 9]  1         0  ultralytics.nn.modules.conv.Concat           [1]                           [32m [repeated 28x across cluster][0m
[36m(ClientAppActor pid=157319)[0m  22        [15, 18, 21]  1    751507  ultralytics.nn.modules.head.Detect           [1, [64, 128, 256]]           [32m [repeated 7x across cluster][0m
[36m(ClientAppActor pid=157319)[0m Model summary: 129 layers, 3,011,043 parameters, 3,011,027 gradients, 8.2 GFLOPs[32m [repeated 7x across cluster][0m
[36m(ClientAppActor pid=157319)[0m Transferred 355/355 items from pretrained weights[32m [repeated 7x across cluster][0m
[36m(ClientAppActor pid=157319)[0m [34m[1mTensorBoard: [0mStart with 'tensorboard --logdir runs/detect/train694', view at http://localhost:6006/[32m [repeated 7x across cluster][0m
…
[36m(ClientAppActor pid=157318)[0m                  Class     Images  Instances      Box(P          R      mAP50  mAP50-95):  83%|â–ˆâ–ˆâ–ˆâ–ˆâ–ˆâ–ˆâ–ˆâ–ˆâ–Ž | 5/6 [00:05<00:00,  1.66it/s][32m [repeated 3x across cluster][0m
[36m(ClientAppActor pid=157324)[0m [34m[1mtrain: [0mScanning /WehbeDocker/YOLOV8N/datasets/client_6/train/labels.cache... 136 images, 0 backgrounds, 0 corrupt: 100%|â–ˆâ–ˆâ–ˆâ–ˆâ–ˆâ–ˆâ–ˆâ–ˆâ–ˆâ–ˆ| 136/136 [00:00<?, ?it/s][34m[1mtrain: [0mScanning /WehbeDocker/YOLOV8N/datasets/client_6/train/labels.cache... 136 images, 0 backgrounds, 0 corrupt: 100%|â–ˆâ–ˆâ–ˆâ–ˆâ–ˆâ–ˆâ–ˆâ–ˆâ–ˆâ–ˆ| 136/136 [00:00<?, ?it/s]
[36m(ClientAppActor pid=157318)[0m   4                  -1  2     49664  ultralytics.nn.modules.block.C2f             [64, 64, 2, True]             
[36m(ClientAppActor pid=157318)[0m   6                  -1  2    197632  ultralytics.nn.modules.block.C2f             [128, 128, 2, True]           
[36m(ClientAppActor pid=157318)[0m   8                  -1  1    460288  ultralytics.nn.modules.block.C2f             [256, 256, 1, True]           
[36m(ClientAppActor pid=157318)[0m   9                  -1  1    164608  ultralytics.nn.modules.block.SPPF            [256, 256, 5]                 
[36m(ClientAppActor pid=157318)[0m  10                  -1  1         0  torch.nn.modules.upsampling.Upsample         [None, 2, 'nearest']          
[36m(ClientAppActor pid=157318)[0m  11             [-1, 6]  1         0  ultralytics.nn.modules.conv.Concat           [1]                           
[36m(ClientAppActor pid=157318)[0m  12                  -1  1    148224  ultralytics.nn.modules.block.C2f             [384, 128, 1]                 
[36m(ClientAppActor pid=157318)[0m  13                  -1  1         0  torch.nn.modules.upsampling.Upsample         [None, 2, 'nearest']          
[36m(ClientAppActor pid=157318)[0m  14             [-1, 4]  1         0  ultralytics.nn.modules.conv.Concat           [1]                           
[36m(ClientAppActor pid=157318)[0m  15                  -1  1     37248  ultralytics.nn.modules.block.C2f             [192, 64, 1]                  
[36m(ClientAppActor pid=157318)[0m  17            [-1, 12]  1         0  ultralytics.nn.modules.conv.Concat           [1]                           
[36m(ClientAppActor pid=157318)[0m  18                  -1  1    123648  ultralytics.nn.modules.block.C2f             [192, 128, 1]                 
[36m(ClientAppActor pid=157318)[0m  20             [-1, 9]  1         0  ultralytics.nn.modules.conv.Concat           [1]                           
[36m(ClientAppActor pid=157318)[0m  21                  -1  1    493056  ultralytics.nn.modules.block.C2f             [384, 256, 1]                 
[36m(ClientAppActor pid=157318)[0m  22        [15, 18, 21]  1    751507  ultralytics.nn.modules.head.Detect           [1, [64, 128, 256]]           
[36m(ClientAppActor pid=157324)[0m  12                  -1  1    148224  ultralytics.nn.modules.block.C2f             [384, 128, 1]                 
[36m(ClientAppActor pid=157324)[0m  15                  -1  1     37248  ultralytics.nn.modules.block.C2f             [192, 64, 1]                  
[36m(ClientAppActor pid=157324)[0m  18                  -1  1    123648  ultralytics.nn.modules.block.C2f             [192, 128, 1]                 
[36m(ClientAppActor pid=157324)[0m  21                  -1  1    493056  ultralytics.nn.modules.block.C2f             [384, 256, 1]                 
[36m(ClientAppActor pid=157322)[0m 
[36m(ClientAppActor pid=157322)[0m  12                  -1  1    148224  ultralytics.nn.modules.block.C2f             [384, 128, 1]                 
[36m(ClientAppActor pid=157322)[0m  15                  -1  1     37248  ultralytics.nn.modules.block.C2f             [192, 64, 1]                  
[36m(ClientAppActor pid=157322)[0m  18                  -1  1    123648  ultralytics.nn.modules.block.C2f             [192, 128, 1]                 
[36m(ClientAppActor pid=157322)[0m  21                  -1  1    493056  ultralytics.nn.modules.block.C2f             [384, 256, 1]                 
[36m(ClientAppActor pid=157318)[0m Model summary: 129 layers, 3,011,043 parameters, 3,011,027 gradients, 8.2 GFLOPs
[36m(ClientAppActor pid=157318)[0m 
[36m(ClientAppActor pid=157318)[0m Transferred 355/355 items from pretrained weights
[36m(ClientAppActor pid=157318)[0m [34m[1mTensorBoard: [0mStart with 'tensorboard --logdir runs/detect/train696', view at http://localhost:6006/
[36m(ClientAppActor pid=157318)[0m Freezing layer 'model.22.dfl.conv.weight'
[36m(ClientAppActor pid=157318)[0m [34m[1mAMP: [0mrunning Automatic Mixed Precision (AMP) checks...
[36m(ClientAppActor pid=157324)[0m 
[36m(ClientAppActor pid=157322)[0m 
[36m(ClientAppActor pid=157317)[0m 
[36m(ClientAppActor pid=157321)[0m 
[36m(ClientAppActor pid=157325)[0m 
[36m(ClientAppActor pid=157325)[0m  12                  -1  1    148224  ultralytics.nn.modules.block.C2f             [384, 128, 1]                 
[36m(ClientAppActor pid=157325)[0m  15                  -1  1     37248  ultralytics.nn.modules.block.C2f             [192, 64, 1]                  
[36m(ClientAppActor pid=157325)[0m  18                  -1  1    123648  ultralytics.nn.modules.block.C2f             [192, 128, 1]                 
[36m(ClientAppActor pid=157325)[0m  21                  -1  1    493056  ultralytics.nn.modules.block.C2f             [384, 256, 1]                 
[36m(ClientAppActor pid=157327)[0m 
[36m(ClientAppActor pid=157319)[0m 
[36m(ClientAppActor pid=157319)[0m  12                  -1  1    148224  ultralytics.nn.modules.block.C2f             [384, 128, 1]                 
[36m(ClientAppActor pid=157319)[0m  15                  -1  1     37248  ultralytics.nn.modules.block.C2f             [192, 64, 1]                  
[36m(ClientAppActor pid=157319)[0m  18                  -1  1    123648  ultralytics.nn.modules.block.C2f             [192, 128, 1]                 
[36m(ClientAppActor pid=157317)[0m  12                  -1  1    148224  ultralytics.nn.modules.block.C2f             [384, 128, 1]                 
[36m(ClientAppActor pid=157319)[0m  21                  -1  1    493056  ultralytics.nn.modules.block.C2f             [384, 256, 1]                 
[36m(ClientAppActor pid=157317)[0m  15                  -1  1     37248  ultralytics.nn.modules.block.C2f             [192, 64, 1]                  
[36m(ClientAppActor pid=157317)[0m  18                  -1  1    123648  ultralytics.nn.modules.block.C2f             [192, 128, 1]                 
[36m(ClientAppActor pid=157317)[0m  21                  -1  1    493056  ultralytics.nn.modules.block.C2f             [384, 256, 1]                 
[36m(ClientAppActor pid=157321)[0m  12                  -1  1    148224  ultralytics.nn.modules.block.C2f             [384, 128, 1]                 
[36m(ClientAppActor pid=157321)[0m  15                  -1  1     37248  ultralytics.nn.modules.block.C2f             [192, 64, 1]                  
[36m(ClientAppActor pid=157321)[0m  18                  -1  1    123648  ultralytics.nn.modules.block.C2f             [192, 128, 1]                 
[36m(ClientAppActor pid=157321)[0m  21                  -1  1    493056  ultralytics.nn.modules.block.C2f             [384, 256, 1]                 
[36m(ClientAppActor pid=157325)[0m 
[36m(ClientAppActor pid=157327)[0m  12                  -1  1    148224  ultralytics.nn.modules.block.C2f             [384, 128, 1]                 
[36m(ClientAppActor pid=157327)[0m  15                  -1  1     37248  ultralytics.nn.modules.block.C2f             [192, 64, 1]                  
[36m(ClientAppActor pid=157327)[0m  18                  -1  1    123648  ultralytics.nn.modules.block.C2f             [192, 128, 1]                 
[36m(ClientAppActor pid=157327)[0m  21                  -1  1    493056  ultralytics.nn.modules.block.C2f             [384, 256, 1]                 
[36m(ClientAppActor pid=157319)[0m 
[36m(ClientAppActor pid=157317)[0m 
[36m(ClientAppActor pid=157321)[0m 
[36m(ClientAppActor pid=157327)[0m 
[36m(ClientAppActor pid=157318)[0m [34m[1mAMP: [0mchecks passed âœ…
[36m(ClientAppActor pid=157318)[0m Plotting labels to runs/detect/train696/labels.jpg... 
[36m(ClientAppActor pid=157319)[0m New https://pypi.org/project/ultralytics/8.3.121 available ðŸ˜ƒ Update with 'pip install -U ultralytics'[32m [repeated 7x across cluster][0m
…
mixup=0.0, copy_paste=0.0, copy_paste_mode=flip, auto_augment=randaugment, erasing=0.4, crop_fraction=1.0, cfg=None, tracker=botsort.yaml, save_dir=runs/detect/train700[32m [repeated 7x across cluster][0m
[36m(ClientAppActor pid=157319)[0m Overriding class names with single class.[32m [repeated 7x across cluster][0m
[36m(ClientAppActor pid=157319)[0m                    from  n    params  module                                       arguments                     [32m [repeated 7x across cluster][0m
[36m(ClientAppActor pid=157327)[0m  19                  -1  1    147712  ultralytics.nn.modules.conv.Conv             [128, 128, 3, 2]              [32m [repeated 54x across cluster][0m
[36m(ClientAppActor pid=157327)[0m   8                  -1  1    460288  ultralytics.nn.modules.block.C2f             [256, 256, 1, True]           [32m [repeated 28x across cluster][0m
[36m(ClientAppActor pid=157327)[0m   9                  -1  1    164608  ultralytics.nn.modules.block.SPPF            [256, 256, 5]                 [32m [repeated 7x across cluster][0m
[36m(ClientAppActor pid=157327)[0m  13                  -1  1         0  torch.nn.modules.upsampling.Upsample         [None, 2, 'nearest']          [32m [repeated 14x across cluster][0m
[36m(ClientAppActor pid=157327)[0m  20             [-1, 9]  1         0  ultralytics.nn.modules.conv.Concat           [1]                           [32m [repeated 28x across cluster][0m
[36m(ClientAppActor pid=157319)[0m  22        [15, 18, 21]  1    751507  ultralytics.nn.modules.head.Detect           [1, [64, 128, 256]]           [32m [repeated 7x across cluster][0m
[36m(ClientAppActor pid=157327)[0m Model summary: 129 layers, 3,011,043 parameters, 3,011,027 gradients, 8.2 GFLOPs[32m [repeated 7x across cluster][0m
[36m(ClientAppActor pid=157319)[0m Transferred 355/355 items from pretrained weights[32m [repeated 7x across cluster][0m
[36m(ClientAppActor pid=157319)[0m [34m[1mTensorBoard: [0mStart with 'tensorboard --logdir runs/detect/train700', view at http://localhost:6006/[32m [repeated 7x across cluster][0m
…
5, shear=0.0, perspective=0.0, flipud=0.0, fliplr=0.5, bgr=0.0, mosaic=1.0, mixup=0.0, copy_paste=0.0, copy_paste_mode=flip, auto_augment=randaugment, erasing=0.4, crop_fraction=1.0, cfg=None, tracker=botsort.yaml, save_dir=runs/detect/train704
[36m(ClientAppActor pid=157317)[0m Overriding class names with single class.
[36m(ClientAppActor pid=157317)[0m 
[36m(ClientAppActor pid=157317)[0m                    from  n    params  module                                       arguments                     
[36m(ClientAppActor pid=157317)[0m   0                  -1  1       464  ultralytics.nn.modules.conv.Conv             [3, 16, 3, 2]                 
[36m(ClientAppActor pid=157317)[0m   1                  -1  1      4672  ultralytics.nn.modules.conv.Conv             [16, 32, 3, 2]                
[36m(ClientAppActor pid=157317)[0m   2                  -1  1      7360  ultralytics.nn.modules.block.C2f             [32, 32, 1, True]             
[36m(ClientAppActor pid=157317)[0m   3                  -1  1     18560  ultralytics.nn.modules.conv.Conv             [32, 64, 3, 2]                
[36m(ClientAppActor pid=157317)[0m   4                  -1  2     49664  ultralytics.nn.modules.block.C2f             [64, 64, 2, True]             
[36m(ClientAppActor pid=157317)[0m   5                  -1  1     73984  ultralytics.nn.modules.conv.Conv             [64, 128, 3, 2]               
[36m(ClientAppActor pid=157317)[0m   6                  -1  2    197632  ultralytics.nn.modules.block.C2f             [128, 128, 2, True]           
[36m(ClientAppActor pid=157317)[0m   7                  -1  1    295424  ultralytics.nn.modules.conv.Conv             [128, 256, 3, 2]              
[36m(ClientAppActor pid=157317)[0m   8                  -1  1    460288  ultralytics.nn.modules.block.C2f             [256, 256, 1, True]           
[36m(ClientAppActor pid=157317)[0m   9                  -1  1    164608  ultralytics.nn.modules.block.SPPF            [256, 256, 5]                 
[36m(ClientAppActor pid=157317)[0m  10                  -1  1         0  torch.nn.modules.upsampling.Upsample         [None, 2, 'nearest']          
[36m(ClientAppActor pid=157317)[0m  11             [-1, 6]  1         0  ultralytics.nn.modules.conv.Concat           [1]                           
[36m(ClientAppActor pid=157317)[0m  12                  -1  1    148224  ultralytics.nn.modules.block.C2f             [384, 128, 1]                 
[36m(ClientAppActor pid=157317)[0m  13                  -1  1         0  torch.nn.modules.upsampling.Upsample         [None, 2, 'nearest']          
[36m(ClientAppActor pid=157317)[0m  14             [-1, 4]  1         0  ultralytics.nn.modules.conv.Concat           [1]                           
[36m(ClientAppActor pid=157317)[0m  15                  -1  1     37248  ultralytics.nn.modules.block.C2f             [192, 64, 1]                  
[36m(ClientAppActor pid=157317)[0m  16                  -1  1     36992  ultralytics.nn.modules.conv.Conv             [64, 64, 3, 2]                
[36m(ClientAppActor pid=157317)[0m  17            [-1, 12]  1         0  ultralytics.nn.modules.conv.Concat           [1]                           
[36m(ClientAppActor pid=157317)[0m  18                  -1  1    123648  ultralytics.nn.modules.block.C2f             [192, 128, 1]                 
[36m(ClientAppActor pid=157317)[0m  19                  -1  1    147712  ultralytics.nn.modules.conv.Conv             [128, 128, 3, 2]              
[36m(ClientAppActor pid=157317)[0m  20             [-1, 9]  1         0  ultralytics.nn.modules.conv.Concat           [1]                           
[36m(ClientAppActor pid=157317)[0m  21                  -1  1    493056  ultralytics.nn.modules.block.C2f             [384, 256, 1]                 
[36m(ClientAppActor pid=157317)[0m  22        [15, 18, 21]  1    751507  ultralytics.nn.modules.head.Detect           [1, [64, 128, 256]]           
[36m(ClientAppActor pid=157319)[0m [Client 0] Device: cuda:0[32m [repeated 8x across cluster][0m
[36m(ClientAppActor pid=157324)[0m                    all         88        149      0.499      0.362      0.386      0.274[32m [repeated 6x across cluster][0m
[36m(ClientAppActor pid=157324)[0m Speed: 2.3ms preprocess, 8.4ms inference, 0.0ms loss, 7.4ms postprocess per image[32m [repeated 7x across cluster][0m
…
[36m(ClientAppActor pid=157317)[0m                  Class     Images  Instances      Box(P          R      mAP50  mAP50-95):  88%|â–ˆâ–ˆâ–ˆâ–ˆâ–ˆâ–ˆâ–ˆâ–ˆâ–Š | 7/8 [00:06<00:00,  2.46it/s][32m [repeated 4x across cluster][0m
[36m(ClientAppActor pid=157324)[0m [34m[1mtrain: [0mScanning /WehbeDocker/YOLOV8N/datasets/client_1/train/labels.cache... 189 images, 0 backgrounds, 0 corrupt: 100%|â–ˆâ–ˆâ–ˆâ–ˆâ–ˆâ–ˆâ–ˆâ–ˆâ–ˆâ–ˆ| 189/189 [00:00<?, ?it/s][34m[1mtrain: [0mScanning /WehbeDocker/YOLOV8N/datasets/client_1/train/labels.cache... 189 images, 0 backgrounds, 0 corrupt: 100%|â–ˆâ–ˆâ–ˆâ–ˆâ–ˆâ–ˆâ–ˆâ–ˆâ–ˆâ–ˆ| 189/189 [00:00<?, ?it/s]
[36m(ClientAppActor pid=157325)[0m  12                  -1  1    148224  ultralytics.nn.modules.block.C2f             [384, 128, 1]                 
[36m(ClientAppActor pid=157325)[0m  15                  -1  1     37248  ultralytics.nn.modules.block.C2f             [192, 64, 1]                  
[36m(ClientAppActor pid=157325)[0m  18                  -1  1    123648  ultralytics.nn.modules.block.C2f             [192, 128, 1]                 
[36m(ClientAppActor pid=157325)[0m  21                  -1  1    493056  ultralytics.nn.modules.block.C2f             [384, 256, 1]                 
[36m(ClientAppActor pid=157322)[0m 
[36m(ClientAppActor pid=157321)[0m 
[36m(ClientAppActor pid=157321)[0m  12                  -1  1    148224  ultralytics.nn.modules.block.C2f             [384, 128, 1]                 
[36m(ClientAppActor pid=157321)[0m  15                  -1  1     37248  ultralytics.nn.modules.block.C2f             [192, 64, 1]                  
[36m(ClientAppActor pid=157321)[0m  18                  -1  1    123648  ultralytics.nn.modules.block.C2f             [192, 128, 1]                 
[36m(ClientAppActor pid=157321)[0m  21                  -1  1    493056  ultralytics.nn.modules.block.C2f             [384, 256, 1]                 
[36m(ClientAppActor pid=157325)[0m 
[36m(ClientAppActor pid=157327)[0m 
[36m(ClientAppActor pid=157327)[0m  12                  -1  1    148224  ultralytics.nn.modules.block.C2f             [384, 128, 1]                 
[36m(ClientAppActor pid=157318)[0m 
[36m(ClientAppActor pid=157318)[0m  12                  -1  1    148224  ultralytics.nn.modules.block.C2f             [384, 128, 1]                 
[36m(ClientAppActor pid=157318)[0m  15                  -1  1     37248  ultralytics.nn.modules.block.C2f             [192, 64, 1]                  
[36m(ClientAppActor pid=157318)[0m  18                  -1  1    123648  ultralytics.nn.modules.block.C2f             [192, 128, 1]                 
[36m(ClientAppActor pid=157318)[0m  21                  -1  1    493056  ultralytics.nn.modules.block.C2f             [384, 256, 1]                 
[36m(ClientAppActor pid=157319)[0m 
[36m(ClientAppActor pid=157319)[0m  12                  -1  1    148224  ultralytics.nn.modules.block.C2f             [384, 128, 1]                 
[36m(ClientAppActor pid=157319)[0m  15                  -1  1     37248  ultralytics.nn.modules.block.C2f             [192, 64, 1]                  
[36m(ClientAppActor pid=157319)[0m  18                  -1  1    123648  ultralytics.nn.modules.block.C2f             [192, 128, 1]                 
[36m(ClientAppActor pid=157319)[0m  21                  -1  1    493056  ultralytics.nn.modules.block.C2f             [384, 256, 1]                 
[36m(ClientAppActor pid=157327)[0m  15                  -1  1     37248  ultralytics.nn.modules.block.C2f             [192, 64, 1]                  
[36m(ClientAppActor pid=157327)[0m  18                  -1  1    123648  ultralytics.nn.modules.block.C2f             [192, 128, 1]                 
[36m(ClientAppActor pid=157322)[0m  12                  -1  1    148224  ultralytics.nn.modules.block.C2f             [384, 128, 1]                 
[36m(ClientAppActor pid=157322)[0m  15                  -1  1     37248  ultralytics.nn.modules.block.C2f             [192, 64, 1]                  
[36m(ClientAppActor pid=157322)[0m  18                  -1  1    123648  ultralytics.nn.modules.block.C2f             [192, 128, 1]                 
[36m(ClientAppActor pid=157322)[0m  21                  -1  1    493056  ultralytics.nn.modules.block.C2f             [384, 256, 1]                 
[36m(ClientAppActor pid=157321)[0m 
[36m(ClientAppActor pid=157327)[0m  21                  -1  1    493056  ultralytics.nn.modules.block.C2f             [384, 256, 1]                 
[36m(ClientAppActor pid=157318)[0m 
[36m(ClientAppActor pid=157319)[0m 
[36m(ClientAppActor pid=157317)[0m [34m[1mAMP: [0mchecks passed âœ…
[36m(ClientAppActor pid=157322)[0m 
[36m(ClientAppActor pid=157327)[0m 
[36m(ClientAppActor pid=157317)[0m Plotting labels to runs/detect/train704/labels.jpg... 
[36m(ClientAppActor pid=157319)[0m New https://pypi.org/project/ultralytics/8.3.121 available ðŸ˜ƒ Update with 'pip install -U ultralytics'[32m [repeated 7x across cluster][0m
…
[36m(ClientAppActor pid=157327)[0m Results saved to [1mruns/detect/val682[0m[32m [repeated 7x across cluster][0m
[36m(ClientAppActor pid=157324)[0m 
[36m(ClientAppActor pid=157325)[0m Model summary: 129 layers, 3,011,043 parameters, 3,011,027 gradients, 8.2 GFLOPs
[36m(ClientAppActor pid=157325)[0m 
[36m(ClientAppActor pid=157325)[0m Transferred 355/355 items from pretrained weights
[36m(ClientAppActor pid=157325)[0m [34m[1mTensorBoard: [0mStart with 'tensorboard --logdir runs/detect/train712', view at http://localhost:6006/
[36m(ClientAppActor pid=157324)[0m  12                  -1  1    148224  ultralytics.nn.modules.block.C2f             [384, 128, 1]                 
[36m(ClientAppActor pid=157324)[0m  15                  -1  1     37248  ultralytics.nn.modules.block.C2f             [192, 64, 1]                  
[36m(ClientAppActor pid=157324)[0m  18                  -1  1    123648  ultralytics.nn.modules.block.C2f             [192, 128, 1]                 
[36m(ClientAppActor pid=157325)[0m Freezing layer 'model.22.dfl.conv.weight'
[36m(ClientAppActor pid=157325)[0m [34m[1mAMP: [0mrunning Automatic Mixed Precision (AMP) checks...
[36m(ClientAppActor pid=157324)[0m  21                  -1  1    493056  ultralytics.nn.modules.block.C2f             [384, 256, 1]                 
[36m(ClientAppActor pid=157324)[0m 
[36m(ClientAppActor pid=157322)[0m 
[36m(ClientAppActor pid=157322)[0m  12                  -1  1    148224  ultralytics.nn.modules.block.C2f             [384, 128, 1]                 
[36m(ClientAppActor pid=157322)[0m  15                  -1  1     37248  ultralytics.nn.modules.block.C2f             [192, 64, 1]                  
[36m(ClientAppActor pid=157322)[0m  18                  -1  1    123648  ultralytics.nn.modules.block.C2f             [192, 128, 1]                 
[36m(ClientAppActor pid=157327)[0m 
[36m(ClientAppActor pid=157327)[0m  12                  -1  1    148224  ultralytics.nn.modules.block.C2f             [384, 128, 1]                 
[36m(ClientAppActor pid=157327)[0m  15                  -1  1     37248  ultralytics.nn.modules.block.C2f             [192, 64, 1]                  
[36m(ClientAppActor pid=157327)[0m  18                  -1  1    123648  ultralytics.nn.modules.block.C2f             [192, 128, 1]                 
[36m(ClientAppActor pid=157327)[0m  21                  -1  1    493056  ultralytics.nn.modules.block.C2f             [384, 256, 1]                 
[36m(ClientAppActor pid=157318)[0m 
[36m(ClientAppActor pid=157318)[0m  12                  -1  1    148224  ultralytics.nn.modules.block.C2f             [384, 128, 1]                 
[36m(ClientAppActor pid=157318)[0m  15                  -1  1     37248  ultralytics.nn.modules.block.C2f             [192, 64, 1]                  
[36m(ClientAppActor pid=157318)[0m  18                  -1  1    123648  ultralytics.nn.modules.block.C2f             [192, 128, 1]                 
[36m(ClientAppActor pid=157318)[0m  21                  -1  1    493056  ultralytics.nn.modules.block.C2f             [384, 256, 1]                 
[36m(ClientAppActor pid=157322)[0m  21                  -1  1    493056  ultralytics.nn.modules.block.C2f             [384, 256, 1]                 
[36m(ClientAppActor pid=157317)[0m 
[36m(ClientAppActor pid=157317)[0m  12                  -1  1    148224  ultralytics.nn.modules.block.C2f             [384, 128, 1]                 
[36m(ClientAppActor pid=157317)[0m  15                  -1  1     37248  ultralytics.nn.modules.block.C2f             [192, 64, 1]                  
[36m(ClientAppActor pid=157317)[0m  18                  -1  1    123648  ultralytics.nn.modules.block.C2f             [192, 128, 1]                 
[36m(ClientAppActor pid=157317)[0m  21                  -1  1    493056  ultralytics.nn.modules.block.C2f             [384, 256, 1]                 
[36m(ClientAppActor pid=157321)[0m 
[36m(ClientAppActor pid=157321)[0m  12                  -1  1    148224  ultralytics.nn.modules.block.C2f             [384, 128, 1]                 
[36m(ClientAppActor pid=157321)[0m  15                  -1  1     37248  ultralytics.nn.modules.block.C2f             [192, 64, 1]                  
[36m(ClientAppActor pid=157321)[0m  18                  -1  1    123648  ultralytics.nn.modules.block.C2f             [192, 128, 1]                 
[36m(ClientAppActor pid=157321)[0m  21                  -1  1    493056  ultralytics.nn.modules.block.C2f             [384, 256, 1]                 
[36m(ClientAppActor pid=157327)[0m 
[36m(ClientAppActor pid=157318)[0m 
[36m(ClientAppActor pid=157319)[0m 
[36m(ClientAppActor pid=157319)[0m  12                  -1  1    148224  ultralytics.nn.modules.block.C2f             [384, 128, 1]                 
[36m(ClientAppActor pid=157319)[0m  15                  -1  1     37248  ultralytics.nn.modules.block.C2f             [192, 64, 1]                  
[36m(ClientAppActor pid=157319)[0m  18                  -1  1    123648  ultralytics.nn.modules.block.C2f             [192, 128, 1]                 
[36m(ClientAppActor pid=157327)[0m                  Class     Images  Instances      Box(P          R      mAP50  mAP50-95):  83%|â–ˆâ–ˆâ–ˆâ–ˆâ–ˆâ–ˆâ–ˆâ–ˆâ–Ž | 5/6 [00:07<00:00,  1.15it/s][32m [repeated 27x across cluster][0m
[36m(ClientAppActor pid=157327)[0m                  Class     Images  Instances      Box(P          R      mAP50  mAP50-95): 100%|â–ˆâ–ˆâ–ˆâ–ˆâ–ˆâ–ˆâ–ˆâ–ˆâ–ˆâ–ˆ| 6/6 [00:07<00:00,  1.58it/s]                 Class     Images  Instances      Box(P          R      mAP50  mAP50-95): 100%|â–ˆâ–ˆâ–ˆâ–ˆâ–ˆâ–ˆâ–ˆâ–ˆâ–ˆâ–ˆ| 6/6 [00:07<00:00,  1.26s/it][32m [repeated 6x across cluster][0m
…
5, shear=0.0, perspective=0.0, flipud=0.0, fliplr=0.5, bgr=0.0, mosaic=1.0, mixup=0.0, copy_paste=0.0, copy_paste_mode=flip, auto_augment=randaugment, erasing=0.4, crop_fraction=1.0, cfg=None, tracker=botsort.yaml, save_dir=runs/detect/train720
[36m(ClientAppActor pid=157327)[0m Overriding class names with single class.
[36m(ClientAppActor pid=157327)[0m 
[36m(ClientAppActor pid=157327)[0m                    from  n    params  module                                       arguments                     
[36m(ClientAppActor pid=157327)[0m   0                  -1  1       464  ultralytics.nn.modules.conv.Conv             [3, 16, 3, 2]                 
[36m(ClientAppActor pid=157327)[0m   1                  -1  1      4672  ultralytics.nn.modules.conv.Conv             [16, 32, 3, 2]                
[36m(ClientAppActor pid=157327)[0m   2                  -1  1      7360  ultralytics.nn.modules.block.C2f             [32, 32, 1, True]             
[36m(ClientAppActor pid=157327)[0m   3                  -1  1     18560  ultralytics.nn.modules.conv.Conv             [32, 64, 3, 2]                
[36m(ClientAppActor pid=157327)[0m                    all         92        262       0.53       0.56      0.524      0.374[32m [repeated 7x across cluster][0m
[36m(ClientAppActor pid=157318)[0m [Client 0] Device: cuda:0[32m [repeated 8x across cluster][0m
[36m(ClientAppActor pid=157327)[0m Speed: 1.0ms preprocess, 2.5ms inference, 0.0ms loss, 4.1ms postprocess per image[32m [repeated 7x across cluster][0m
[36m(ClientAppActor pid=157327)[0m Results saved to [1mruns/detect/val694[0m[32m [repeated 7x across cluster][0m
[36m(ClientAppActor pid=157327)[0m   4                  -1  2     49664  ultralytics.nn.modules.block.C2f             [64, 64, 2, True]             
[36m(ClientAppActor pid=157327)[0m   5                  -1  1     73984  ultralytics.nn.modules.conv.Conv             [64, 128, 3, 2]               
[36m(ClientAppActor pid=157324)[0m 
[36m(ClientAppActor pid=157324)[0m   9                  -1  1    164608  ultralytics.nn.modules.block.SPPF            [256, 256, 5]                 
[36m(ClientAppActor pid=157324)[0m  10                  -1  1         0  torch.nn.modules.upsampling.Upsample         [None, 2, 'nearest']          
[36m(ClientAppActor pid=157324)[0m  11             [-1, 6]  1         0  ultralytics.nn.modules.conv.Concat           [1]                           
[36m(ClientAppActor pid=157324)[0m  12                  -1  1    148224  ultralytics.nn.modules.block.C2f             [384, 128, 1]                 
[36m(ClientAppActor pid=157324)[0m  13                  -1  1         0  torch.nn.modules.upsampling.Upsample         [None, 2, 'nearest']          
[36m(ClientAppActor pid=157324)[0m  14             [-1, 4]  1         0  ultralytics.nn.modules.conv.Concat           [1]                           
[36m(ClientAppActor pid=157324)[0m  15                  -1  1     37248  ultralytics.nn.modules.block.C2f             [192, 64, 1]                  
[36m(ClientAppActor pid=157324)[0m  17            [-1, 12]  1         0  ultralytics.nn.modules.conv.Concat           [1]                           
[36m(ClientAppActor pid=157324)[0m  18                  -1  1    123648  ultralytics.nn.modules.block.C2f             [192, 128, 1]                 
[36m(ClientAppActor pid=157324)[0m  20             [-1, 9]  1         0  ultralytics.nn.modules.conv.Concat           [1]                           
[36m(ClientAppActor pid=157324)[0m  21                  -1  1    493056  ultralytics.nn.modules.block.C2f             [384, 256, 1]                 
[36m(ClientAppActor pid=157324)[0m  22        [15, 18, 21]  1    751507  ultralytics.nn.modules.head.Detect           [1, [64, 128, 256]]           
[36m(ClientAppActor pid=157327)[0m  12                  -1  1    148224  ultralytics.nn.modules.block.C2f             [384, 128, 1]                 
[36m(ClientAppActor pid=157327)[0m  15                  -1  1     37248  ultralytics.nn.modules.block.C2f             [192, 64, 1]                  
[36m(ClientAppActor pid=157327)[0m  18                  -1  1    123648  ultralytics.nn.modules.block.C2f             [192, 128, 1]                 
[36m(ClientAppActor pid=157327)[0m  21                  -1  1    493056  ultralytics.nn.modules.block.C2f             [384, 256, 1]                 
[36m(ClientAppActor pid=157324)[0m Model summary: 129 layers, 3,011,043 parameters, 3,011,027 gradients, 8.2 GFLOPs
[36m(ClientAppActor pid=157324)[0m 
[36m(ClientAppActor pid=157324)[0m Transferred 355/355 items from pretrained weights
[36m(ClientAppActor pid=157324)[0m [34m[1mTensorBoard: [0mStart with 'tensorboard --logdir runs/detect/train721', view at http://localhost:6006/
[36m(ClientAppActor pid=157324)[0m Freezing layer 'model.22.dfl.conv.weight'
[36m(ClientAppActor pid=157324)[0m [34m[1mAMP: [0mrunning Automatic Mixed Precision (AMP) checks...
[36m(ClientAppActor pid=157327)[0m 
[36m(ClientAppActor pid=157317)[0m 
[36m(ClientAppActor pid=157317)[0m  12                  -1  1    148224  ultralytics.nn.modules.block.C2f             [384, 128, 1]                 
[36m(ClientAppActor pid=157317)[0m  15                  -1  1     37248  ultralytics.nn.modules.block.C2f             [192, 64, 1]                  
[36m(ClientAppActor pid=157317)[0m  18                  -1  1    123648  ultralytics.nn.modules.block.C2f             [192, 128, 1]                 
[36m(ClientAppActor pid=157327)[0m                  Class     Images  Instances      Box(P          R      mAP50  mAP50-95): 100%|â–ˆâ–ˆâ–ˆâ–ˆâ–ˆâ–ˆâ–ˆâ–ˆâ–ˆâ–ˆ| 6/6 [00:06<00:00,  1.67it/s]                 Class     Images  Instances      Box(P          R      mAP50  mAP50-95): 100%|â–ˆâ–ˆâ–ˆâ–ˆâ–ˆâ–ˆâ–ˆâ–ˆâ–ˆâ–ˆ| 6/6 [00:06<00:00,  1.11s/it][32m [repeated 7x across cluster][0m
…
mages, 0 backgrounds, 0 corrupt: 100%|â–ˆâ–ˆâ–ˆâ–ˆâ–ˆâ–ˆâ–ˆâ–ˆâ–ˆâ–ˆ| 197/197 [00:00<?, ?it/s]
[36m(ClientAppActor pid=157327)[0m [34m[1mtrain: [0mScanning /WehbeDocker/YOLOV8N/datasets/client_4/train/labels.cache... 377 images, 0 backgrounds, 0 corrupt: 100%|â–ˆâ–ˆâ–ˆâ–ˆâ–ˆâ–ˆâ–ˆâ–ˆâ–ˆâ–ˆ| 377/377 [00:00<?, ?it/s][34m[1mtrain: [0mScanning /WehbeDocker/YOLOV8N/datasets/client_4/train/labels.cache... 377 images, 0 backgrounds, 0 corrupt: 100%|â–ˆâ–ˆâ–ˆâ–ˆâ–ˆâ–ˆâ–ˆâ–ˆâ–ˆâ–ˆ| 377/377 [00:00<?, ?it/s]
[36m(ClientAppActor pid=157317)[0m  21                  -1  1    493056  ultralytics.nn.modules.block.C2f             [384, 256, 1]                 
[36m(ClientAppActor pid=157325)[0m 
[36m(ClientAppActor pid=157319)[0m 
[36m(ClientAppActor pid=157319)[0m  12                  -1  1    148224  ultralytics.nn.modules.block.C2f             [384, 128, 1]                 
[36m(ClientAppActor pid=157319)[0m  15                  -1  1     37248  ultralytics.nn.modules.block.C2f             [192, 64, 1]                  
[36m(ClientAppActor pid=157319)[0m  18                  -1  1    123648  ultralytics.nn.modules.block.C2f             [192, 128, 1]                 
[36m(ClientAppActor pid=157319)[0m  21                  -1  1    493056  ultralytics.nn.modules.block.C2f             [384, 256, 1]                 
[36m(ClientAppActor pid=157317)[0m 
[36m(ClientAppActor pid=157322)[0m 
[36m(ClientAppActor pid=157322)[0m  12                  -1  1    148224  ultralytics.nn.modules.block.C2f             [384, 128, 1]                 
[36m(ClientAppActor pid=157322)[0m  15                  -1  1     37248  ultralytics.nn.modules.block.C2f             [192, 64, 1]                  
[36m(ClientAppActor pid=157322)[0m  18                  -1  1    123648  ultralytics.nn.modules.block.C2f             [192, 128, 1]                 
[36m(ClientAppActor pid=157322)[0m  21                  -1  1    493056  ultralytics.nn.modules.block.C2f             [384, 256, 1]                 
[36m(ClientAppActor pid=157321)[0m 
[36m(ClientAppActor pid=157321)[0m  12                  -1  1    148224  ultralytics.nn.modules.block.C2f             [384, 128, 1]                 
[36m(ClientAppActor pid=157321)[0m  15                  -1  1     37248  ultralytics.nn.modules.block.C2f             [192, 64, 1]                  
[36m(ClientAppActor pid=157321)[0m  18                  -1  1    123648  ultralytics.nn.modules.block.C2f             [192, 128, 1]                 
[36m(ClientAppActor pid=157321)[0m  21                  -1  1    493056  ultralytics.nn.modules.block.C2f             [384, 256, 1]                 
[36m(ClientAppActor pid=157325)[0m  12                  -1  1    148224  ultralytics.nn.modules.block.C2f             [384, 128, 1]                 
[36m(ClientAppActor pid=157325)[0m  15                  -1  1     37248  ultralytics.nn.modules.block.C2f             [192, 64, 1]                  
[36m(ClientAppActor pid=157325)[0m  18                  -1  1    123648  ultralytics.nn.modules.block.C2f             [192, 128, 1]                 
[36m(ClientAppActor pid=157325)[0m  21                  -1  1    493056  ultralytics.nn.modules.block.C2f             [384, 256, 1]                 
[36m(ClientAppActor pid=157318)[0m 
[36m(ClientAppActor pid=157318)[0m  12                  -1  1    148224  ultralytics.nn.modules.block.C2f             [384, 128, 1]                 
[36m(ClientAppActor pid=157318)[0m  15                  -1  1     37248  ultralytics.nn.modules.block.C2f             [192, 64, 1]                  
[36m(ClientAppActor pid=157318)[0m  18                  -1  1    123648  ultralytics.nn.modules.block.C2f             [192, 128, 1]                 
[36m(ClientAppActor pid=157318)[0m  21                  -1  1    493056  ultralytics.nn.modules.block.C2f             [384, 256, 1]                 
[36m(ClientAppActor pid=157319)[0m 
[36m(ClientAppActor pid=157322)[0m 
[36m(ClientAppActor pid=157321)[0m 
[36m(ClientAppActor pid=157325)[0m 
[36m(ClientAppActor pid=157318)[0m 
[36m(ClientAppActor pid=157327)[0m [34m[1mAMP: [0mchecks passed âœ…
[36m(ClientAppActor pid=157327)[0m Plotting labels to runs/detect/train720/labels.jpg... 
[36m(ClientAppActor pid=157318)[0m New https://pypi.org/project/ultralytics/8.3.121 available ðŸ˜ƒ Update with 'pip install -U ultralytics'[32m [repeated 7x across cluster][0m
…
mixup=0.0, copy_paste=0.0, copy_paste_mode=flip, auto_augment=randaugment, erasing=0.4, crop_fraction=1.0, cfg=None, tracker=botsort.yaml, save_dir=runs/detect/train726[32m [repeated 7x across cluster][0m
[36m(ClientAppActor pid=157318)[0m Overriding class names with single class.[32m [repeated 7x across cluster][0m
[36m(ClientAppActor pid=157318)[0m                    from  n    params  module                                       arguments                     [32m [repeated 7x across cluster][0m
[36m(ClientAppActor pid=157318)[0m  19                  -1  1    147712  ultralytics.nn.modules.conv.Conv             [128, 128, 3, 2]              [32m [repeated 52x across cluster][0m
[36m(ClientAppActor pid=157318)[0m   8                  -1  1    460288  ultralytics.nn.modules.block.C2f             [256, 256, 1, True]           [32m [repeated 30x across cluster][0m
[36m(ClientAppActor pid=157318)[0m   9                  -1  1    164608  ultralytics.nn.modules.block.SPPF            [256, 256, 5]                 [32m [repeated 7x across cluster][0m
[36m(ClientAppActor pid=157318)[0m  13                  -1  1         0  torch.nn.modules.upsampling.Upsample         [None, 2, 'nearest']          [32m [repeated 14x across cluster][0m
[36m(ClientAppActor pid=157318)[0m  20             [-1, 9]  1         0  ultralytics.nn.modules.conv.Concat           [1]                           [32m [repeated 28x across cluster][0m
[36m(ClientAppActor pid=157318)[0m  22        [15, 18, 21]  1    751507  ultralytics.nn.modules.head.Detect           [1, [64, 128, 256]]           [32m [repeated 7x across cluster][0m
[36m(ClientAppActor pid=157318)[0m Model summary: 129 layers, 3,011,043 parameters, 3,011,027 gradients, 8.2 GFLOPs[32m [repeated 7x across cluster][0m
[36m(ClientAppActor pid=157322)[0m Transferred 355/355 items from pretrained weights[32m [repeated 7x across cluster][0m
[36m(ClientAppActor pid=157322)[0m [34m[1mTensorBoard: [0mStart with 'tensorboard --logdir runs/detect/train727', view at http://localhost:6006/[32m [repeated 7x across cluster][0m
…
5, shear=0.0, perspective=0.0, flipud=0.0, fliplr=0.5, bgr=0.0, mosaic=1.0, mixup=0.0, copy_paste=0.0, copy_paste_mode=flip, auto_augment=randaugment, erasing=0.4, crop_fraction=1.0, cfg=None, tracker=botsort.yaml, save_dir=runs/detect/train728
[36m(ClientAppActor pid=157322)[0m Overriding class names with single class.
[36m(ClientAppActor pid=157322)[0m 
[36m(ClientAppActor pid=157322)[0m                    from  n    params  module                                       arguments                     
[36m(ClientAppActor pid=157322)[0m   0                  -1  1       464  ultralytics.nn.modules.conv.Conv             [3, 16, 3, 2]                 
[36m(ClientAppActor pid=157322)[0m   1                  -1  1      4672  ultralytics.nn.modules.conv.Conv             [16, 32, 3, 2]                
[36m(ClientAppActor pid=157322)[0m   2                  -1  1      7360  ultralytics.nn.modules.block.C2f             [32, 32, 1, True]             
[36m(ClientAppActor pid=157322)[0m   3                  -1  1     18560  ultralytics.nn.modules.conv.Conv             [32, 64, 3, 2]                
[36m(ClientAppActor pid=157322)[0m   4                  -1  2     49664  ultralytics.nn.modules.block.C2f             [64, 64, 2, True]             
[36m(ClientAppActor pid=157322)[0m   5                  -1  1     73984  ultralytics.nn.modules.conv.Conv             [64, 128, 3, 2]               
[36m(ClientAppActor pid=157322)[0m   6                  -1  2    197632  ultralytics.nn.modules.block.C2f             [128, 128, 2, True]           
[36m(ClientAppActor pid=157322)[0m   7                  -1  1    295424  ultralytics.nn.modules.conv.Conv             [128, 256, 3, 2]              
[36m(ClientAppActor pid=157322)[0m   8                  -1  1    460288  ultralytics.nn.modules.block.C2f             [256, 256, 1, True]           
[36m(ClientAppActor pid=157322)[0m                    all         61        191      0.566      0.431      0.474      0.324[32m [repeated 7x across cluster][0m
[36m(ClientAppActor pid=157319)[0m [Client 4] Device: cuda:0[32m [repeated 8x across cluster][0m
[36m(ClientAppActor pid=157318)[0m Speed: 0.3ms preprocess, 5.1ms inference, 0.0ms loss, 6.5ms postprocess per image[32m [repeated 7x across cluster][0m
[36m(ClientAppActor pid=157318)[0m Results saved to [1mruns/detect/val699[0m[32m [repeated 7x across cluster][0m
[36m(ClientAppActor pid=157322)[0m   9                  -1  1    164608  ultralytics.nn.modules.block.SPPF            [256, 256, 5]                 
[36m(ClientAppActor pid=157318)[0m                  Class     Images  Instances      Box(P          R      mAP50  mAP50-95): 100%|â–ˆâ–ˆâ–ˆâ–ˆâ–ˆâ–ˆâ–ˆâ–ˆâ–ˆâ–ˆ| 8/8 [00:07<00:00,  2.68it/s]                 Class     Images  Instances      Box(P          R      mAP50  mAP50-95): 100%|â–ˆâ–ˆâ–ˆâ–ˆâ–ˆâ–ˆâ–ˆâ–ˆâ–ˆâ–ˆ| 8/8 [00:07<00:00,  1.05it/s][32m [repeated 7x across cluster][0m
…
[36m(ClientAppActor pid=157318)[0m                  Class     Images  Instances      Box(P          R      mAP50  mAP50-95):  88%|â–ˆâ–ˆâ–ˆâ–ˆâ–ˆâ–ˆâ–ˆâ–ˆâ–Š | 7/8 [00:07<00:00,  2.01it/s][32m [repeated 5x across cluster][0m
[36m(ClientAppActor pid=157318)[0m [34m[1mtrain: [0mScanning /WehbeDocker/YOLOV8N/datasets/client_7/train/labels.cache... 262 images, 0 backgrounds, 0 corrupt: 100%|â–ˆâ–ˆâ–ˆâ–ˆâ–ˆâ–ˆâ–ˆâ–ˆâ–ˆâ–ˆ| 262/262 [00:00<?, ?it/s][34m[1mtrain: [0mScanning /WehbeDocker/YOLOV8N/datasets/client_7/train/labels.cache... 262 images, 0 backgrounds, 0 corrupt: 100%|â–ˆâ–ˆâ–ˆâ–ˆâ–ˆâ–ˆâ–ˆâ–ˆâ–ˆâ–ˆ| 262/262 [00:00<?, ?it/s]
[36m(ClientAppActor pid=157322)[0m  10                  -1  1         0  torch.nn.modules.upsampling.Upsample         [None, 2, 'nearest']          
[36m(ClientAppActor pid=157322)[0m  11             [-1, 6]  1         0  ultralytics.nn.modules.conv.Concat           [1]                           
[36m(ClientAppActor pid=157322)[0m  12                  -1  1    148224  ultralytics.nn.modules.block.C2f             [384, 128, 1]                 
[36m(ClientAppActor pid=157322)[0m  13                  -1  1         0  torch.nn.modules.upsampling.Upsample         [None, 2, 'nearest']          
[36m(ClientAppActor pid=157322)[0m  14             [-1, 4]  1         0  ultralytics.nn.modules.conv.Concat           [1]                           
[36m(ClientAppActor pid=157322)[0m  15                  -1  1     37248  ultralytics.nn.modules.block.C2f             [192, 64, 1]                  
[36m(ClientAppActor pid=157322)[0m  16                  -1  1     36992  ultralytics.nn.modules.conv.Conv             [64, 64, 3, 2]                
[36m(ClientAppActor pid=157322)[0m  17            [-1, 12]  1         0  ultralytics.nn.modules.conv.Concat           [1]                           
[36m(ClientAppActor pid=157322)[0m  18                  -1  1    123648  ultralytics.nn.modules.block.C2f             [192, 128, 1]                 
[36m(ClientAppActor pid=157322)[0m  19                  -1  1    147712  ultralytics.nn.modules.conv.Conv             [128, 128, 3, 2]              
[36m(ClientAppActor pid=157322)[0m  20             [-1, 9]  1         0  ultralytics.nn.modules.conv.Concat           [1]                           
[36m(ClientAppActor pid=157322)[0m  21                  -1  1    493056  ultralytics.nn.modules.block.C2f             [384, 256, 1]                 
[36m(ClientAppActor pid=157322)[0m  22        [15, 18, 21]  1    751507  ultralytics.nn.modules.head.Detect           [1, [64, 128, 256]]           
[36m(ClientAppActor pid=157322)[0m Model summary: 129 layers, 3,011,043 parameters, 3,011,027 gradients, 8.2 GFLOPs
[36m(ClientAppActor pid=157322)[0m 
[36m(ClientAppActor pid=157322)[0m Transferred 355/355 items from pretrained weights
[36m(ClientAppActor pid=157322)[0m [34m[1mTensorBoard: [0mStart with 'tensorboard --logdir runs/detect/train728', view at http://localhost:6006/
[36m(ClientAppActor pid=157322)[0m Freezing layer 'model.22.dfl.conv.weight'
[36m(ClientAppActor pid=157322)[0m [34m[1mAMP: [0mrunning Automatic Mixed Precision (AMP) checks...
[36m(ClientAppActor pid=157318)[0m 
[36m(ClientAppActor pid=157318)[0m  12                  -1  1    148224  ultralytics.nn.modules.block.C2f             [384, 128, 1]                 
[36m(ClientAppActor pid=157318)[0m  15                  -1  1     37248  ultralytics.nn.modules.block.C2f             [192, 64, 1]                  
[36m(ClientAppActor pid=157318)[0m  18                  -1  1    123648  ultralytics.nn.modules.block.C2f             [192, 128, 1]                 
[36m(ClientAppActor pid=157318)[0m  21                  -1  1    493056  ultralytics.nn.modules.block.C2f             [384, 256, 1]                 
[36m(ClientAppActor pid=157318)[0m 
[36m(ClientAppActor pid=157322)[0m [34m[1mAMP: [0mchecks passed âœ…
[36m(ClientAppActor pid=157321)[0m 
[36m(ClientAppActor pid=157321)[0m  12                  -1  1    148224  ultralytics.nn.modules.block.C2f             [384, 128, 1]                 
[36m(ClientAppActor pid=157321)[0m  15                  -1  1     37248  ultralytics.nn.modules.block.C2f             [192, 64, 1]                  
[36m(ClientAppActor pid=157321)[0m  18                  -1  1    123648  ultralytics.nn.modules.block.C2f             [192, 128, 1]                 
[36m(ClientAppActor pid=157321)[0m  21                  -1  1    493056  ultralytics.nn.modules.block.C2f             [384, 256, 1]                 
[36m(ClientAppActor pid=157317)[0m 
[36m(ClientAppActor pid=157317)[0m  12                  -1  1    148224  ultralytics.nn.modules.block.C2f             [384, 128, 1]                 
[36m(ClientAppActor pid=157317)[0m  15                  -1  1     37248  ultralytics.nn.modules.block.C2f             [192, 64, 1]                  
[36m(ClientAppActor pid=157317)[0m  18                  -1  1    123648  ultralytics.nn.modules.block.C2f             [192, 128, 1]                 
[36m(ClientAppActor pid=157317)[0m  21                  -1  1    493056  ultralytics.nn.modules.block.C2f             [384, 256, 1]                 
[36m(ClientAppActor pid=157324)[0m 
[36m(ClientAppActor pid=157324)[0m  12                  -1  1    148224  ultralytics.nn.modules.block.C2f             [384, 128, 1]                 
[36m(ClientAppActor pid=157324)[0m  15                  -1  1     37248  ultralytics.nn.modules.block.C2f             [192, 64, 1]                  
[36m(ClientAppActor pid=157324)[0m  18                  -1  1    123648  ultralytics.nn.modules.block.C2f             [192, 128, 1]                 
[36m(ClientAppActor pid=157324)[0m  21                  -1  1    493056  ultralytics.nn.modules.block.C2f             [384, 256, 1]                 
[36m(ClientAppActor pid=157321)[0m 
[36m(ClientAppActor pid=157325)[0m 
[36m(ClientAppActor pid=157325)[0m  12                  -1  1    148224  ultralytics.nn.modules.block.C2f             [384, 128, 1]                 
[36m(ClientAppActor pid=157325)[0m  15                  -1  1     37248  ultralytics.nn.modules.block.C2f             [192, 64, 1]                  
[36m(ClientAppActor pid=157325)[0m  18                  -1  1    123648  ultralytics.nn.modules.block.C2f             [192, 128, 1]                 
[36m(ClientAppActor pid=157325)[0m  21                  -1  1    493056  ultralytics.nn.modules.block.C2f             [384, 256, 1]                 
[36m(ClientAppActor pid=157327)[0m 
[36m(ClientAppActor pid=157327)[0m  12                  -1  1    148224  ultralytics.nn.modules.block.C2f             [384, 128, 1]                 
[36m(ClientAppActor pid=157327)[0m  15                  -1  1     37248  ultralytics.nn.modules.block.C2f             [192, 64, 1]                  
[36m(ClientAppActor pid=157327)[0m  18                  -1  1    123648  ultralytics.nn.modules.block.C2f             [192, 128, 1]                 
[36m(ClientAppActor pid=157327)[0m  21                  -1  1    493056  ultralytics.nn.modules.block.C2f             [384, 256, 1]                 
[36m(ClientAppActor pid=157319)[0m 
[36m(ClientAppActor pid=157319)[0m  12                  -1  1    148224  ultralytics.nn.modules.block.C2f             [384, 128, 1]                 
[36m(ClientAppActor pid=157319)[0m  15                  -1  1     37248  ultralytics.nn.modules.block.C2f             [192, 64, 1]                  
[36m(ClientAppActor pid=157319)[0m  18                  -1  1    123648  ultralytics.nn.modules.block.C2f             [192, 128, 1]                 
[36m(ClientAppActor pid=157319)[0m  21                  -1  1    493056  ultralytics.nn.modules.block.C2f             [384, 256, 1]                 
[36m(ClientAppActor pid=157317)[0m 
[36m(ClientAppActor pid=157324)[0m 
[36m(ClientAppActor pid=157325)[0m 
[36m(ClientAppActor pid=157327)[0m 
[36m(ClientAppActor pid=157319)[0m 
[36m(ClientAppActor pid=157322)[0m Plotting labels to runs/detect/train728/labels.jpg... 
[36m(ClientAppActor pid=157319)[0m New https://pypi.org/project/ultralytics/8.3.121 available ðŸ˜ƒ Update with 'pip install -U ultralytics'[32m [repeated 7x across cluster][0m
…
5, shear=0.0, perspective=0.0, flipud=0.0, fliplr=0.5, bgr=0.0, mosaic=1.0, mixup=0.0, copy_paste=0.0, copy_paste_mode=flip, auto_augment=randaugment, erasing=0.4, crop_fraction=1.0, cfg=None, tracker=botsort.yaml, save_dir=runs/detect/train737
[36m(ClientAppActor pid=157317)[0m Overriding class names with single class.
[36m(ClientAppActor pid=157317)[0m 
[36m(ClientAppActor pid=157317)[0m                    from  n    params  module                                       arguments                     
[36m(ClientAppActor pid=157317)[0m   0                  -1  1       464  ultralytics.nn.modules.conv.Conv             [3, 16, 3, 2]                 
[36m(ClientAppActor pid=157317)[0m   1                  -1  1      4672  ultralytics.nn.modules.conv.Conv             [16, 32, 3, 2]                
[36m(ClientAppActor pid=157317)[0m   2                  -1  1      7360  ultralytics.nn.modules.block.C2f             [32, 32, 1, True]             
[36m(ClientAppActor pid=157317)[0m   3                  -1  1     18560  ultralytics.nn.modules.conv.Conv             [32, 64, 3, 2]                
[36m(ClientAppActor pid=157317)[0m   4                  -1  2     49664  ultralytics.nn.modules.block.C2f             [64, 64, 2, True]             
[36m(ClientAppActor pid=157317)[0m   5                  -1  1     73984  ultralytics.nn.modules.conv.Conv             [64, 128, 3, 2]               
[36m(ClientAppActor pid=157317)[0m   6                  -1  2    197632  ultralytics.nn.modules.block.C2f             [128, 128, 2, True]           
[36m(ClientAppActor pid=157317)[0m   7                  -1  1    295424  ultralytics.nn.modules.conv.Conv             [128, 256, 3, 2]              
[36m(ClientAppActor pid=157318)[0m                    all         92        262      0.608      0.526      0.546      0.395[32m [repeated 7x across cluster][0m
[36m(ClientAppActor pid=157327)[0m [Client 7] Device: cuda:0[32m [repeated 8x across cluster][0m
[36m(ClientAppActor pid=157318)[0m Speed: 1.6ms preprocess, 4.9ms inference, 0.0ms loss, 4.4ms postprocess per image[32m [repeated 7x across cluster][0m
[36m(ClientAppActor pid=157318)[0m Results saved to [1mruns/detect/val705[0m[32m [repeated 7x across cluster][0m
[36m(ClientAppActor pid=157318)[0m 
[36m(ClientAppActor pid=157318)[0m   9                  -1  1    164608  ultralytics.nn.modules.block.SPPF            [256, 256, 5]                 
[36m(ClientAppActor pid=157318)[0m  10                  -1  1         0  torch.nn.modules.upsampling.Upsample         [None, 2, 'nearest']          
[36m(ClientAppActor pid=157318)[0m  11             [-1, 6]  1         0  ultralytics.nn.modules.conv.Concat           [1]                           
[36m(ClientAppActor pid=157318)[0m  12                  -1  1    148224  ultralytics.nn.modules.block.C2f             [384, 128, 1]                 
[36m(ClientAppActor pid=157318)[0m  13                  -1  1         0  torch.nn.modules.upsampling.Upsample         [None, 2, 'nearest']          
[36m(ClientAppActor pid=157318)[0m  14             [-1, 4]  1         0  ultralytics.nn.modules.conv.Concat           [1]                           
[36m(ClientAppActor pid=157318)[0m  15                  -1  1     37248  ultralytics.nn.modules.block.C2f             [192, 64, 1]                  
[36m(ClientAppActor pid=157318)[0m  17            [-1, 12]  1         0  ultralytics.nn.modules.conv.Concat           [1]                           
[36m(ClientAppActor pid=157318)[0m  18                  -1  1    123648  ultralytics.nn.modules.block.C2f             [192, 128, 1]                 
[36m(ClientAppActor pid=157318)[0m  20             [-1, 9]  1         0  ultralytics.nn.modules.conv.Concat           [1]                           
[36m(ClientAppActor pid=157318)[0m  21                  -1  1    493056  ultralytics.nn.modules.block.C2f             [384, 256, 1]                 
[36m(ClientAppActor pid=157318)[0m  22        [15, 18, 21]  1    751507  ultralytics.nn.modules.head.Detect           [1, [64, 128, 256]]           
[36m(ClientAppActor pid=157317)[0m  12                  -1  1    148224  ultralytics.nn.modules.block.C2f             [384, 128, 1]                 
[36m(ClientAppActor pid=157317)[0m  15                  -1  1     37248  ultralytics.nn.modules.block.C2f             [192, 64, 1]                  
[36m(ClientAppActor pid=157317)[0m  18                  -1  1    123648  ultralytics.nn.modules.block.C2f             [192, 128, 1]                 
[36m(ClientAppActor pid=157317)[0m  21                  -1  1    493056  ultralytics.nn.modules.block.C2f             [384, 256, 1]                 
[36m(ClientAppActor pid=157318)[0m Model summary: 129 layers, 3,011,043 parameters, 3,011,027 gradients, 8.2 GFLOPs
[36m(ClientAppActor pid=157318)[0m 
[36m(ClientAppActor pid=157318)[0m Transferred 355/355 items from pretrained weights
[36m(ClientAppActor pid=157318)[0m [34m[1mTensorBoard: [0mStart with 'tensorboard --logdir runs/detect/train736', view at http://localhost:6006/
[36m(ClientAppActor pid=157318)[0m Freezing layer 'model.22.dfl.conv.weight'
[36m(ClientAppActor pid=157318)[0m [34m[1mAMP: [0mrunning Automatic Mixed Precision (AMP) checks...
[36m(ClientAppActor pid=157317)[0m 
[36m(ClientAppActor pid=157324)[0m 
[36m(ClientAppActor pid=157324)[0m  12                  -1  1    148224  ultralytics.nn.modules.block.C2f             [384, 128, 1]                 
[36m(ClientAppActor pid=157324)[0m  15                  -1  1     37248  ultralytics.nn.modules.block.C2f             [192, 64, 1]                  
[36m(ClientAppActor pid=157325)[0m                  Class     Images  Instances      Box(P          R      mAP50  mAP50-95): 100%|â–ˆâ–ˆâ–ˆâ–ˆâ–ˆâ–ˆâ–ˆâ–ˆâ–ˆâ–ˆ| 8/8 [00:07<00:00,  2.48it/s]                 Class     Images  Instances      Box(P          R      mAP50  mAP50-95): 100%|â–ˆâ–ˆâ–ˆâ–ˆâ–ˆâ–ˆâ–ˆâ–ˆâ–ˆâ–ˆ| 8/8 [00:07<00:00,  1.11it/s][32m [repeated 7x across cluster][0m
…
[36m(ClientAppActor pid=157325)[0m                  Class     Images  Instances      Box(P          R      mAP50  mAP50-95):  88%|â–ˆâ–ˆâ–ˆâ–ˆâ–ˆâ–ˆâ–ˆâ–ˆâ–Š | 7/8 [00:07<00:00,  1.95it/s]
[36m(ClientAppActor pid=157317)[0m [34m[1mtrain: [0mScanning /WehbeDocker/YOLOV8N/datasets/client_4/train/labels.cache... 377 images, 0 backgrounds, 0 corrupt: 100%|â–ˆâ–ˆâ–ˆâ–ˆâ–ˆâ–ˆâ–ˆâ–ˆâ–ˆâ–ˆ| 377/377 [00:00<?, ?it/s][34m[1mtrain: [0mScanning /WehbeDocker/YOLOV8N/datasets/client_4/train/labels.cache... 377 images, 0 backgrounds, 0 corrupt: 100%|â–ˆâ–ˆâ–ˆâ–ˆâ–ˆâ–ˆâ–ˆâ–ˆâ–ˆâ–ˆ| 377/377 [00:00<?, ?it/s]
[36m(ClientAppActor pid=157324)[0m  18                  -1  1    123648  ultralytics.nn.modules.block.C2f             [192, 128, 1]                 
[36m(ClientAppActor pid=157324)[0m  21                  -1  1    493056  ultralytics.nn.modules.block.C2f             [384, 256, 1]                 
[36m(ClientAppActor pid=157325)[0m 
[36m(ClientAppActor pid=157325)[0m  12                  -1  1    148224  ultralytics.nn.modules.block.C2f             [384, 128, 1]                 
[36m(ClientAppActor pid=157325)[0m  15                  -1  1     37248  ultralytics.nn.modules.block.C2f             [192, 64, 1]                  
[36m(ClientAppActor pid=157325)[0m  18                  -1  1    123648  ultralytics.nn.modules.block.C2f             [192, 128, 1]                 
[36m(ClientAppActor pid=157325)[0m  21                  -1  1    493056  ultralytics.nn.modules.block.C2f             [384, 256, 1]                 
[36m(ClientAppActor pid=157319)[0m 
[36m(ClientAppActor pid=157319)[0m  12                  -1  1    148224  ultralytics.nn.modules.block.C2f             [384, 128, 1]                 
[36m(ClientAppActor pid=157319)[0m  15                  -1  1     37248  ultralytics.nn.modules.block.C2f             [192, 64, 1]                  
[36m(ClientAppActor pid=157319)[0m  18                  -1  1    123648  ultralytics.nn.modules.block.C2f             [192, 128, 1]                 
[36m(ClientAppActor pid=157319)[0m  21                  -1  1    493056  ultralytics.nn.modules.block.C2f             [384, 256, 1]                 
[36m(ClientAppActor pid=157324)[0m 
[36m(ClientAppActor pid=157322)[0m 
[36m(ClientAppActor pid=157322)[0m  12                  -1  1    148224  ultralytics.nn.modules.block.C2f             [384, 128, 1]                 
[36m(ClientAppActor pid=157322)[0m  15                  -1  1     37248  ultralytics.nn.modules.block.C2f             [192, 64, 1]                  
[36m(ClientAppActor pid=157322)[0m  18                  -1  1    123648  ultralytics.nn.modules.block.C2f             [192, 128, 1]                 
[36m(ClientAppActor pid=157322)[0m  21                  -1  1    493056  ultralytics.nn.modules.block.C2f             [384, 256, 1]                 
[36m(ClientAppActor pid=157321)[0m 
[36m(ClientAppActor pid=157321)[0m  12                  -1  1    148224  ultralytics.nn.modules.block.C2f             [384, 128, 1]                 
[36m(ClientAppActor pid=157321)[0m  15                  -1  1     37248  ultralytics.nn.modules.block.C2f             [192, 64, 1]                  
[36m(ClientAppActor pid=157321)[0m  18                  -1  1    123648  ultralytics.nn.modules.block.C2f             [192, 128, 1]                 
[36m(ClientAppActor pid=157321)[0m  21                  -1  1    493056  ultralytics.nn.modules.block.C2f             [384, 256, 1]                 
[36m(ClientAppActor pid=157325)[0m 
[36m(ClientAppActor pid=157327)[0m 
[36m(ClientAppActor pid=157327)[0m  12                  -1  1    148224  ultralytics.nn.modules.block.C2f             [384, 128, 1]                 
[36m(ClientAppActor pid=157327)[0m  15                  -1  1     37248  ultralytics.nn.modules.block.C2f             [192, 64, 1]                  
[36m(ClientAppActor pid=157327)[0m  18                  -1  1    123648  ultralytics.nn.modules.block.C2f             [192, 128, 1]                 
[36m(ClientAppActor pid=157327)[0m  21                  -1  1    493056  ultralytics.nn.modules.block.C2f             [384, 256, 1]                 
[36m(ClientAppActor pid=157319)[0m 
[36m(ClientAppActor pid=157322)[0m 
[36m(ClientAppActor pid=157321)[0m 
[36m(ClientAppActor pid=157327)[0m 
[36m(ClientAppActor pid=157318)[0m [34m[1mAMP: [0mchecks passed âœ…
[36m(ClientAppActor pid=157317)[0m Plotting labels to runs/detect/train737/labels.jpg... 
[36m(ClientAppActor pid=157327)[0m New https://pypi.org/project/ultralytics/8.3.121 available ðŸ˜ƒ Update with 'pip install -U ultralytics'[32m [repeated 7x across cluster][0m
…
mixup=0.0, copy_paste=0.0, copy_paste_mode=flip, auto_augment=randaugment, erasing=0.4, crop_fraction=1.0, cfg=None, tracker=botsort.yaml, save_dir=runs/detect/train741[32m [repeated 7x across cluster][0m
[36m(ClientAppActor pid=157327)[0m Overriding class names with single class.[32m [repeated 7x across cluster][0m
[36m(ClientAppActor pid=157327)[0m                    from  n    params  module                                       arguments                     [32m [repeated 7x across cluster][0m
[36m(ClientAppActor pid=157327)[0m  19                  -1  1    147712  ultralytics.nn.modules.conv.Conv             [128, 128, 3, 2]              [32m [repeated 51x across cluster][0m
[36m(ClientAppActor pid=157327)[0m   8                  -1  1    460288  ultralytics.nn.modules.block.C2f             [256, 256, 1, True]           [32m [repeated 29x across cluster][0m
[36m(ClientAppActor pid=157327)[0m   9                  -1  1    164608  ultralytics.nn.modules.block.SPPF            [256, 256, 5]                 [32m [repeated 7x across cluster][0m
[36m(ClientAppActor pid=157327)[0m  13                  -1  1         0  torch.nn.modules.upsampling.Upsample         [None, 2, 'nearest']          [32m [repeated 14x across cluster][0m
[36m(ClientAppActor pid=157327)[0m  20             [-1, 9]  1         0  ultralytics.nn.modules.conv.Concat           [1]                           [32m [repeated 28x across cluster][0m
[36m(ClientAppActor pid=157327)[0m  22        [15, 18, 21]  1    751507  ultralytics.nn.modules.head.Detect           [1, [64, 128, 256]]           [32m [repeated 7x across cluster][0m
[36m(ClientAppActor pid=157327)[0m Model summary: 129 layers, 3,011,043 parameters, 3,011,027 gradients, 8.2 GFLOPs[32m [repeated 7x across cluster][0m
[36m(ClientAppActor pid=157321)[0m Transferred 355/355 items from pretrained weights[32m [repeated 7x across cluster][0m
[36m(ClientAppActor pid=157321)[0m [34m[1mTensorBoard: [0mStart with 'tensorboard --logdir runs/detect/train743', view at http://localhost:6006/[32m [repeated 7x across cluster][0m
…
5, shear=0.0, perspective=0.0, flipud=0.0, fliplr=0.5, bgr=0.0, mosaic=1.0, mixup=0.0, copy_paste=0.0, copy_paste_mode=flip, auto_augment=randaugment, erasing=0.4, crop_fraction=1.0, cfg=None, tracker=botsort.yaml, save_dir=runs/detect/train744
[36m(ClientAppActor pid=157324)[0m Overriding class names with single class.
[36m(ClientAppActor pid=157324)[0m 
[36m(ClientAppActor pid=157324)[0m                    from  n    params  module                                       arguments                     
[36m(ClientAppActor pid=157324)[0m   0                  -1  1       464  ultralytics.nn.modules.conv.Conv             [3, 16, 3, 2]                 
[36m(ClientAppActor pid=157324)[0m   1                  -1  1      4672  ultralytics.nn.modules.conv.Conv             [16, 32, 3, 2]                
[36m(ClientAppActor pid=157324)[0m   2                  -1  1      7360  ultralytics.nn.modules.block.C2f             [32, 32, 1, True]             
[36m(ClientAppActor pid=157324)[0m   3                  -1  1     18560  ultralytics.nn.modules.conv.Conv             [32, 64, 3, 2]                
[36m(ClientAppActor pid=157324)[0m   4                  -1  2     49664  ultralytics.nn.modules.block.C2f             [64, 64, 2, True]             
[36m(ClientAppActor pid=157324)[0m   5                  -1  1     73984  ultralytics.nn.modules.conv.Conv             [64, 128, 3, 2]               
[36m(ClientAppActor pid=157324)[0m   6                  -1  2    197632  ultralytics.nn.modules.block.C2f             [128, 128, 2, True]           
[36m(ClientAppActor pid=157324)[0m   7                  -1  1    295424  ultralytics.nn.modules.conv.Conv             [128, 256, 3, 2]              
[36m(ClientAppActor pid=157324)[0m   8                  -1  1    460288  ultralytics.nn.modules.block.C2f             [256, 256, 1, True]           
[36m(ClientAppActor pid=157324)[0m   9                  -1  1    164608  ultralytics.nn.modules.block.SPPF            [256, 256, 5]                 
[36m(ClientAppActor pid=157324)[0m  10                  -1  1         0  torch.nn.modules.upsampling.Upsample         [None, 2, 'nearest']          
[36m(ClientAppActor pid=157324)[0m /usr/local/lib/python3.10/dist-packages/ultralytics/utils/metrics.py:529: DeprecationWarning: `trapz` is deprecated. Use `trapezoid` instead, or one of the numerical integration functions in `scipy.integrate`.[32m [repeated 7x across cluster][0m
[36m(ClientAppActor pid=157324)[0m   ap = np.trapz(np.interp(x, mrec, mpre), x)  # integrate[32m [repeated 7x across cluster][0m
…
[36m(ClientAppActor pid=157324)[0m                  Class     Images  Instances      Box(P          R      mAP50  mAP50-95): 100%|â–ˆâ–ˆâ–ˆâ–ˆâ–ˆâ–ˆâ–ˆâ–ˆâ–ˆâ–ˆ| 8/8 [00:06<00:00,  2.80it/s]                 Class     Images  Instances      Box(P          R      mAP50  mAP50-95): 100%|â–ˆâ–ˆâ–ˆâ–ˆâ–ˆâ–ˆâ–ˆâ–ˆâ–ˆâ–ˆ| 8/8 [00:06<00:00,  1.15it/s]
[36m(ClientAppActor pid=157317)[0m [34m[1mtrain: [0mScanning /WehbeDocker/YOLOV8N/datasets/client_5/train/labels.cache... 772 images, 0 backgrounds, 0 corrupt: 100%|â–ˆâ–ˆâ–ˆâ–ˆâ–ˆâ–ˆâ–ˆâ–ˆâ–ˆâ–ˆ| 772/772 [00:00<?, ?it/s][34m[1mtrain: [0mScanning /WehbeDocker/YOLOV8N/datasets/client_5/train/labels.cache... 772 images, 0 backgrounds, 0 corrupt: 100%|â–ˆâ–ˆâ–ˆâ–ˆâ–ˆâ–ˆâ–ˆâ–ˆâ–ˆâ–ˆ| 772/772 [00:00<?, ?it/s]
[36m(ClientAppActor pid=157324)[0m  11             [-1, 6]  1         0  ultralytics.nn.modules.conv.Concat           [1]                           
[36m(ClientAppActor pid=157324)[0m  12                  -1  1    148224  ultralytics.nn.modules.block.C2f             [384, 128, 1]                 
[36m(ClientAppActor pid=157324)[0m  13                  -1  1         0  torch.nn.modules.upsampling.Upsample         [None, 2, 'nearest']          
[36m(ClientAppActor pid=157324)[0m  14             [-1, 4]  1         0  ultralytics.nn.modules.conv.Concat           [1]                           
[36m(ClientAppActor pid=157324)[0m  15                  -1  1     37248  ultralytics.nn.modules.block.C2f             [192, 64, 1]                  
[36m(ClientAppActor pid=157324)[0m  16                  -1  1     36992  ultralytics.nn.modules.conv.Conv             [64, 64, 3, 2]                
[36m(ClientAppActor pid=157324)[0m  17            [-1, 12]  1         0  ultralytics.nn.modules.conv.Concat           [1]                           
[36m(ClientAppActor pid=157324)[0m  18                  -1  1    123648  ultralytics.nn.modules.block.C2f             [192, 128, 1]                 
[36m(ClientAppActor pid=157324)[0m  19                  -1  1    147712  ultralytics.nn.modules.conv.Conv             [128, 128, 3, 2]              
[36m(ClientAppActor pid=157324)[0m  20             [-1, 9]  1         0  ultralytics.nn.modules.conv.Concat           [1]                           
[36m(ClientAppActor pid=157324)[0m  21                  -1  1    493056  ultralytics.nn.modules.block.C2f             [384, 256, 1]                 
[36m(ClientAppActor pid=157324)[0m  22        [15, 18, 21]  1    751507  ultralytics.nn.modules.head.Detect           [1, [64, 128, 256]]           
[36m(ClientAppActor pid=157317)[0m                    all         92        262      0.676      0.603      0.629      0.453[32m [repeated 7x across cluster][0m
[36m(ClientAppActor pid=157319)[0m [Client 3] Device: cuda:0[32m [repeated 8x across cluster][0m
[36m(ClientAppActor pid=157317)[0m Speed: 0.6ms preprocess, 3.0ms inference, 0.0ms loss, 6.5ms postprocess per image[32m [repeated 7x across cluster][0m
[36m(ClientAppActor pid=157317)[0m Results saved to [1mruns/detect/val715[0m[32m [repeated 7x across cluster][0m
[36m(ClientAppActor pid=157317)[0m 
[36m(ClientAppActor pid=157317)[0m  12                  -1  1    148224  ultralytics.nn.modules.block.C2f             [384, 128, 1]                 
[36m(ClientAppActor pid=157317)[0m  15                  -1  1     37248  ultralytics.nn.modules.block.C2f             [192, 64, 1]                  
[36m(ClientAppActor pid=157317)[0m  18                  -1  1    123648  ultralytics.nn.modules.block.C2f             [192, 128, 1]                 
[36m(ClientAppActor pid=157317)[0m  21                  -1  1    493056  ultralytics.nn.modules.block.C2f             [384, 256, 1]                 
[36m(ClientAppActor pid=157324)[0m Model summary: 129 layers, 3,011,043 parameters, 3,011,027 gradients, 8.2 GFLOPs
[36m(ClientAppActor pid=157324)[0m 
[36m(ClientAppActor pid=157324)[0m Transferred 355/355 items from pretrained weights
[36m(ClientAppActor pid=157324)[0m [34m[1mTensorBoard: [0mStart with 'tensorboard --logdir runs/detect/train744', view at http://localhost:6006/
[36m(ClientAppActor pid=157324)[0m Freezing layer 'model.22.dfl.conv.weight'
[36m(ClientAppActor pid=157324)[0m [34m[1mAMP: [0mrunning Automatic Mixed Precision (AMP) checks...
[36m(ClientAppActor pid=157322)[0m 
[36m(ClientAppActor pid=157322)[0m  12                  -1  1    148224  ultralytics.nn.modules.block.C2f             [384, 128, 1]                 
[36m(ClientAppActor pid=157322)[0m  15                  -1  1     37248  ultralytics.nn.modules.block.C2f             [192, 64, 1]                  
[36m(ClientAppActor pid=157322)[0m  18                  -1  1    123648  ultralytics.nn.modules.block.C2f             [192, 128, 1]                 
[36m(ClientAppActor pid=157322)[0m  21                  -1  1    493056  ultralytics.nn.modules.block.C2f             [384, 256, 1]                 
[36m(ClientAppActor pid=157317)[0m 
[36m(ClientAppActor pid=157322)[0m 
[36m(ClientAppActor pid=157325)[0m 
[36m(ClientAppActor pid=157325)[0m  12                  -1  1    148224  ultralytics.nn.modules.block.C2f             [384, 128, 1]                 
[36m(ClientAppActor pid=157325)[0m  15                  -1  1     37248  ultralytics.nn.modules.block.C2f             [192, 64, 1]                  
[36m(ClientAppActor pid=157325)[0m  18                  -1  1    123648  ultralytics.nn.modules.block.C2f             [192, 128, 1]                 
[36m(ClientAppActor pid=157325)[0m  21                  -1  1    493056  ultralytics.nn.modules.block.C2f             [384, 256, 1]                 
[36m(ClientAppActor pid=157318)[0m 
[36m(ClientAppActor pid=157318)[0m  12                  -1  1    148224  ultralytics.nn.modules.block.C2f             [384, 128, 1]                 
[36m(ClientAppActor pid=157318)[0m  15                  -1  1     37248  ultralytics.nn.modules.block.C2f             [192, 64, 1]                  
[36m(ClientAppActor pid=157318)[0m  18                  -1  1    123648  ultralytics.nn.modules.block.C2f             [192, 128, 1]                 
[36m(ClientAppActor pid=157318)[0m  21                  -1  1    493056  ultralytics.nn.modules.block.C2f             [384, 256, 1]                 
[36m(ClientAppActor pid=157327)[0m 
[36m(ClientAppActor pid=157321)[0m 
[36m(ClientAppActor pid=157321)[0m  12                  -1  1    148224  ultralytics.nn.modules.block.C2f             [384, 128, 1]                 
[36m(ClientAppActor pid=157321)[0m  15                  -1  1     37248  ultralytics.nn.modules.block.C2f             [192, 64, 1]                  
[36m(ClientAppActor pid=157321)[0m  18                  -1  1    123648  ultralytics.nn.modules.block.C2f             [192, 128, 1]                 
[36m(ClientAppActor pid=157321)[0m  21                  -1  1    493056  ultralytics.nn.modules.block.C2f             [384, 256, 1]                 
[36m(ClientAppActor pid=157325)[0m 
[36m(ClientAppActor pid=157327)[0m  12                  -1  1    148224  ultralytics.nn.modules.block.C2f             [384, 128, 1]                 
[36m(ClientAppActor pid=157327)[0m  15                  -1  1     37248  ultralytics.nn.modules.block.C2f             [192, 64, 1]                  
[36m(ClientAppActor pid=157327)[0m  18                  -1  1    123648  ultralytics.nn.modules.block.C2f             [192, 128, 1]                 
[36m(ClientAppActor pid=157327)[0m  21                  -1  1    493056  ultralytics.nn.modules.block.C2f             [384, 256, 1]                 
[36m(ClientAppActor pid=157318)[0m 
[36m(ClientAppActor pid=157319)[0m 
[36m(ClientAppActor pid=157319)[0m  12                  -1  1    148224  ultralytics.nn.modules.block.C2f             [384, 128, 1]                 
[36m(ClientAppActor pid=157319)[0m  15                  -1  1     37248  ultralytics.nn.modules.block.C2f             [192, 64, 1]                  
[36m(ClientAppActor pid=157319)[0m  18                  -1  1    123648  ultralytics.nn.modules.block.C2f             [192, 128, 1]                 
[36m(ClientAppActor pid=157319)[0m  21                  -1  1    493056  ultralytics.nn.modules.block.C2f             [384, 256, 1]                 
[36m(ClientAppActor pid=157324)[0m [34m[1mAMP: [0mchecks passed âœ…
[36m(ClientAppActor pid=157321)[0m 
[36m(ClientAppActor pid=157327)[0m 
[36m(ClientAppActor pid=157319)[0m 
[36m(ClientAppActor pid=157324)[0m Plotting labels to runs/detect/train744/labels.jpg... 
[36m(ClientAppActor pid=157319)[0m New https://pypi.org/project/ultralytics/8.3.121 available ðŸ˜ƒ Update with 'pip install -U ultralytics'[32m [repeated 7x across cluster][0m
…
5, shear=0.0, perspective=0.0, flipud=0.0, fliplr=0.5, bgr=0.0, mosaic=1.0, mixup=0.0, copy_paste=0.0, copy_paste_mode=flip, auto_augment=randaugment, erasing=0.4, crop_fraction=1.0, cfg=None, tracker=botsort.yaml, save_dir=runs/detect/train752
[36m(ClientAppActor pid=157321)[0m Overriding class names with single class.
[36m(ClientAppActor pid=157321)[0m 
[36m(ClientAppActor pid=157321)[0m                    from  n    params  module                                       arguments                     
[36m(ClientAppActor pid=157321)[0m   0                  -1  1       464  ultralytics.nn.modules.conv.Conv             [3, 16, 3, 2]                 
[36m(ClientAppActor pid=157321)[0m   1                  -1  1      4672  ultralytics.nn.modules.conv.Conv             [16, 32, 3, 2]                
[36m(ClientAppActor pid=157321)[0m   2                  -1  1      7360  ultralytics.nn.modules.block.C2f             [32, 32, 1, True]             
[36m(ClientAppActor pid=157321)[0m   3                  -1  1     18560  ultralytics.nn.modules.conv.Conv             [32, 64, 3, 2]                
[36m(ClientAppActor pid=157321)[0m   4                  -1  2     49664  ultralytics.nn.modules.block.C2f             [64, 64, 2, True]             
[36m(ClientAppActor pid=157321)[0m   5                  -1  1     73984  ultralytics.nn.modules.conv.Conv             [64, 128, 3, 2]               
[36m(ClientAppActor pid=157321)[0m   6                  -1  2    197632  ultralytics.nn.modules.block.C2f             [128, 128, 2, True]           
[36m(ClientAppActor pid=157321)[0m   7                  -1  1    295424  ultralytics.nn.modules.conv.Conv             [128, 256, 3, 2]              
[36m(ClientAppActor pid=157321)[0m   8                  -1  1    460288  ultralytics.nn.modules.block.C2f             [256, 256, 1, True]           
[36m(ClientAppActor pid=157321)[0m   9                  -1  1    164608  ultralytics.nn.modules.block.SPPF            [256, 256, 5]                 
[36m(ClientAppActor pid=157321)[0m  10                  -1  1         0  torch.nn.modules.upsampling.Upsample         [None, 2, 'nearest']          
[36m(ClientAppActor pid=157321)[0m  11             [-1, 6]  1         0  ultralytics.nn.modules.conv.Concat           [1]                           
[36m(ClientAppActor pid=157321)[0m  12                  -1  1    148224  ultralytics.nn.modules.block.C2f             [384, 128, 1]                 
[36m(ClientAppActor pid=157321)[0m  13                  -1  1         0  torch.nn.modules.upsampling.Upsample         [None, 2, 'nearest']          
[36m(ClientAppActor pid=157321)[0m  14             [-1, 4]  1         0  ultralytics.nn.modules.conv.Concat           [1]                           
[36m(ClientAppActor pid=157321)[0m  15                  -1  1     37248  ultralytics.nn.modules.block.C2f             [192, 64, 1]                  
[36m(ClientAppActor pid=157321)[0m  16                  -1  1     36992  ultralytics.nn.modules.conv.Conv             [64, 64, 3, 2]                
[36m(ClientAppActor pid=157321)[0m  17            [-1, 12]  1         0  ultralytics.nn.modules.conv.Concat           [1]                           
[36m(ClientAppActor pid=157321)[0m  18                  -1  1    123648  ultralytics.nn.modules.block.C2f             [192, 128, 1]                 
[36m(ClientAppActor pid=157321)[0m  19                  -1  1    147712  ultralytics.nn.modules.conv.Conv             [128, 128, 3, 2]              
[36m(ClientAppActor pid=157321)[0m  20             [-1, 9]  1         0  ultralytics.nn.modules.conv.Concat           [1]                           
[36m(ClientAppActor pid=157321)[0m  21                  -1  1    493056  ultralytics.nn.modules.block.C2f             [384, 256, 1]                 
[36m(ClientAppActor pid=157324)[0m                    all         41        151      0.717      0.298      0.355      0.241[32m [repeated 7x across cluster][0m
[36m(ClientAppActor pid=157317)[0m [Client 2] Device: cuda:0[32m [repeated 8x across cluster][0m
[36m(ClientAppActor pid=157321)[0m Speed: 1.1ms preprocess, 2.4ms inference, 0.0ms loss, 4.8ms postprocess per image[32m [repeated 7x across cluster][0m
[36m(ClientAppActor pid=157321)[0m Results saved to [1mruns/detect/val721[0m[32m [repeated 7x across cluster][0m
[36m(ClientAppActor pid=157321)[0m  22        [15, 18, 21]  1    751507  ultralytics.nn.modules.head.Detect           [1, [64, 128, 256]]           
[36m(ClientAppActor pid=157318)[0m 
[36m(ClientAppActor pid=157318)[0m  12                  -1  1    148224  ultralytics.nn.modules.block.C2f             [384, 128, 1]                 
[36m(ClientAppActor pid=157318)[0m  15                  -1  1     37248  ultralytics.nn.modules.block.C2f             [192, 64, 1]                  
[36m(ClientAppActor pid=157318)[0m  18                  -1  1    123648  ultralytics.nn.modules.block.C2f             [192, 128, 1]                 
[36m(ClientAppActor pid=157318)[0m  21                  -1  1    493056  ultralytics.nn.modules.block.C2f             [384, 256, 1]                 
[36m(ClientAppActor pid=157321)[0m Model summary: 129 layers, 3,011,043 parameters, 3,011,027 gradients, 8.2 GFLOPs
[36m(ClientAppActor pid=157321)[0m 
[36m(ClientAppActor pid=157322)[0m 
[36m(ClientAppActor pid=157324)[0m 
[36m(ClientAppActor pid=157324)[0m  12                  -1  1    148224  ultralytics.nn.modules.block.C2f             [384, 128, 1]                 
[36m(ClientAppActor pid=157324)[0m  15                  -1  1     37248  ultralytics.nn.modules.block.C2f             [192, 64, 1]                  
[36m(ClientAppActor pid=157321)[0m                  Class     Images  Instances      Box(P          R      mAP50  mAP50-95):  88%|â–ˆâ–ˆâ–ˆâ–ˆâ–ˆâ–ˆâ–ˆâ–ˆâ–Š | 7/8 [00:07<00:00,  2.11it/s][32m [repeated 27x across cluster][0m
[36m(ClientAppActor pid=157321)[0m                  Class     Images  Instances      Box(P          R      mAP50  mAP50-95): 100%|â–ˆâ–ˆâ–ˆâ–ˆâ–ˆâ–ˆâ–ˆâ–ˆâ–ˆâ–ˆ| 8/8 [00:07<00:00,  2.63it/s]                 Class     Images  Instances      Box(P          R      mAP50  mAP50-95): 100%|â–ˆâ–ˆâ–ˆâ–ˆâ–ˆâ–ˆâ–ˆâ–ˆâ–ˆâ–ˆ| 8/8 [00:07<00:00,  1.04it/s][32m [repeated 7x across cluster][0m
…
5, shear=0.0, perspective=0.0, flipud=0.0, fliplr=0.5, bgr=0.0, mosaic=1.0, mixup=0.0, copy_paste=0.0, copy_paste_mode=flip, auto_augment=randaugment, erasing=0.4, crop_fraction=1.0, cfg=None, tracker=botsort.yaml, save_dir=runs/detect/train760
[36m(ClientAppActor pid=157327)[0m Overriding class names with single class.
[36m(ClientAppActor pid=157327)[0m 
[36m(ClientAppActor pid=157327)[0m                    from  n    params  module                                       arguments                     
[36m(ClientAppActor pid=157327)[0m   0                  -1  1       464  ultralytics.nn.modules.conv.Conv             [3, 16, 3, 2]                 
[36m(ClientAppActor pid=157327)[0m   1                  -1  1      4672  ultralytics.nn.modules.conv.Conv             [16, 32, 3, 2]                
[36m(ClientAppActor pid=157327)[0m   2                  -1  1      7360  ultralytics.nn.modules.block.C2f             [32, 32, 1, True]             
[36m(ClientAppActor pid=157327)[0m   3                  -1  1     18560  ultralytics.nn.modules.conv.Conv             [32, 64, 3, 2]                
[36m(ClientAppActor pid=157327)[0m   4                  -1  2     49664  ultralytics.nn.modules.block.C2f             [64, 64, 2, True]             
[36m(ClientAppActor pid=157327)[0m   5                  -1  1     73984  ultralytics.nn.modules.conv.Conv             [64, 128, 3, 2]               
[36m(ClientAppActor pid=157327)[0m   6                  -1  2    197632  ultralytics.nn.modules.block.C2f             [128, 128, 2, True]           
[36m(ClientAppActor pid=157327)[0m   7                  -1  1    295424  ultralytics.nn.modules.conv.Conv             [128, 256, 3, 2]              
[36m(ClientAppActor pid=157327)[0m   8                  -1  1    460288  ultralytics.nn.modules.block.C2f             [256, 256, 1, True]           
[36m(ClientAppActor pid=157327)[0m   9                  -1  1    164608  ultralytics.nn.modules.block.SPPF            [256, 256, 5]                 
[36m(ClientAppActor pid=157327)[0m  10                  -1  1         0  torch.nn.modules.upsampling.Upsample         [None, 2, 'nearest']          
[36m(ClientAppActor pid=157327)[0m  11             [-1, 6]  1         0  ultralytics.nn.modules.conv.Concat           [1]                           
[36m(ClientAppActor pid=157327)[0m  12                  -1  1    148224  ultralytics.nn.modules.block.C2f             [384, 128, 1]                 
[36m(ClientAppActor pid=157327)[0m  13                  -1  1         0  torch.nn.modules.upsampling.Upsample         [None, 2, 'nearest']          
[36m(ClientAppActor pid=157327)[0m  14             [-1, 4]  1         0  ultralytics.nn.modules.conv.Concat           [1]                           
[36m(ClientAppActor pid=157327)[0m  15                  -1  1     37248  ultralytics.nn.modules.block.C2f             [192, 64, 1]                  
[36m(ClientAppActor pid=157327)[0m  16                  -1  1     36992  ultralytics.nn.modules.conv.Conv             [64, 64, 3, 2]                
[36m(ClientAppActor pid=157327)[0m  17            [-1, 12]  1         0  ultralytics.nn.modules.conv.Concat           [1]                           
[36m(ClientAppActor pid=157327)[0m [34m[1mtrain: [0mScanning /WehbeDocker/YOLOV8N/datasets/client_1/train/labels.cache... 189 images, 0 backgrounds, 0 corrupt: 100%|â–ˆâ–ˆâ–ˆâ–ˆâ–ˆâ–ˆâ–ˆâ–ˆâ–ˆâ–ˆ| 189/189 [00:00<?, ?it/s][34m[1mtrain: [0mScanning /WehbeDocker/YOLOV8N/datasets/client_1/train/labels.cache... 189 images, 0 backgrounds, 0 corrupt: 100%|â–ˆâ–ˆâ–ˆâ–ˆâ–ˆâ–ˆâ–ˆâ–ˆâ–ˆâ–ˆ| 189/189 [00:00<?, ?it/s]
…
[36m(ClientAppActor pid=157321)[0m   ap = np.trapz(np.interp(x, mrec, mpre), x)  # integrate
[36m(ClientAppActor pid=157321)[0m [34m[1mtrain: [0mScanning /WehbeDocker/YOLOV8N/datasets/client_4/train/labels.cache... 377 images, 0 backgrounds, 0 corrupt: 100%|â–ˆâ–ˆâ–ˆâ–ˆâ–ˆâ–ˆâ–ˆâ–ˆâ–ˆâ–ˆ| 377/377 [00:00<?, ?it/s][34m[1mtrain: [0mScanning /WehbeDocker/YOLOV8N/datasets/client_4/train/labels.cache... 377 images, 0 backgrounds, 0 corrupt: 100%|â–ˆâ–ˆâ–ˆâ–ˆâ–ˆâ–ˆâ–ˆâ–ˆâ–ˆâ–ˆ| 377/377 [00:00<?, ?it/s]
[36m(ClientAppActor pid=157327)[0m  18                  -1  1    123648  ultralytics.nn.modules.block.C2f             [192, 128, 1]                 
[36m(ClientAppActor pid=157327)[0m  19                  -1  1    147712  ultralytics.nn.modules.conv.Conv             [128, 128, 3, 2]              
[36m(ClientAppActor pid=157327)[0m  20             [-1, 9]  1         0  ultralytics.nn.modules.conv.Concat           [1]                           
[36m(ClientAppActor pid=157321)[0m                    all         92        262      0.629      0.622      0.614      0.446[32m [repeated 7x across cluster][0m
[36m(ClientAppActor pid=157319)[0m [Client 0] Device: cuda:0[32m [repeated 8x across cluster][0m
[36m(ClientAppActor pid=157321)[0m Speed: 1.1ms preprocess, 3.0ms inference, 0.0ms loss, 1.5ms postprocess per image[32m [repeated 7x across cluster][0m
[36m(ClientAppActor pid=157321)[0m Results saved to [1mruns/detect/val732[0m[32m [repeated 7x across cluster][0m
[36m(ClientAppActor pid=157321)[0m 
[36m(ClientAppActor pid=157321)[0m  12                  -1  1    148224  ultralytics.nn.modules.block.C2f             [384, 128, 1]                 
[36m(ClientAppActor pid=157321)[0m  15                  -1  1     37248  ultralytics.nn.modules.block.C2f             [192, 64, 1]                  
[36m(ClientAppActor pid=157321)[0m  18                  -1  1    123648  ultralytics.nn.modules.block.C2f             [192, 128, 1]                 
[36m(ClientAppActor pid=157321)[0m  21                  -1  1    493056  ultralytics.nn.modules.block.C2f             [384, 256, 1]                 
[36m(ClientAppActor pid=157321)[0m  22        [15, 18, 21]  1    751507  ultralytics.nn.modules.head.Detect           [1, [64, 128, 256]]           
[36m(ClientAppActor pid=157327)[0m  21                  -1  1    493056  ultralytics.nn.modules.block.C2f             [384, 256, 1]                 
[36m(ClientAppActor pid=157318)[0m 
[36m(ClientAppActor pid=157318)[0m  12                  -1  1    148224  ultralytics.nn.modules.block.C2f             [384, 128, 1]                 
[36m(ClientAppActor pid=157318)[0m  15                  -1  1     37248  ultralytics.nn.modules.block.C2f             [192, 64, 1]                  
[36m(ClientAppActor pid=157318)[0m  18                  -1  1    123648  ultralytics.nn.modules.block.C2f             [192, 128, 1]                 
[36m(ClientAppActor pid=157318)[0m  21                  -1  1    493056  ultralytics.nn.modules.block.C2f             [384, 256, 1]                 
[36m(ClientAppActor pid=157317)[0m 
[36m(ClientAppActor pid=157317)[0m  12                  -1  1    148224  ultralytics.nn.modules.block.C2f             [384, 128, 1]                 
[36m(ClientAppActor pid=157317)[0m  15                  -1  1     37248  ultralytics.nn.modules.block.C2f             [192, 64, 1]                  
[36m(ClientAppActor pid=157317)[0m  18                  -1  1    123648  ultralytics.nn.modules.block.C2f             [192, 128, 1]                 
[36m(ClientAppActor pid=157317)[0m  21                  -1  1    493056  ultralytics.nn.modules.block.C2f             [384, 256, 1]                 
[36m(ClientAppActor pid=157324)[0m 
[36m(ClientAppActor pid=157321)[0m Model summary: 129 layers, 3,011,043 parameters, 3,011,027 gradients, 8.2 GFLOPs
[36m(ClientAppActor pid=157321)[0m 
[36m(ClientAppActor pid=157321)[0m Transferred 355/355 items from pretrained weights
[36m(ClientAppActor pid=157321)[0m [34m[1mTensorBoard: [0mStart with 'tensorboard --logdir runs/detect/train762', view at http://localhost:6006/
[36m(ClientAppActor pid=157327)[0m 
[36m(ClientAppActor pid=157327)[0m Freezing layer 'model.22.dfl.conv.weight'
[36m(ClientAppActor pid=157327)[0m [34m[1mAMP: [0mrunning Automatic Mixed Precision (AMP) checks...
[36m(ClientAppActor pid=157318)[0m 
[36m(ClientAppActor pid=157324)[0m  12                  -1  1    148224  ultralytics.nn.modules.block.C2f             [384, 128, 1]                 
[36m(ClientAppActor pid=157324)[0m  15                  -1  1     37248  ultralytics.nn.modules.block.C2f             [192, 64, 1]                  
[36m(ClientAppActor pid=157324)[0m  18                  -1  1    123648  ultralytics.nn.modules.block.C2f             [192, 128, 1]                 
[36m(ClientAppActor pid=157317)[0m 
[36m(ClientAppActor pid=157324)[0m  21                  -1  1    493056  ultralytics.nn.modules.block.C2f             [384, 256, 1]                 
[36m(ClientAppActor pid=157322)[0m 
[36m(ClientAppActor pid=157322)[0m  12                  -1  1    148224  ultralytics.nn.modules.block.C2f             [384, 128, 1]                 
[36m(ClientAppActor pid=157322)[0m  15                  -1  1     37248  ultralytics.nn.modules.block.C2f             [192, 64, 1]                  
[36m(ClientAppActor pid=157322)[0m  18                  -1  1    123648  ultralytics.nn.modules.block.C2f             [192, 128, 1]                 
[36m(ClientAppActor pid=157322)[0m  21                  -1  1    493056  ultralytics.nn.modules.block.C2f             [384, 256, 1]                 
[36m(ClientAppActor pid=157325)[0m 
[36m(ClientAppActor pid=157325)[0m  12                  -1  1    148224  ultralytics.nn.modules.block.C2f             [384, 128, 1]                 
[36m(ClientAppActor pid=157325)[0m  15                  -1  1     37248  ultralytics.nn.modules.block.C2f             [192, 64, 1]                  
[36m(ClientAppActor pid=157325)[0m  18                  -1  1    123648  ultralytics.nn.modules.block.C2f             [192, 128, 1]                 
[36m(ClientAppActor pid=157325)[0m  21                  -1  1    493056  ultralytics.nn.modules.block.C2f             [384, 256, 1]                 
[36m(ClientAppActor pid=157319)[0m 
[36m(ClientAppActor pid=157319)[0m  12                  -1  1    148224  ultralytics.nn.modules.block.C2f             [384, 128, 1]                 
[36m(ClientAppActor pid=157319)[0m  15                  -1  1     37248  ultralytics.nn.modules.block.C2f             [192, 64, 1]                  
[36m(ClientAppActor pid=157319)[0m  18                  -1  1    123648  ultralytics.nn.modules.block.C2f             [192, 128, 1]                 
[36m(ClientAppActor pid=157319)[0m  21                  -1  1    493056  ultralytics.nn.modules.block.C2f             [384, 256, 1]                 
[36m(ClientAppActor pid=157324)[0m 
[36m(ClientAppActor pid=157322)[0m 
[36m(ClientAppActor pid=157325)[0m 
[36m(ClientAppActor pid=157319)[0m 
[36m(ClientAppActor pid=157327)[0m [34m[1mAMP: [0mchecks passed âœ…
[36m(ClientAppActor pid=157327)[0m Plotting labels to runs/detect/train760/labels.jpg... 
[36m(ClientAppActor pid=157319)[0m New https://pypi.org/project/ultralytics/8.3.121 available ðŸ˜ƒ Update with 'pip install -U ultralytics'[32m [repeated 7x across cluster][0m
…
