…
5, shear=0.0, perspective=0.0, flipud=0.0, fliplr=0.5, bgr=0.0, mosaic=1.0, mixup=0.0, copy_paste=0.0, copy_paste_mode=flip, auto_augment=randaugment, erasing=0.4, crop_fraction=1.0, cfg=None, tracker=botsort.yaml, save_dir=runs/detect/train768
[36m(ClientAppActor pid=175740)[0m Overriding class names with single class.
[36m(ClientAppActor pid=175740)[0m 
[36m(ClientAppActor pid=175740)[0m                    from  n    params  module                                       arguments                     
[36m(ClientAppActor pid=175740)[0m   0                  -1  1       464  ultralytics.nn.modules.conv.Conv             [3, 16, 3, 2]                 
[36m(ClientAppActor pid=175740)[0m   1                  -1  1      4672  ultralytics.nn.modules.conv.Conv             [16, 32, 3, 2]                
[36m(ClientAppActor pid=175740)[0m   2                  -1  1      7360  ultralytics.nn.modules.block.C2f             [32, 32, 1, True]             
[36m(ClientAppActor pid=175740)[0m   3                  -1  1     18560  ultralytics.nn.modules.conv.Conv             [32, 64, 3, 2]                
[36m(ClientAppActor pid=175740)[0m   4                  -1  2     49664  ultralytics.nn.modules.block.C2f             [64, 64, 2, True]             
[36m(ClientAppActor pid=175740)[0m   5                  -1  1     73984  ultralytics.nn.modules.conv.Conv             [64, 128, 3, 2]               
[36m(ClientAppActor pid=175740)[0m   6                  -1  2    197632  ultralytics.nn.modules.block.C2f             [128, 128, 2, True]           
[36m(ClientAppActor pid=175740)[0m   7                  -1  1    295424  ultralytics.nn.modules.conv.Conv             [128, 256, 3, 2]              
[36m(ClientAppActor pid=175740)[0m   8                  -1  1    460288  ultralytics.nn.modules.block.C2f             [256, 256, 1, True]           
[36m(ClientAppActor pid=175740)[0m   9                  -1  1    164608  ultralytics.nn.modules.block.SPPF            [256, 256, 5]                 
[36m(ClientAppActor pid=175740)[0m  10                  -1  1         0  torch.nn.modules.upsampling.Upsample         [None, 2, 'nearest']          
[36m(ClientAppActor pid=175740)[0m  11             [-1, 6]  1         0  ultralytics.nn.modules.conv.Concat           [1]                           
[36m(ClientAppActor pid=175740)[0m  12                  -1  1    148224  ultralytics.nn.modules.block.C2f             [384, 128, 1]                 
[36m(ClientAppActor pid=175740)[0m  13                  -1  1         0  torch.nn.modules.upsampling.Upsample         [None, 2, 'nearest']          
[36m(ClientAppActor pid=175740)[0m  14             [-1, 4]  1         0  ultralytics.nn.modules.conv.Concat           [1]                           
[36m(ClientAppActor pid=175740)[0m  15                  -1  1     37248  ultralytics.nn.modules.block.C2f             [192, 64, 1]                  
[36m(ClientAppActor pid=175740)[0m  16                  -1  1     36992  ultralytics.nn.modules.conv.Conv             [64, 64, 3, 2]                
[36m(ClientAppActor pid=175740)[0m  17            [-1, 12]  1         0  ultralytics.nn.modules.conv.Concat           [1]                           
[36m(ClientAppActor pid=175740)[0m  18                  -1  1    123648  ultralytics.nn.modules.block.C2f             [192, 128, 1]                 
[36m(ClientAppActor pid=175740)[0m  19                  -1  1    147712  ultralytics.nn.modules.conv.Conv             [128, 128, 3, 2]              
[36m(ClientAppActor pid=175740)[0m  20             [-1, 9]  1         0  ultralytics.nn.modules.conv.Concat           [1]                           
[36m(ClientAppActor pid=175740)[0m  21                  -1  1    493056  ultralytics.nn.modules.block.C2f             [384, 256, 1]                 
[36m(ClientAppActor pid=175740)[0m  22        [15, 18, 21]  1    751507  ultralytics.nn.modules.head.Detect           [1, [64, 128, 256]]           
[36m(ClientAppActor pid=175737)[0m [Client 3] Device: cuda:0[32m [repeated 7x across cluster] (Ray deduplicates logs by default. Set RAY_DEDUP_LOGS=0 to disable log deduplication, or see https://docs.ray.io/en/master/ray-observability/user-guides/configure-logging.html#log-deduplication for more options.)[0m
[36m(ClientAppActor pid=175740)[0m Model summary: 129 layers, 3,011,043 parameters, 3,011,027 gradients, 8.2 GFLOPs
[36m(ClientAppActor pid=175740)[0m 
[36m(ClientAppActor pid=175740)[0m Transferred 355/355 items from pretrained weights
[36m(ClientAppActor pid=175740)[0m [34m[1mTensorBoard: [0mStart with 'tensorboard --logdir runs/detect/train768', view at http://localhost:6006/
[36m(ClientAppActor pid=175740)[0m Freezing layer 'model.22.dfl.conv.weight'
[36m(ClientAppActor pid=175740)[0m [34m[1mAMP: [0mrunning Automatic Mixed Precision (AMP) checks...
[36m(ClientAppActor pid=175736)[0m 
[36m(ClientAppActor pid=175736)[0m  12                  -1  1    148224  ultralytics.nn.modules.block.C2f             [384, 128, 1]                 
[36m(ClientAppActor pid=175736)[0m  15                  -1  1     37248  ultralytics.nn.modules.block.C2f             [192, 64, 1]                  
[36m(ClientAppActor pid=175736)[0m  18                  -1  1    123648  ultralytics.nn.modules.block.C2f             [192, 128, 1]                 
[36m(ClientAppActor pid=175736)[0m  21                  -1  1    493056  ultralytics.nn.modules.block.C2f             [384, 256, 1]                 
[36m(ClientAppActor pid=175732)[0m 
[36m(ClientAppActor pid=175742)[0m 
[36m(ClientAppActor pid=175736)[0m 
[36m(ClientAppActor pid=175733)[0m 
[36m(ClientAppActor pid=175733)[0m  12                  -1  1    148224  ultralytics.nn.modules.block.C2f             [384, 128, 1]                 
[36m(ClientAppActor pid=175733)[0m  15                  -1  1     37248  ultralytics.nn.modules.block.C2f             [192, 64, 1]                  
[36m(ClientAppActor pid=175740)[0m [34m[1mtrain: [0mScanning /WehbeDocker/YOLOV8N/datasets/client_1/train/labels.cache... 189 images, 0 backgrounds, 0 corrupt: 100%|â–ˆâ–ˆâ–ˆâ–ˆâ–ˆâ–ˆâ–ˆâ–ˆâ–ˆâ–ˆ| 189/189 [00:00<?, ?it/s][34m[1mtrain: [0mScanning /WehbeDocker/YOLOV8N/datasets/client_1/train/labels.cache... 189 images, 0 backgrounds, 0 corrupt: 100%|â–ˆâ–ˆâ–ˆâ–ˆâ–ˆâ–ˆâ–ˆâ–ˆâ–ˆâ–ˆ| 189/189 [00:00<?, ?it/s]
…
[36m(pid=175737)[0m E0000 00:00:1746024870.747824  175737 cuda_blas.cc:1418] Unable to register cuBLAS factory: Attempting to register factory for plugin cuBLAS when one has already been registered[32m [repeated 7x across cluster][0m
[36m(ClientAppActor pid=175740)[0m [34m[1mval: [0mScanning /WehbeDocker/YOLOV8N/datasets/client_1/valid/labels.cache... 41 images, 0 backgrounds, 0 corrupt: 100%|â–ˆâ–ˆâ–ˆâ–ˆâ–ˆâ–ˆâ–ˆâ–ˆâ–ˆâ–ˆ| 41/41 [00:00<?, ?it/s][34m[1mval: [0mScanning /WehbeDocker/YOLOV8N/datasets/client_1/valid/labels.cache... 41 images, 0 backgrounds, 0 corrupt: 100%|â–ˆâ–ˆâ–ˆâ–ˆâ–ˆâ–ˆâ–ˆâ–ˆâ–ˆâ–ˆ| 41/41 [00:00<?, ?it/s]
[36m(ClientAppActor pid=175733)[0m  18                  -1  1    123648  ultralytics.nn.modules.block.C2f             [192, 128, 1]                 
[36m(ClientAppActor pid=175733)[0m  21                  -1  1    493056  ultralytics.nn.modules.block.C2f             [384, 256, 1]                 
[36m(ClientAppActor pid=175742)[0m  12                  -1  1    148224  ultralytics.nn.modules.block.C2f             [384, 128, 1]                 
[36m(ClientAppActor pid=175742)[0m  15                  -1  1     37248  ultralytics.nn.modules.block.C2f             [192, 64, 1]                  
[36m(ClientAppActor pid=175735)[0m 
[36m(ClientAppActor pid=175742)[0m  18                  -1  1    123648  ultralytics.nn.modules.block.C2f             [192, 128, 1]                 
[36m(ClientAppActor pid=175742)[0m  21                  -1  1    493056  ultralytics.nn.modules.block.C2f             [384, 256, 1]                 
[36m(ClientAppActor pid=175735)[0m  12                  -1  1    148224  ultralytics.nn.modules.block.C2f             [384, 128, 1]                 
[36m(ClientAppActor pid=175735)[0m  15                  -1  1     37248  ultralytics.nn.modules.block.C2f             [192, 64, 1]                  
[36m(ClientAppActor pid=175735)[0m  18                  -1  1    123648  ultralytics.nn.modules.block.C2f             [192, 128, 1]                 
[36m(ClientAppActor pid=175735)[0m  21                  -1  1    493056  ultralytics.nn.modules.block.C2f             [384, 256, 1]                 
[36m(ClientAppActor pid=175732)[0m  12                  -1  1    148224  ultralytics.nn.modules.block.C2f             [384, 128, 1]                 
[36m(ClientAppActor pid=175732)[0m  15                  -1  1     37248  ultralytics.nn.modules.block.C2f             [192, 64, 1]                  
[36m(ClientAppActor pid=175732)[0m  18                  -1  1    123648  ultralytics.nn.modules.block.C2f             [192, 128, 1]                 
[36m(ClientAppActor pid=175732)[0m  21                  -1  1    493056  ultralytics.nn.modules.block.C2f             [384, 256, 1]                 
[36m(ClientAppActor pid=175739)[0m 
[36m(ClientAppActor pid=175739)[0m  12                  -1  1    148224  ultralytics.nn.modules.block.C2f             [384, 128, 1]                 
[36m(ClientAppActor pid=175739)[0m  15                  -1  1     37248  ultralytics.nn.modules.block.C2f             [192, 64, 1]                  
[36m(ClientAppActor pid=175739)[0m  18                  -1  1    123648  ultralytics.nn.modules.block.C2f             [192, 128, 1]                 
[36m(ClientAppActor pid=175739)[0m  21                  -1  1    493056  ultralytics.nn.modules.block.C2f             [384, 256, 1]                 
[36m(ClientAppActor pid=175733)[0m 
[36m(ClientAppActor pid=175737)[0m 
[36m(ClientAppActor pid=175737)[0m  12                  -1  1    148224  ultralytics.nn.modules.block.C2f             [384, 128, 1]                 
[36m(ClientAppActor pid=175737)[0m  15                  -1  1     37248  ultralytics.nn.modules.block.C2f             [192, 64, 1]                  
[36m(ClientAppActor pid=175737)[0m  18                  -1  1    123648  ultralytics.nn.modules.block.C2f             [192, 128, 1]                 
[36m(ClientAppActor pid=175737)[0m  21                  -1  1    493056  ultralytics.nn.modules.block.C2f             [384, 256, 1]                 
[36m(ClientAppActor pid=175735)[0m 
[36m(ClientAppActor pid=175732)[0m 
[36m(ClientAppActor pid=175742)[0m 
[36m(ClientAppActor pid=175739)[0m 
[36m(ClientAppActor pid=175737)[0m 
[36m(ClientAppActor pid=175740)[0m [34m[1mAMP: [0mchecks passed âœ…
[36m(ClientAppActor pid=175740)[0m Plotting labels to runs/detect/train768/labels.jpg... 
[36m(ClientAppActor pid=175737)[0m New https://pypi.org/project/ultralytics/8.3.121 available ðŸ˜ƒ Update with 'pip install -U ultralytics'[32m [repeated 7x across cluster][0m
…
mixup=0.0, copy_paste=0.0, copy_paste_mode=flip, auto_augment=randaugment, erasing=0.4, crop_fraction=1.0, cfg=None, tracker=botsort.yaml, save_dir=runs/detect/train775[32m [repeated 7x across cluster][0m
[36m(ClientAppActor pid=175737)[0m Overriding class names with single class.[32m [repeated 7x across cluster][0m
[36m(ClientAppActor pid=175737)[0m                    from  n    params  module                                       arguments                     [32m [repeated 7x across cluster][0m
[36m(ClientAppActor pid=175737)[0m  19                  -1  1    147712  ultralytics.nn.modules.conv.Conv             [128, 128, 3, 2]              [32m [repeated 49x across cluster][0m
[36m(ClientAppActor pid=175737)[0m   8                  -1  1    460288  ultralytics.nn.modules.block.C2f             [256, 256, 1, True]           [32m [repeated 28x across cluster][0m
[36m(ClientAppActor pid=175737)[0m   9                  -1  1    164608  ultralytics.nn.modules.block.SPPF            [256, 256, 5]                 [32m [repeated 7x across cluster][0m
[36m(ClientAppActor pid=175737)[0m  13                  -1  1         0  torch.nn.modules.upsampling.Upsample         [None, 2, 'nearest']          [32m [repeated 14x across cluster][0m
[36m(ClientAppActor pid=175737)[0m  20             [-1, 9]  1         0  ultralytics.nn.modules.conv.Concat           [1]                           [32m [repeated 28x across cluster][0m
[36m(ClientAppActor pid=175737)[0m  22        [15, 18, 21]  1    751507  ultralytics.nn.modules.head.Detect           [1, [64, 128, 256]]           [32m [repeated 7x across cluster][0m
[36m(ClientAppActor pid=175737)[0m Model summary: 129 layers, 3,011,043 parameters, 3,011,027 gradients, 8.2 GFLOPs[32m [repeated 7x across cluster][0m
[36m(ClientAppActor pid=175737)[0m Transferred 355/355 items from pretrained weights[32m [repeated 7x across cluster][0m
[36m(ClientAppActor pid=175737)[0m [34m[1mTensorBoard: [0mStart with 'tensorboard --logdir runs/detect/train775', view at http://localhost:6006/[32m [repeated 7x across cluster][0m
…
5, shear=0.0, perspective=0.0, flipud=0.0, fliplr=0.5, bgr=0.0, mosaic=1.0, mixup=0.0, copy_paste=0.0, copy_paste_mode=flip, auto_augment=randaugment, erasing=0.4, crop_fraction=1.0, cfg=None, tracker=botsort.yaml, save_dir=runs/detect/train776
[36m(ClientAppActor pid=175740)[0m Overriding class names with single class.
[36m(ClientAppActor pid=175740)[0m 
[36m(ClientAppActor pid=175740)[0m                    from  n    params  module                                       arguments                     
[36m(ClientAppActor pid=175740)[0m   0                  -1  1       464  ultralytics.nn.modules.conv.Conv             [3, 16, 3, 2]                 
[36m(ClientAppActor pid=175740)[0m   1                  -1  1      4672  ultralytics.nn.modules.conv.Conv             [16, 32, 3, 2]                
[36m(ClientAppActor pid=175740)[0m   2                  -1  1      7360  ultralytics.nn.modules.block.C2f             [32, 32, 1, True]             
[36m(ClientAppActor pid=175740)[0m   3                  -1  1     18560  ultralytics.nn.modules.conv.Conv             [32, 64, 3, 2]                
[36m(ClientAppActor pid=175740)[0m   4                  -1  2     49664  ultralytics.nn.modules.block.C2f             [64, 64, 2, True]             
[36m(ClientAppActor pid=175740)[0m   5                  -1  1     73984  ultralytics.nn.modules.conv.Conv             [64, 128, 3, 2]               
[36m(ClientAppActor pid=175740)[0m   6                  -1  2    197632  ultralytics.nn.modules.block.C2f             [128, 128, 2, True]           
[36m(ClientAppActor pid=175740)[0m   7                  -1  1    295424  ultralytics.nn.modules.conv.Conv             [128, 256, 3, 2]              
[36m(ClientAppActor pid=175740)[0m   8                  -1  1    460288  ultralytics.nn.modules.block.C2f             [256, 256, 1, True]           
[36m(ClientAppActor pid=175740)[0m   9                  -1  1    164608  ultralytics.nn.modules.block.SPPF            [256, 256, 5]                 
[36m(ClientAppActor pid=175740)[0m  10                  -1  1         0  torch.nn.modules.upsampling.Upsample         [None, 2, 'nearest']          
[36m(ClientAppActor pid=175740)[0m  11             [-1, 6]  1         0  ultralytics.nn.modules.conv.Concat           [1]                           
[36m(ClientAppActor pid=175740)[0m  12                  -1  1    148224  ultralytics.nn.modules.block.C2f             [384, 128, 1]                 
[36m(ClientAppActor pid=175740)[0m  13                  -1  1         0  torch.nn.modules.upsampling.Upsample         [None, 2, 'nearest']          
[36m(ClientAppActor pid=175740)[0m  14             [-1, 4]  1         0  ultralytics.nn.modules.conv.Concat           [1]                           
[36m(ClientAppActor pid=175740)[0m  15                  -1  1     37248  ultralytics.nn.modules.block.C2f             [192, 64, 1]                  
[36m(ClientAppActor pid=175740)[0m  16                  -1  1     36992  ultralytics.nn.modules.conv.Conv             [64, 64, 3, 2]                
[36m(ClientAppActor pid=175740)[0m  17            [-1, 12]  1         0  ultralytics.nn.modules.conv.Concat           [1]                           
[36m(ClientAppActor pid=175740)[0m  18                  -1  1    123648  ultralytics.nn.modules.block.C2f             [192, 128, 1]                 
[36m(ClientAppActor pid=175740)[0m  19                  -1  1    147712  ultralytics.nn.modules.conv.Conv             [128, 128, 3, 2]              
[36m(ClientAppActor pid=175740)[0m  20             [-1, 9]  1         0  ultralytics.nn.modules.conv.Concat           [1]                           
[36m(ClientAppActor pid=175740)[0m  21                  -1  1    493056  ultralytics.nn.modules.block.C2f             [384, 256, 1]                 
[36m(ClientAppActor pid=175740)[0m  22        [15, 18, 21]  1    751507  ultralytics.nn.modules.head.Detect           [1, [64, 128, 256]]           
[36m(ClientAppActor pid=175740)[0m                    all        128        273       0.55      0.253      0.334      0.227[32m [repeated 7x across cluster][0m
[36m(ClientAppActor pid=175736)[0m [Client 0] Device: cuda:0[32m [repeated 8x across cluster][0m
[36m(ClientAppActor pid=175740)[0m Speed: 1.3ms preprocess, 8.6ms inference, 0.0ms loss, 3.4ms postprocess per image[32m [repeated 7x across cluster][0m
[36m(ClientAppActor pid=175740)[0m Results saved to [1mruns/detect/val747[0m[32m [repeated 7x across cluster][0m
[36m(ClientAppActor pid=175732)[0m 
[36m(ClientAppActor pid=175732)[0m  12                  -1  1    148224  ultralytics.nn.modules.block.C2f             [384, 128, 1]                 
[36m(ClientAppActor pid=175732)[0m  15                  -1  1     37248  ultralytics.nn.modules.block.C2f             [192, 64, 1]                  
[36m(ClientAppActor pid=175732)[0m  18                  -1  1    123648  ultralytics.nn.modules.block.C2f             [192, 128, 1]                 
[36m(ClientAppActor pid=175740)[0m Model summary: 129 layers, 3,011,043 parameters, 3,011,027 gradients, 8.2 GFLOPs
[36m(ClientAppActor pid=175740)[0m 
[36m(ClientAppActor pid=175740)[0m Transferred 355/355 items from pretrained weights
[36m(ClientAppActor pid=175740)[0m [34m[1mTensorBoard: [0mStart with 'tensorboard --logdir runs/detect/train776', view at http://localhost:6006/
[36m(ClientAppActor pid=175740)[0m Freezing layer 'model.22.dfl.conv.weight'
[36m(ClientAppActor pid=175740)[0m [34m[1mAMP: [0mrunning Automatic Mixed Precision (AMP) checks...
[36m(ClientAppActor pid=175732)[0m  21                  -1  1    493056  ultralytics.nn.modules.block.C2f             [384, 256, 1]                 
[36m(ClientAppActor pid=175733)[0m 
[36m(ClientAppActor pid=175735)[0m 
[36m(ClientAppActor pid=175735)[0m  12                  -1  1    148224  ultralytics.nn.modules.block.C2f             [384, 128, 1]                 
[36m(ClientAppActor pid=175735)[0m  15                  -1  1     37248  ultralytics.nn.modules.block.C2f             [192, 64, 1]                  
[36m(ClientAppActor pid=175735)[0m  18                  -1  1    123648  ultralytics.nn.modules.block.C2f             [192, 128, 1]                 
[36m(ClientAppActor pid=175735)[0m  21                  -1  1    493056  ultralytics.nn.modules.block.C2f             [384, 256, 1]                 
[36m(ClientAppActor pid=175732)[0m 
[36m(ClientAppActor pid=175742)[0m 
[36m(ClientAppActor pid=175742)[0m  12                  -1  1    148224  ultralytics.nn.modules.block.C2f             [384, 128, 1]                 
[36m(ClientAppActor pid=175742)[0m  15                  -1  1     37248  ultralytics.nn.modules.block.C2f             [192, 64, 1]                  
[36m(ClientAppActor pid=175742)[0m  18                  -1  1    123648  ultralytics.nn.modules.block.C2f             [192, 128, 1]                 
[36m(ClientAppActor pid=175742)[0m  21                  -1  1    493056  ultralytics.nn.modules.block.C2f             [384, 256, 1]                 
[36m(ClientAppActor pid=175733)[0m  12                  -1  1    148224  ultralytics.nn.modules.block.C2f             [384, 128, 1]                 
[36m(ClientAppActor pid=175733)[0m  15                  -1  1     37248  ultralytics.nn.modules.block.C2f             [192, 64, 1]                  
[36m(ClientAppActor pid=175733)[0m  18                  -1  1    123648  ultralytics.nn.modules.block.C2f             [192, 128, 1]                 
[36m(ClientAppActor pid=175733)[0m  21                  -1  1    493056  ultralytics.nn.modules.block.C2f             [384, 256, 1]                 
[36m(ClientAppActor pid=175737)[0m 
[36m(ClientAppActor pid=175737)[0m  12                  -1  1    148224  ultralytics.nn.modules.block.C2f             [384, 128, 1]                 
[36m(ClientAppActor pid=175737)[0m  15                  -1  1     37248  ultralytics.nn.modules.block.C2f             [192, 64, 1]                  
[36m(ClientAppActor pid=175737)[0m  18                  -1  1    123648  ultralytics.nn.modules.block.C2f             [192, 128, 1]                 
[36m(ClientAppActor pid=175737)[0m  21                  -1  1    493056  ultralytics.nn.modules.block.C2f             [384, 256, 1]                 
[36m(ClientAppActor pid=175735)[0m 
[36m(ClientAppActor pid=175742)[0m 
[36m(ClientAppActor pid=175739)[0m 
[36m(ClientAppActor pid=175739)[0m  12                  -1  1    148224  ultralytics.nn.modules.block.C2f             [384, 128, 1]                 
[36m(ClientAppActor pid=175739)[0m  15                  -1  1     37248  ultralytics.nn.modules.block.C2f             [192, 64, 1]                  
[36m(ClientAppActor pid=175739)[0m  18                  -1  1    123648  ultralytics.nn.modules.block.C2f             [192, 128, 1]                 
[36m(ClientAppActor pid=175739)[0m  21                  -1  1    493056  ultralytics.nn.modules.block.C2f             [384, 256, 1]                 
[36m(ClientAppActor pid=175736)[0m 
[36m(ClientAppActor pid=175736)[0m  12                  -1  1    148224  ultralytics.nn.modules.block.C2f             [384, 128, 1]                 
[36m(ClientAppActor pid=175736)[0m  15                  -1  1     37248  ultralytics.nn.modules.block.C2f             [192, 64, 1]                  
[36m(ClientAppActor pid=175736)[0m  18                  -1  1    123648  ultralytics.nn.modules.block.C2f             [192, 128, 1]                 
[36m(ClientAppActor pid=175736)[0m  21                  -1  1    493056  ultralytics.nn.modules.block.C2f             [384, 256, 1]                 
[36m(ClientAppActor pid=175733)[0m 
[36m(ClientAppActor pid=175737)[0m 
[36m(ClientAppActor pid=175739)[0m 
[36m(ClientAppActor pid=175736)[0m 
[36m(ClientAppActor pid=175740)[0m                  Class     Images  Instances      Box(P          R      mAP50  mAP50-95):  75%|â–ˆâ–ˆâ–ˆâ–ˆâ–ˆâ–ˆâ–ˆâ–Œ  | 6/8 [00:06<00:01,  1.90it/s][32m [repeated 26x across cluster][0m
…
[36m(ClientAppActor pid=175737)[0m Model summary: 129 layers, 3,011,043 parameters, 3,011,027 gradients, 8.2 GFLOPs
[36m(ClientAppActor pid=175737)[0m 
[36m(ClientAppActor pid=175737)[0m Transferred 355/355 items from pretrained weights
[36m(ClientAppActor pid=175737)[0m [34m[1mTensorBoard: [0mStart with 'tensorboard --logdir runs/detect/train800', view at http://localhost:6006/
[36m(ClientAppActor pid=175737)[0m Freezing layer 'model.22.dfl.conv.weight'
[36m(ClientAppActor pid=175737)[0m [34m[1mAMP: [0mrunning Automatic Mixed Precision (AMP) checks...
[36m(ClientAppActor pid=175732)[0m 
[36m(ClientAppActor pid=175742)[0m  12                  -1  1    148224  ultralytics.nn.modules.block.C2f             [384, 128, 1]                 
[36m(ClientAppActor pid=175742)[0m  15                  -1  1     37248  ultralytics.nn.modules.block.C2f             [192, 64, 1]                  
[36m(ClientAppActor pid=175742)[0m  18                  -1  1    123648  ultralytics.nn.modules.block.C2f             [192, 128, 1]                 
[36m(ClientAppActor pid=175742)[0m  21                  -1  1    493056  ultralytics.nn.modules.block.C2f             [384, 256, 1]                 
[36m(ClientAppActor pid=175740)[0m 
[36m(ClientAppActor pid=175740)[0m  12                  -1  1    148224  ultralytics.nn.modules.block.C2f             [384, 128, 1]                 
[36m(ClientAppActor pid=175740)[0m  15                  -1  1     37248  ultralytics.nn.modules.block.C2f             [192, 64, 1]                  
[36m(ClientAppActor pid=175740)[0m  18                  -1  1    123648  ultralytics.nn.modules.block.C2f             [192, 128, 1]                 
[36m(ClientAppActor pid=175735)[0m 
[36m(ClientAppActor pid=175735)[0m  12                  -1  1    148224  ultralytics.nn.modules.block.C2f             [384, 128, 1]                 
[36m(ClientAppActor pid=175735)[0m  15                  -1  1     37248  ultralytics.nn.modules.block.C2f             [192, 64, 1]                  
[36m(ClientAppActor pid=175735)[0m  18                  -1  1    123648  ultralytics.nn.modules.block.C2f             [192, 128, 1]                 
[36m(ClientAppActor pid=175735)[0m  21                  -1  1    493056  ultralytics.nn.modules.block.C2f             [384, 256, 1]                 
[36m(ClientAppActor pid=175732)[0m  12                  -1  1    148224  ultralytics.nn.modules.block.C2f             [384, 128, 1]                 
[36m(ClientAppActor pid=175732)[0m  15                  -1  1     37248  ultralytics.nn.modules.block.C2f             [192, 64, 1]                  
[36m(ClientAppActor pid=175732)[0m  18                  -1  1    123648  ultralytics.nn.modules.block.C2f             [192, 128, 1]                 
[36m(ClientAppActor pid=175732)[0m  21                  -1  1    493056  ultralytics.nn.modules.block.C2f             [384, 256, 1]                 
[36m(ClientAppActor pid=175742)[0m 
[36m(ClientAppActor pid=175739)[0m 
[36m(ClientAppActor pid=175739)[0m  12                  -1  1    148224  ultralytics.nn.modules.block.C2f             [384, 128, 1]                 
[36m(ClientAppActor pid=175739)[0m  15                  -1  1     37248  ultralytics.nn.modules.block.C2f             [192, 64, 1]                  
[36m(ClientAppActor pid=175739)[0m  18                  -1  1    123648  ultralytics.nn.modules.block.C2f             [192, 128, 1]                 
[36m(ClientAppActor pid=175739)[0m  21                  -1  1    493056  ultralytics.nn.modules.block.C2f             [384, 256, 1]                 
[36m(ClientAppActor pid=175736)[0m 
[36m(ClientAppActor pid=175740)[0m  21                  -1  1    493056  ultralytics.nn.modules.block.C2f             [384, 256, 1]                 
[36m(ClientAppActor pid=175740)[0m 
[36m(ClientAppActor pid=175735)[0m 
[36m(ClientAppActor pid=175732)[0m 
[36m(ClientAppActor pid=175739)[0m 
[36m(ClientAppActor pid=175736)[0m  12                  -1  1    148224  ultralytics.nn.modules.block.C2f             [384, 128, 1]                 
[36m(ClientAppActor pid=175736)[0m  15                  -1  1     37248  ultralytics.nn.modules.block.C2f             [192, 64, 1]                  
[36m(ClientAppActor pid=175736)[0m  18                  -1  1    123648  ultralytics.nn.modules.block.C2f             [192, 128, 1]                 
[36m(ClientAppActor pid=175736)[0m  21                  -1  1    493056  ultralytics.nn.modules.block.C2f             [384, 256, 1]                 
[36m(ClientAppActor pid=175733)[0m 
[36m(ClientAppActor pid=175733)[0m  12                  -1  1    148224  ultralytics.nn.modules.block.C2f             [384, 128, 1]                 
[36m(ClientAppActor pid=175733)[0m  15                  -1  1     37248  ultralytics.nn.modules.block.C2f             [192, 64, 1]                  
[36m(ClientAppActor pid=175733)[0m  18                  -1  1    123648  ultralytics.nn.modules.block.C2f             [192, 128, 1]                 
[36m(ClientAppActor pid=175733)[0m  21                  -1  1    493056  ultralytics.nn.modules.block.C2f             [384, 256, 1]                 
[36m(ClientAppActor pid=175737)[0m [34m[1mAMP: [0mchecks passed âœ…
[36m(ClientAppActor pid=175736)[0m 
[36m(ClientAppActor pid=175733)[0m 
[36m(ClientAppActor pid=175737)[0m Plotting labels to runs/detect/train800/labels.jpg... 
[36m(ClientAppActor pid=175733)[0m New https://pypi.org/project/ultralytics/8.3.121 available ðŸ˜ƒ Update with 'pip install -U ultralytics'[32m [repeated 7x across cluster][0m
…
5, shear=0.0, perspective=0.0, flipud=0.0, fliplr=0.5, bgr=0.0, mosaic=1.0, mixup=0.0, copy_paste=0.0, copy_paste_mode=flip, auto_augment=randaugment, erasing=0.4, crop_fraction=1.0, cfg=None, tracker=botsort.yaml, save_dir=runs/detect/train808
[36m(ClientAppActor pid=175740)[0m Overriding class names with single class.
[36m(ClientAppActor pid=175740)[0m 
[36m(ClientAppActor pid=175740)[0m                    from  n    params  module                                       arguments                     
[36m(ClientAppActor pid=175740)[0m   0                  -1  1       464  ultralytics.nn.modules.conv.Conv             [3, 16, 3, 2]                 
[36m(ClientAppActor pid=175740)[0m   1                  -1  1      4672  ultralytics.nn.modules.conv.Conv             [16, 32, 3, 2]                
[36m(ClientAppActor pid=175740)[0m   2                  -1  1      7360  ultralytics.nn.modules.block.C2f             [32, 32, 1, True]             
[36m(ClientAppActor pid=175740)[0m   3                  -1  1     18560  ultralytics.nn.modules.conv.Conv             [32, 64, 3, 2]                
[36m(ClientAppActor pid=175740)[0m   4                  -1  2     49664  ultralytics.nn.modules.block.C2f             [64, 64, 2, True]             
[36m(ClientAppActor pid=175740)[0m   5                  -1  1     73984  ultralytics.nn.modules.conv.Conv             [64, 128, 3, 2]               
[36m(ClientAppActor pid=175740)[0m   6                  -1  2    197632  ultralytics.nn.modules.block.C2f             [128, 128, 2, True]           
[36m(ClientAppActor pid=175740)[0m   7                  -1  1    295424  ultralytics.nn.modules.conv.Conv             [128, 256, 3, 2]              
[36m(ClientAppActor pid=175740)[0m   8                  -1  1    460288  ultralytics.nn.modules.block.C2f             [256, 256, 1, True]           
[36m(ClientAppActor pid=175740)[0m   9                  -1  1    164608  ultralytics.nn.modules.block.SPPF            [256, 256, 5]                 
[36m(ClientAppActor pid=175740)[0m  10                  -1  1         0  torch.nn.modules.upsampling.Upsample         [None, 2, 'nearest']          
[36m(ClientAppActor pid=175740)[0m  11             [-1, 6]  1         0  ultralytics.nn.modules.conv.Concat           [1]                           
[36m(ClientAppActor pid=175740)[0m  12                  -1  1    148224  ultralytics.nn.modules.block.C2f             [384, 128, 1]                 
[36m(ClientAppActor pid=175740)[0m  13                  -1  1         0  torch.nn.modules.upsampling.Upsample         [None, 2, 'nearest']          
[36m(ClientAppActor pid=175740)[0m  14             [-1, 4]  1         0  ultralytics.nn.modules.conv.Concat           [1]                           
[36m(ClientAppActor pid=175740)[0m  15                  -1  1     37248  ultralytics.nn.modules.block.C2f             [192, 64, 1]                  
[36m(ClientAppActor pid=175740)[0m  16                  -1  1     36992  ultralytics.nn.modules.conv.Conv             [64, 64, 3, 2]                
[36m(ClientAppActor pid=175740)[0m  17            [-1, 12]  1         0  ultralytics.nn.modules.conv.Concat           [1]                           
[36m(ClientAppActor pid=175740)[0m  18                  -1  1    123648  ultralytics.nn.modules.block.C2f             [192, 128, 1]                 
[36m(ClientAppActor pid=175740)[0m  19                  -1  1    147712  ultralytics.nn.modules.conv.Conv             [128, 128, 3, 2]              
[36m(ClientAppActor pid=175740)[0m  20             [-1, 9]  1         0  ultralytics.nn.modules.conv.Concat           [1]                           
[36m(ClientAppActor pid=175740)[0m  21                  -1  1    493056  ultralytics.nn.modules.block.C2f             [384, 256, 1]                 
[36m(ClientAppActor pid=175740)[0m  22        [15, 18, 21]  1    751507  ultralytics.nn.modules.head.Detect           [1, [64, 128, 256]]           
[36m(ClientAppActor pid=175732)[0m 
[36m(ClientAppActor pid=175732)[0m  12                  -1  1    148224  ultralytics.nn.modules.block.C2f             [384, 128, 1]                 
[36m(ClientAppActor pid=175732)[0m  15                  -1  1     37248  ultralytics.nn.modules.block.C2f             [192, 64, 1]                  
[36m(ClientAppActor pid=175732)[0m  18                  -1  1    123648  ultralytics.nn.modules.block.C2f             [192, 128, 1]                 
[36m(ClientAppActor pid=175732)[0m  21                  -1  1    493056  ultralytics.nn.modules.block.C2f             [384, 256, 1]                 
[36m(ClientAppActor pid=175740)[0m Model summary: 129 layers, 3,011,043 parameters, 3,011,027 gradients, 8.2 GFLOPs
[36m(ClientAppActor pid=175740)[0m 
[36m(ClientAppActor pid=175740)[0m Transferred 355/355 items from pretrained weights
[36m(ClientAppActor pid=175740)[0m [34m[1mTensorBoard: [0mStart with 'tensorboard --logdir runs/detect/train808', view at http://localhost:6006/
[36m(ClientAppActor pid=175740)[0m Freezing layer 'model.22.dfl.conv.weight'
[36m(ClientAppActor pid=175740)[0m [34m[1mAMP: [0mrunning Automatic Mixed Precision (AMP) checks...
[36m(ClientAppActor pid=175737)[0m 
[36m(ClientAppActor pid=175737)[0m  12                  -1  1    148224  ultralytics.nn.modules.block.C2f             [384, 128, 1]                 
[36m(ClientAppActor pid=175737)[0m  15                  -1  1     37248  ultralytics.nn.modules.block.C2f             [192, 64, 1]                  
[36m(ClientAppActor pid=175737)[0m  18                  -1  1    123648  ultralytics.nn.modules.block.C2f             [192, 128, 1]                 
[36m(ClientAppActor pid=175737)[0m  21                  -1  1    493056  ultralytics.nn.modules.block.C2f             [384, 256, 1]                 
[36m(ClientAppActor pid=175735)[0m 
[36m(ClientAppActor pid=175732)[0m 
[36m(ClientAppActor pid=175742)[0m 
[36m(ClientAppActor pid=175742)[0m  12                  -1  1    148224  ultralytics.nn.modules.block.C2f             [384, 128, 1]                 
[36m(ClientAppActor pid=175742)[0m  15                  -1  1     37248  ultralytics.nn.modules.block.C2f             [192, 64, 1]                  
[36m(ClientAppActor pid=175742)[0m  18                  -1  1    123648  ultralytics.nn.modules.block.C2f             [192, 128, 1]                 
[36m(ClientAppActor pid=175736)[0m 
[36m(ClientAppActor pid=175736)[0m  12                  -1  1    148224  ultralytics.nn.modules.block.C2f             [384, 128, 1]                 
[36m(ClientAppActor pid=175736)[0m  15                  -1  1     37248  ultralytics.nn.modules.block.C2f             [192, 64, 1]                  
[36m(ClientAppActor pid=175740)[0m                  Class     Images  Instances      Box(P          R      mAP50  mAP50-95):  75%|â–ˆâ–ˆâ–ˆâ–ˆâ–ˆâ–ˆâ–ˆâ–Œ  | 6/8 [00:07<00:01,  1.78it/s][32m [repeated 26x across cluster][0m
[36m(ClientAppActor pid=175740)[0m [34m[1mtrain: [0mScanning /WehbeDocker/YOLOV8N/datasets/client_1/train/labels.cache... 189 images, 0 backgrounds, 0 corrupt: 100%|â–ˆâ–ˆâ–ˆâ–ˆâ–ˆâ–ˆâ–ˆâ–ˆâ–ˆâ–ˆ| 189/189 [00:00<?, ?it/s][34m[1mtrain: [0mScanning /WehbeDocker/YOLOV8N/datasets/client_1/train/labels.cache... 189 images, 0 backgrounds, 0 corrupt: 100%|â–ˆâ–ˆâ–ˆâ–ˆâ–ˆâ–ˆâ–ˆâ–ˆâ–ˆâ–ˆ| 189/189 [00:00<?, ?it/s]
…
[36m(ClientAppActor pid=175740)[0m   ap = np.trapz(np.interp(x, mrec, mpre), x)  # integrate[32m [repeated 7x across cluster][0m
[36m(ClientAppActor pid=175732)[0m [34m[1mtrain: [0mScanning /WehbeDocker/YOLOV8N/datasets/client_6/train/labels.cache... 136 images, 0 backgrounds, 0 corrupt: 100%|â–ˆâ–ˆâ–ˆâ–ˆâ–ˆâ–ˆâ–ˆâ–ˆâ–ˆâ–ˆ| 136/136 [00:00<?, ?it/s][34m[1mtrain: [0mScanning /WehbeDocker/YOLOV8N/datasets/client_6/train/labels.cache... 136 images, 0 backgrounds, 0 corrupt: 100%|â–ˆâ–ˆâ–ˆâ–ˆâ–ˆâ–ˆâ–ˆâ–ˆâ–ˆâ–ˆ| 136/136 [00:00<?, ?it/s]
[36m(ClientAppActor pid=175736)[0m  18                  -1  1    123648  ultralytics.nn.modules.block.C2f             [192, 128, 1]                 
[36m(ClientAppActor pid=175736)[0m  21                  -1  1    493056  ultralytics.nn.modules.block.C2f             [384, 256, 1]                 
[36m(ClientAppActor pid=175733)[0m 
[36m(ClientAppActor pid=175733)[0m  12                  -1  1    148224  ultralytics.nn.modules.block.C2f             [384, 128, 1]                 
[36m(ClientAppActor pid=175733)[0m  15                  -1  1     37248  ultralytics.nn.modules.block.C2f             [192, 64, 1]                  
[36m(ClientAppActor pid=175733)[0m  18                  -1  1    123648  ultralytics.nn.modules.block.C2f             [192, 128, 1]                 
[36m(ClientAppActor pid=175733)[0m  21                  -1  1    493056  ultralytics.nn.modules.block.C2f             [384, 256, 1]                 
[36m(ClientAppActor pid=175742)[0m  21                  -1  1    493056  ultralytics.nn.modules.block.C2f             [384, 256, 1]                 
[36m(ClientAppActor pid=175737)[0m 
[36m(ClientAppActor pid=175735)[0m  12                  -1  1    148224  ultralytics.nn.modules.block.C2f             [384, 128, 1]                 
[36m(ClientAppActor pid=175735)[0m  15                  -1  1     37248  ultralytics.nn.modules.block.C2f             [192, 64, 1]                  
[36m(ClientAppActor pid=175735)[0m  18                  -1  1    123648  ultralytics.nn.modules.block.C2f             [192, 128, 1]                 
[36m(ClientAppActor pid=175735)[0m  21                  -1  1    493056  ultralytics.nn.modules.block.C2f             [384, 256, 1]                 
[36m(ClientAppActor pid=175739)[0m 
[36m(ClientAppActor pid=175739)[0m  12                  -1  1    148224  ultralytics.nn.modules.block.C2f             [384, 128, 1]                 
[36m(ClientAppActor pid=175739)[0m  15                  -1  1     37248  ultralytics.nn.modules.block.C2f             [192, 64, 1]                  
[36m(ClientAppActor pid=175739)[0m  18                  -1  1    123648  ultralytics.nn.modules.block.C2f             [192, 128, 1]                 
[36m(ClientAppActor pid=175739)[0m  21                  -1  1    493056  ultralytics.nn.modules.block.C2f             [384, 256, 1]                 
[36m(ClientAppActor pid=175736)[0m 
[36m(ClientAppActor pid=175733)[0m 
[36m(ClientAppActor pid=175735)[0m 
[36m(ClientAppActor pid=175742)[0m 
[36m(ClientAppActor pid=175739)[0m 
[36m(ClientAppActor pid=175740)[0m [34m[1mAMP: [0mchecks passed âœ…
[36m(ClientAppActor pid=175740)[0m Plotting labels to runs/detect/train808/labels.jpg... 
[36m(ClientAppActor pid=175733)[0m New https://pypi.org/project/ultralytics/8.3.121 available ðŸ˜ƒ Update with 'pip install -U ultralytics'[32m [repeated 7x across cluster][0m
…
5, shear=0.0, perspective=0.0, flipud=0.0, fliplr=0.5, bgr=0.0, mosaic=1.0, mixup=0.0, copy_paste=0.0, copy_paste_mode=flip, auto_augment=randaugment, erasing=0.4, crop_fraction=1.0, cfg=None, tracker=botsort.yaml, save_dir=runs/detect/train816
[36m(ClientAppActor pid=175740)[0m Overriding class names with single class.
[36m(ClientAppActor pid=175740)[0m 
[36m(ClientAppActor pid=175740)[0m                    from  n    params  module                                       arguments                     
[36m(ClientAppActor pid=175740)[0m   0                  -1  1       464  ultralytics.nn.modules.conv.Conv             [3, 16, 3, 2]                 
[36m(ClientAppActor pid=175740)[0m   1                  -1  1      4672  ultralytics.nn.modules.conv.Conv             [16, 32, 3, 2]                
[36m(ClientAppActor pid=175740)[0m   2                  -1  1      7360  ultralytics.nn.modules.block.C2f             [32, 32, 1, True]             
[36m(ClientAppActor pid=175740)[0m   3                  -1  1     18560  ultralytics.nn.modules.conv.Conv             [32, 64, 3, 2]                
[36m(ClientAppActor pid=175740)[0m   4                  -1  2     49664  ultralytics.nn.modules.block.C2f             [64, 64, 2, True]             
[36m(ClientAppActor pid=175740)[0m   5                  -1  1     73984  ultralytics.nn.modules.conv.Conv             [64, 128, 3, 2]               
[36m(ClientAppActor pid=175740)[0m   6                  -1  2    197632  ultralytics.nn.modules.block.C2f             [128, 128, 2, True]           
[36m(ClientAppActor pid=175740)[0m   7                  -1  1    295424  ultralytics.nn.modules.conv.Conv             [128, 256, 3, 2]              
[36m(ClientAppActor pid=175740)[0m   8                  -1  1    460288  ultralytics.nn.modules.block.C2f             [256, 256, 1, True]           
[36m(ClientAppActor pid=175740)[0m   9                  -1  1    164608  ultralytics.nn.modules.block.SPPF            [256, 256, 5]                 
[36m(ClientAppActor pid=175740)[0m  10                  -1  1         0  torch.nn.modules.upsampling.Upsample         [None, 2, 'nearest']          
[36m(ClientAppActor pid=175740)[0m  11             [-1, 6]  1         0  ultralytics.nn.modules.conv.Concat           [1]                           
[36m(ClientAppActor pid=175740)[0m  12                  -1  1    148224  ultralytics.nn.modules.block.C2f             [384, 128, 1]                 
[36m(ClientAppActor pid=175740)[0m  13                  -1  1         0  torch.nn.modules.upsampling.Upsample         [None, 2, 'nearest']          
[36m(ClientAppActor pid=175740)[0m  14             [-1, 4]  1         0  ultralytics.nn.modules.conv.Concat           [1]                           
[36m(ClientAppActor pid=175740)[0m  15                  -1  1     37248  ultralytics.nn.modules.block.C2f             [192, 64, 1]                  
[36m(ClientAppActor pid=175740)[0m  16                  -1  1     36992  ultralytics.nn.modules.conv.Conv             [64, 64, 3, 2]                
[36m(ClientAppActor pid=175740)[0m  17            [-1, 12]  1         0  ultralytics.nn.modules.conv.Concat           [1]                           
[36m(ClientAppActor pid=175740)[0m  18                  -1  1    123648  ultralytics.nn.modules.block.C2f             [192, 128, 1]                 
[36m(ClientAppActor pid=175733)[0m                  Class     Images  Instances      Box(P          R      mAP50  mAP50-95):  88%|â–ˆâ–ˆâ–ˆâ–ˆâ–ˆâ–ˆâ–ˆâ–ˆâ–Š | 7/8 [00:06<00:00,  2.58it/s][32m [repeated 27x across cluster][0m
[36m(ClientAppActor pid=175740)[0m [34m[1mtrain: [0mScanning /WehbeDocker/YOLOV8N/datasets/client_3/train/labels.cache... 197 images, 0 backgrounds, 0 corrupt: 100%|â–ˆâ–ˆâ–ˆâ–ˆâ–ˆâ–ˆâ–ˆâ–ˆâ–ˆâ–ˆ| 197/197 [00:00<?, ?it/s][34m[1mtrain: [0mScanning /WehbeDocker/YOLOV8N/datasets/client_3/train/labels.cache... 197 images, 0 backgrounds, 0 corrupt: 100%|â–ˆâ–ˆâ–ˆâ–ˆâ–ˆâ–ˆâ–ˆâ–ˆâ–ˆâ–ˆ| 197/197 [00:00<?, ?it/s]
…
[36m(ClientAppActor pid=175733)[0m   ap = np.trapz(np.interp(x, mrec, mpre), x)  # integrate[32m [repeated 7x across cluster][0m
[36m(ClientAppActor pid=175733)[0m [34m[1mtrain: [0mScanning /WehbeDocker/YOLOV8N/datasets/client_2/train/labels.cache... 365 images, 0 backgrounds, 0 corrupt: 100%|â–ˆâ–ˆâ–ˆâ–ˆâ–ˆâ–ˆâ–ˆâ–ˆâ–ˆâ–ˆ| 365/365 [00:00<?, ?it/s][34m[1mtrain: [0mScanning /WehbeDocker/YOLOV8N/datasets/client_2/train/labels.cache... 365 images, 0 backgrounds, 0 corrupt: 100%|â–ˆâ–ˆâ–ˆâ–ˆâ–ˆâ–ˆâ–ˆâ–ˆâ–ˆâ–ˆ| 365/365 [00:00<?, ?it/s]
[36m(ClientAppActor pid=175740)[0m  19                  -1  1    147712  ultralytics.nn.modules.conv.Conv             [128, 128, 3, 2]              
[36m(ClientAppActor pid=175740)[0m  20             [-1, 9]  1         0  ultralytics.nn.modules.conv.Concat           [1]                           
[36m(ClientAppActor pid=175740)[0m  21                  -1  1    493056  ultralytics.nn.modules.block.C2f             [384, 256, 1]                 
[36m(ClientAppActor pid=175740)[0m  22        [15, 18, 21]  1    751507  ultralytics.nn.modules.head.Detect           [1, [64, 128, 256]]           
[36m(ClientAppActor pid=175733)[0m                    all        128        273       0.65      0.553      0.628       0.46[32m [repeated 7x across cluster][0m
[36m(ClientAppActor pid=175737)[0m [Client 1] Device: cuda:0[32m [repeated 8x across cluster][0m
[36m(ClientAppActor pid=175733)[0m Speed: 1.1ms preprocess, 3.1ms inference, 0.0ms loss, 4.8ms postprocess per image[32m [repeated 7x across cluster][0m
[36m(ClientAppActor pid=175733)[0m Results saved to [1mruns/detect/val787[0m[32m [repeated 7x across cluster][0m
[36m(ClientAppActor pid=175733)[0m 
[36m(ClientAppActor pid=175733)[0m  12                  -1  1    148224  ultralytics.nn.modules.block.C2f             [384, 128, 1]                 
[36m(ClientAppActor pid=175733)[0m  15                  -1  1     37248  ultralytics.nn.modules.block.C2f             [192, 64, 1]                  
[36m(ClientAppActor pid=175733)[0m  18                  -1  1    123648  ultralytics.nn.modules.block.C2f             [192, 128, 1]                 
[36m(ClientAppActor pid=175733)[0m  21                  -1  1    493056  ultralytics.nn.modules.block.C2f             [384, 256, 1]                 
[36m(ClientAppActor pid=175740)[0m Model summary: 129 layers, 3,011,043 parameters, 3,011,027 gradients, 8.2 GFLOPs
[36m(ClientAppActor pid=175740)[0m 
[36m(ClientAppActor pid=175740)[0m Transferred 355/355 items from pretrained weights
[36m(ClientAppActor pid=175740)[0m [34m[1mTensorBoard: [0mStart with 'tensorboard --logdir runs/detect/train816', view at http://localhost:6006/
[36m(ClientAppActor pid=175740)[0m Freezing layer 'model.22.dfl.conv.weight'
[36m(ClientAppActor pid=175740)[0m [34m[1mAMP: [0mrunning Automatic Mixed Precision (AMP) checks...
[36m(ClientAppActor pid=175733)[0m 
[36m(ClientAppActor pid=175742)[0m 
[36m(ClientAppActor pid=175742)[0m  12                  -1  1    148224  ultralytics.nn.modules.block.C2f             [384, 128, 1]                 
[36m(ClientAppActor pid=175742)[0m  15                  -1  1     37248  ultralytics.nn.modules.block.C2f             [192, 64, 1]                  
[36m(ClientAppActor pid=175742)[0m  18                  -1  1    123648  ultralytics.nn.modules.block.C2f             [192, 128, 1]                 
[36m(ClientAppActor pid=175742)[0m  21                  -1  1    493056  ultralytics.nn.modules.block.C2f             [384, 256, 1]                 
[36m(ClientAppActor pid=175732)[0m 
[36m(ClientAppActor pid=175732)[0m  12                  -1  1    148224  ultralytics.nn.modules.block.C2f             [384, 128, 1]                 
[36m(ClientAppActor pid=175732)[0m  15                  -1  1     37248  ultralytics.nn.modules.block.C2f             [192, 64, 1]                  
[36m(ClientAppActor pid=175732)[0m  18                  -1  1    123648  ultralytics.nn.modules.block.C2f             [192, 128, 1]                 
[36m(ClientAppActor pid=175732)[0m  21                  -1  1    493056  ultralytics.nn.modules.block.C2f             [384, 256, 1]                 
[36m(ClientAppActor pid=175742)[0m 
[36m(ClientAppActor pid=175736)[0m 
[36m(ClientAppActor pid=175736)[0m  12                  -1  1    148224  ultralytics.nn.modules.block.C2f             [384, 128, 1]                 
[36m(ClientAppActor pid=175736)[0m  15                  -1  1     37248  ultralytics.nn.modules.block.C2f             [192, 64, 1]                  
[36m(ClientAppActor pid=175736)[0m  18                  -1  1    123648  ultralytics.nn.modules.block.C2f             [192, 128, 1]                 
[36m(ClientAppActor pid=175736)[0m  21                  -1  1    493056  ultralytics.nn.modules.block.C2f             [384, 256, 1]                 
[36m(ClientAppActor pid=175735)[0m 
[36m(ClientAppActor pid=175735)[0m  12                  -1  1    148224  ultralytics.nn.modules.block.C2f             [384, 128, 1]                 
[36m(ClientAppActor pid=175735)[0m  15                  -1  1     37248  ultralytics.nn.modules.block.C2f             [192, 64, 1]                  
[36m(ClientAppActor pid=175735)[0m  18                  -1  1    123648  ultralytics.nn.modules.block.C2f             [192, 128, 1]                 
[36m(ClientAppActor pid=175735)[0m  21                  -1  1    493056  ultralytics.nn.modules.block.C2f             [384, 256, 1]                 
[36m(ClientAppActor pid=175732)[0m 
[36m(ClientAppActor pid=175739)[0m 
[36m(ClientAppActor pid=175739)[0m  12                  -1  1    148224  ultralytics.nn.modules.block.C2f             [384, 128, 1]                 
[36m(ClientAppActor pid=175739)[0m  15                  -1  1     37248  ultralytics.nn.modules.block.C2f             [192, 64, 1]                  
[36m(ClientAppActor pid=175739)[0m  18                  -1  1    123648  ultralytics.nn.modules.block.C2f             [192, 128, 1]                 
[36m(ClientAppActor pid=175739)[0m  21                  -1  1    493056  ultralytics.nn.modules.block.C2f             [384, 256, 1]                 
[36m(ClientAppActor pid=175736)[0m 
[36m(ClientAppActor pid=175737)[0m 
[36m(ClientAppActor pid=175737)[0m  12                  -1  1    148224  ultralytics.nn.modules.block.C2f             [384, 128, 1]                 
[36m(ClientAppActor pid=175737)[0m  15                  -1  1     37248  ultralytics.nn.modules.block.C2f             [192, 64, 1]                  
[36m(ClientAppActor pid=175737)[0m  18                  -1  1    123648  ultralytics.nn.modules.block.C2f             [192, 128, 1]                 
[36m(ClientAppActor pid=175737)[0m  21                  -1  1    493056  ultralytics.nn.modules.block.C2f             [384, 256, 1]                 
[36m(ClientAppActor pid=175735)[0m 
[36m(ClientAppActor pid=175739)[0m 
[36m(ClientAppActor pid=175740)[0m [34m[1mAMP: [0mchecks passed âœ…
[36m(ClientAppActor pid=175737)[0m 
[36m(ClientAppActor pid=175733)[0m Plotting labels to runs/detect/train817/labels.jpg... 
[36m(ClientAppActor pid=175737)[0m New https://pypi.org/project/ultralytics/8.3.121 available ðŸ˜ƒ Update with 'pip install -U ultralytics'[32m [repeated 7x across cluster][0m
…
mages, 0 backgrounds, 0 corrupt: 100%|â–ˆâ–ˆâ–ˆâ–ˆâ–ˆâ–ˆâ–ˆâ–ˆâ–ˆâ–ˆ| 772/772 [00:00<?, ?it/s]
[36m(ClientAppActor pid=175732)[0m [34m[1mtrain: [0mScanning /WehbeDocker/YOLOV8N/datasets/client_7/train/labels.cache... 262 images, 0 backgrounds, 0 corrupt: 100%|â–ˆâ–ˆâ–ˆâ–ˆâ–ˆâ–ˆâ–ˆâ–ˆâ–ˆâ–ˆ| 262/262 [00:00<?, ?it/s][34m[1mtrain: [0mScanning /WehbeDocker/YOLOV8N/datasets/client_7/train/labels.cache... 262 images, 0 backgrounds, 0 corrupt: 100%|â–ˆâ–ˆâ–ˆâ–ˆâ–ˆâ–ˆâ–ˆâ–ˆâ–ˆâ–ˆ| 262/262 [00:00<?, ?it/s]
[36m(ClientAppActor pid=175735)[0m  12                  -1  1    148224  ultralytics.nn.modules.block.C2f             [384, 128, 1]                 
[36m(ClientAppActor pid=175735)[0m  15                  -1  1     37248  ultralytics.nn.modules.block.C2f             [192, 64, 1]                  
[36m(ClientAppActor pid=175735)[0m  18                  -1  1    123648  ultralytics.nn.modules.block.C2f             [192, 128, 1]                 
[36m(ClientAppActor pid=175735)[0m  21                  -1  1    493056  ultralytics.nn.modules.block.C2f             [384, 256, 1]                 
[36m(ClientAppActor pid=175737)[0m 
[36m(ClientAppActor pid=175737)[0m  12                  -1  1    148224  ultralytics.nn.modules.block.C2f             [384, 128, 1]                 
[36m(ClientAppActor pid=175737)[0m  15                  -1  1     37248  ultralytics.nn.modules.block.C2f             [192, 64, 1]                  
[36m(ClientAppActor pid=175737)[0m  18                  -1  1    123648  ultralytics.nn.modules.block.C2f             [192, 128, 1]                 
[36m(ClientAppActor pid=175737)[0m  21                  -1  1    493056  ultralytics.nn.modules.block.C2f             [384, 256, 1]                 
[36m(ClientAppActor pid=175735)[0m 
[36m(ClientAppActor pid=175742)[0m 
[36m(ClientAppActor pid=175742)[0m  12                  -1  1    148224  ultralytics.nn.modules.block.C2f             [384, 128, 1]                 
[36m(ClientAppActor pid=175742)[0m  15                  -1  1     37248  ultralytics.nn.modules.block.C2f             [192, 64, 1]                  
[36m(ClientAppActor pid=175742)[0m  18                  -1  1    123648  ultralytics.nn.modules.block.C2f             [192, 128, 1]                 
[36m(ClientAppActor pid=175742)[0m  21                  -1  1    493056  ultralytics.nn.modules.block.C2f             [384, 256, 1]                 
[36m(ClientAppActor pid=175739)[0m 
[36m(ClientAppActor pid=175739)[0m  12                  -1  1    148224  ultralytics.nn.modules.block.C2f             [384, 128, 1]                 
[36m(ClientAppActor pid=175739)[0m  15                  -1  1     37248  ultralytics.nn.modules.block.C2f             [192, 64, 1]                  
[36m(ClientAppActor pid=175739)[0m  18                  -1  1    123648  ultralytics.nn.modules.block.C2f             [192, 128, 1]                 
[36m(ClientAppActor pid=175739)[0m  21                  -1  1    493056  ultralytics.nn.modules.block.C2f             [384, 256, 1]                 
[36m(ClientAppActor pid=175736)[0m 
[36m(ClientAppActor pid=175736)[0m  12                  -1  1    148224  ultralytics.nn.modules.block.C2f             [384, 128, 1]                 
[36m(ClientAppActor pid=175736)[0m  15                  -1  1     37248  ultralytics.nn.modules.block.C2f             [192, 64, 1]                  
[36m(ClientAppActor pid=175736)[0m  18                  -1  1    123648  ultralytics.nn.modules.block.C2f             [192, 128, 1]                 
[36m(ClientAppActor pid=175736)[0m  21                  -1  1    493056  ultralytics.nn.modules.block.C2f             [384, 256, 1]                 
[36m(ClientAppActor pid=175740)[0m [34m[1mAMP: [0mchecks passed âœ…
[36m(ClientAppActor pid=175733)[0m 
[36m(ClientAppActor pid=175733)[0m  12                  -1  1    148224  ultralytics.nn.modules.block.C2f             [384, 128, 1]                 
[36m(ClientAppActor pid=175733)[0m  15                  -1  1     37248  ultralytics.nn.modules.block.C2f             [192, 64, 1]                  
[36m(ClientAppActor pid=175733)[0m  18                  -1  1    123648  ultralytics.nn.modules.block.C2f             [192, 128, 1]                 
[36m(ClientAppActor pid=175733)[0m  21                  -1  1    493056  ultralytics.nn.modules.block.C2f             [384, 256, 1]                 
[36m(ClientAppActor pid=175737)[0m 
[36m(ClientAppActor pid=175742)[0m 
[36m(ClientAppActor pid=175739)[0m 
[36m(ClientAppActor pid=175736)[0m 
[36m(ClientAppActor pid=175733)[0m 
[36m(ClientAppActor pid=175740)[0m Plotting labels to runs/detect/train824/labels.jpg... 
[36m(ClientAppActor pid=175733)[0m New https://pypi.org/project/ultralytics/8.3.121 available ðŸ˜ƒ Update with 'pip install -U ultralytics'[32m [repeated 7x across cluster][0m
…
5, shear=0.0, perspective=0.0, flipud=0.0, fliplr=0.5, bgr=0.0, mosaic=1.0, mixup=0.0, copy_paste=0.0, copy_paste_mode=flip, auto_augment=randaugment, erasing=0.4, crop_fraction=1.0, cfg=None, tracker=botsort.yaml, save_dir=runs/detect/train832
[36m(ClientAppActor pid=175739)[0m Overriding class names with single class.
[36m(ClientAppActor pid=175739)[0m 
[36m(ClientAppActor pid=175739)[0m                    from  n    params  module                                       arguments                     
[36m(ClientAppActor pid=175739)[0m   0                  -1  1       464  ultralytics.nn.modules.conv.Conv             [3, 16, 3, 2]                 
[36m(ClientAppActor pid=175739)[0m   1                  -1  1      4672  ultralytics.nn.modules.conv.Conv             [16, 32, 3, 2]                
[36m(ClientAppActor pid=175739)[0m   2                  -1  1      7360  ultralytics.nn.modules.block.C2f             [32, 32, 1, True]             
[36m(ClientAppActor pid=175739)[0m   3                  -1  1     18560  ultralytics.nn.modules.conv.Conv             [32, 64, 3, 2]                
[36m(ClientAppActor pid=175739)[0m   4                  -1  2     49664  ultralytics.nn.modules.block.C2f             [64, 64, 2, True]             
[36m(ClientAppActor pid=175739)[0m   5                  -1  1     73984  ultralytics.nn.modules.conv.Conv             [64, 128, 3, 2]               
[36m(ClientAppActor pid=175739)[0m   6                  -1  2    197632  ultralytics.nn.modules.block.C2f             [128, 128, 2, True]           
[36m(ClientAppActor pid=175739)[0m   7                  -1  1    295424  ultralytics.nn.modules.conv.Conv             [128, 256, 3, 2]              
[36m(ClientAppActor pid=175739)[0m   8                  -1  1    460288  ultralytics.nn.modules.block.C2f             [256, 256, 1, True]           
[36m(ClientAppActor pid=175736)[0m                  Class     Images  Instances      Box(P          R      mAP50  mAP50-95): 100%|â–ˆâ–ˆâ–ˆâ–ˆâ–ˆâ–ˆâ–ˆâ–ˆâ–ˆâ–ˆ| 6/6 [00:07<00:00,  1.47it/s]                 Class     Images  Instances      Box(P          R      mAP50  mAP50-95): 100%|â–ˆâ–ˆâ–ˆâ–ˆâ–ˆâ–ˆâ–ˆâ–ˆâ–ˆâ–ˆ| 6/6 [00:07<00:00,  1.23s/it][32m [repeated 6x across cluster][0m
…
[36m(ClientAppActor pid=175736)[0m                  Class     Images  Instances      Box(P          R      mAP50  mAP50-95):  83%|â–ˆâ–ˆâ–ˆâ–ˆâ–ˆâ–ˆâ–ˆâ–ˆâ–Ž | 5/6 [00:07<00:00,  1.07it/s]
[36m(ClientAppActor pid=175740)[0m [34m[1mtrain: [0mScanning /WehbeDocker/YOLOV8N/datasets/client_1/train/labels.cache... 189 images, 0 backgrounds, 0 corrupt: 100%|â–ˆâ–ˆâ–ˆâ–ˆâ–ˆâ–ˆâ–ˆâ–ˆâ–ˆâ–ˆ| 189/189 [00:00<?, ?it/s][34m[1mtrain: [0mScanning /WehbeDocker/YOLOV8N/datasets/client_1/train/labels.cache... 189 images, 0 backgrounds, 0 corrupt: 100%|â–ˆâ–ˆâ–ˆâ–ˆâ–ˆâ–ˆâ–ˆâ–ˆâ–ˆâ–ˆ| 189/189 [00:00<?, ?it/s]
[36m(ClientAppActor pid=175739)[0m   9                  -1  1    164608  ultralytics.nn.modules.block.SPPF            [256, 256, 5]                 
[36m(ClientAppActor pid=175739)[0m  10                  -1  1         0  torch.nn.modules.upsampling.Upsample         [None, 2, 'nearest']          
[36m(ClientAppActor pid=175739)[0m  11             [-1, 6]  1         0  ultralytics.nn.modules.conv.Concat           [1]                           
[36m(ClientAppActor pid=175739)[0m  12                  -1  1    148224  ultralytics.nn.modules.block.C2f             [384, 128, 1]                 
[36m(ClientAppActor pid=175739)[0m  13                  -1  1         0  torch.nn.modules.upsampling.Upsample         [None, 2, 'nearest']          
[36m(ClientAppActor pid=175739)[0m  14             [-1, 4]  1         0  ultralytics.nn.modules.conv.Concat           [1]                           
[36m(ClientAppActor pid=175739)[0m  15                  -1  1     37248  ultralytics.nn.modules.block.C2f             [192, 64, 1]                  
[36m(ClientAppActor pid=175739)[0m  16                  -1  1     36992  ultralytics.nn.modules.conv.Conv             [64, 64, 3, 2]                
[36m(ClientAppActor pid=175739)[0m  17            [-1, 12]  1         0  ultralytics.nn.modules.conv.Concat           [1]                           
[36m(ClientAppActor pid=175739)[0m  18                  -1  1    123648  ultralytics.nn.modules.block.C2f             [192, 128, 1]                 
[36m(ClientAppActor pid=175739)[0m  19                  -1  1    147712  ultralytics.nn.modules.conv.Conv             [128, 128, 3, 2]              
[36m(ClientAppActor pid=175739)[0m  20             [-1, 9]  1         0  ultralytics.nn.modules.conv.Concat           [1]                           
[36m(ClientAppActor pid=175739)[0m  21                  -1  1    493056  ultralytics.nn.modules.block.C2f             [384, 256, 1]                 
[36m(ClientAppActor pid=175739)[0m  22        [15, 18, 21]  1    751507  ultralytics.nn.modules.head.Detect           [1, [64, 128, 256]]           
[36m(ClientAppActor pid=175740)[0m                    all         88        149       0.63      0.517      0.591       0.45[32m [repeated 7x across cluster][0m
[36m(ClientAppActor pid=175737)[0m [Client 6] Device: cuda:0[32m [repeated 8x across cluster][0m
[36m(ClientAppActor pid=175739)[0m Speed: 0.4ms preprocess, 2.8ms inference, 0.0ms loss, 2.4ms postprocess per image[32m [repeated 7x across cluster][0m
…
[36m(ClientAppActor pid=175739)[0m Model summary: 129 layers, 3,011,043 parameters, 3,011,027 gradients, 8.2 GFLOPs
[36m(ClientAppActor pid=175739)[0m 
[36m(ClientAppActor pid=175739)[0m Transferred 355/355 items from pretrained weights
[36m(ClientAppActor pid=175739)[0m [34m[1mTensorBoard: [0mStart with 'tensorboard --logdir runs/detect/train832', view at http://localhost:6006/
[36m(ClientAppActor pid=175739)[0m Freezing layer 'model.22.dfl.conv.weight'
[36m(ClientAppActor pid=175739)[0m [34m[1mAMP: [0mrunning Automatic Mixed Precision (AMP) checks...
[36m(ClientAppActor pid=175740)[0m 
[36m(ClientAppActor pid=175740)[0m  12                  -1  1    148224  ultralytics.nn.modules.block.C2f             [384, 128, 1]                 
[36m(ClientAppActor pid=175740)[0m  15                  -1  1     37248  ultralytics.nn.modules.block.C2f             [192, 64, 1]                  
[36m(ClientAppActor pid=175740)[0m  18                  -1  1    123648  ultralytics.nn.modules.block.C2f             [192, 128, 1]                 
[36m(ClientAppActor pid=175740)[0m  21                  -1  1    493056  ultralytics.nn.modules.block.C2f             [384, 256, 1]                 
[36m(ClientAppActor pid=175735)[0m 
[36m(ClientAppActor pid=175735)[0m  12                  -1  1    148224  ultralytics.nn.modules.block.C2f             [384, 128, 1]                 
[36m(ClientAppActor pid=175735)[0m  15                  -1  1     37248  ultralytics.nn.modules.block.C2f             [192, 64, 1]                  
[36m(ClientAppActor pid=175735)[0m  18                  -1  1    123648  ultralytics.nn.modules.block.C2f             [192, 128, 1]                 
[36m(ClientAppActor pid=175735)[0m  21                  -1  1    493056  ultralytics.nn.modules.block.C2f             [384, 256, 1]                 
[36m(ClientAppActor pid=175742)[0m 
[36m(ClientAppActor pid=175742)[0m  12                  -1  1    148224  ultralytics.nn.modules.block.C2f             [384, 128, 1]                 
[36m(ClientAppActor pid=175742)[0m  15                  -1  1     37248  ultralytics.nn.modules.block.C2f             [192, 64, 1]                  
[36m(ClientAppActor pid=175742)[0m  18                  -1  1    123648  ultralytics.nn.modules.block.C2f             [192, 128, 1]                 
[36m(ClientAppActor pid=175742)[0m  21                  -1  1    493056  ultralytics.nn.modules.block.C2f             [384, 256, 1]                 
[36m(ClientAppActor pid=175736)[0m 
[36m(ClientAppActor pid=175736)[0m  12                  -1  1    148224  ultralytics.nn.modules.block.C2f             [384, 128, 1]                 
[36m(ClientAppActor pid=175736)[0m  15                  -1  1     37248  ultralytics.nn.modules.block.C2f             [192, 64, 1]                  
[36m(ClientAppActor pid=175736)[0m  18                  -1  1    123648  ultralytics.nn.modules.block.C2f             [192, 128, 1]                 
[36m(ClientAppActor pid=175736)[0m  21                  -1  1    493056  ultralytics.nn.modules.block.C2f             [384, 256, 1]                 
[36m(ClientAppActor pid=175740)[0m 
[36m(ClientAppActor pid=175733)[0m 
[36m(ClientAppActor pid=175735)[0m 
[36m(ClientAppActor pid=175732)[0m 
[36m(ClientAppActor pid=175732)[0m  12                  -1  1    148224  ultralytics.nn.modules.block.C2f             [384, 128, 1]                 
[36m(ClientAppActor pid=175732)[0m  15                  -1  1     37248  ultralytics.nn.modules.block.C2f             [192, 64, 1]                  
[36m(ClientAppActor pid=175732)[0m  18                  -1  1    123648  ultralytics.nn.modules.block.C2f             [192, 128, 1]                 
[36m(ClientAppActor pid=175732)[0m  21                  -1  1    493056  ultralytics.nn.modules.block.C2f             [384, 256, 1]                 
[36m(ClientAppActor pid=175742)[0m 
[36m(ClientAppActor pid=175736)[0m 
[36m(ClientAppActor pid=175733)[0m  12                  -1  1    148224  ultralytics.nn.modules.block.C2f             [384, 128, 1]                 
[36m(ClientAppActor pid=175733)[0m  15                  -1  1     37248  ultralytics.nn.modules.block.C2f             [192, 64, 1]                  
[36m(ClientAppActor pid=175733)[0m  18                  -1  1    123648  ultralytics.nn.modules.block.C2f             [192, 128, 1]                 
[36m(ClientAppActor pid=175733)[0m  21                  -1  1    493056  ultralytics.nn.modules.block.C2f             [384, 256, 1]                 
[36m(ClientAppActor pid=175737)[0m 
[36m(ClientAppActor pid=175737)[0m  12                  -1  1    148224  ultralytics.nn.modules.block.C2f             [384, 128, 1]                 
[36m(ClientAppActor pid=175737)[0m  15                  -1  1     37248  ultralytics.nn.modules.block.C2f             [192, 64, 1]                  
[36m(ClientAppActor pid=175737)[0m  18                  -1  1    123648  ultralytics.nn.modules.block.C2f             [192, 128, 1]                 
[36m(ClientAppActor pid=175737)[0m  21                  -1  1    493056  ultralytics.nn.modules.block.C2f             [384, 256, 1]                 
[36m(ClientAppActor pid=175732)[0m 
[36m(ClientAppActor pid=175733)[0m 
[36m(ClientAppActor pid=175737)[0m 
[36m(ClientAppActor pid=175739)[0m [34m[1mAMP: [0mchecks passed âœ…
[36m(ClientAppActor pid=175739)[0m Plotting labels to runs/detect/train832/labels.jpg... 
[36m(ClientAppActor pid=175733)[0m   0%|          | 0/23 [00:00<?, ?it/s]
[36m(ClientAp
…
5, shear=0.0, perspective=0.0, flipud=0.0, fliplr=0.5, bgr=0.0, mosaic=1.0, mixup=0.0, copy_paste=0.0, copy_paste_mode=flip, auto_augment=randaugment, erasing=0.4, crop_fraction=1.0, cfg=None, tracker=botsort.yaml, save_dir=runs/detect/train840
[36m(ClientAppActor pid=175736)[0m Overriding class names with single class.
[36m(ClientAppActor pid=175736)[0m 
[36m(ClientAppActor pid=175736)[0m                    from  n    params  module                                       arguments                     
[36m(ClientAppActor pid=175736)[0m   0                  -1  1       464  ultralytics.nn.modules.conv.Conv             [3, 16, 3, 2]                 
[36m(ClientAppActor pid=175736)[0m   1                  -1  1      4672  ultralytics.nn.modules.conv.Conv             [16, 32, 3, 2]                
[36m(ClientAppActor pid=175736)[0m   2                  -1  1      7360  ultralytics.nn.modules.block.C2f             [32, 32, 1, True]             
[36m(ClientAppActor pid=175736)[0m   3                  -1  1     18560  ultralytics.nn.modules.conv.Conv             [32, 64, 3, 2]                
[36m(ClientAppActor pid=175736)[0m   4                  -1  2     49664  ultralytics.nn.modules.block.C2f             [64, 64, 2, True]             
[36m(ClientAppActor pid=175736)[0m   5                  -1  1     73984  ultralytics.nn.modules.conv.Conv             [64, 128, 3, 2]               
[36m(ClientAppActor pid=175736)[0m   6                  -1  2    197632  ultralytics.nn.modules.block.C2f             [128, 128, 2, True]           
[36m(ClientAppActor pid=175736)[0m   7                  -1  1    295424  ultralytics.nn.modules.conv.Conv             [128, 256, 3, 2]              
[36m(ClientAppActor pid=175736)[0m   8                  -1  1    460288  ultralytics.nn.modules.block.C2f             [256, 256, 1, True]           
[36m(ClientAppActor pid=175736)[0m   9                  -1  1    164608  ultralytics.nn.modules.block.SPPF            [256, 256, 5]                 
[36m(ClientAppActor pid=175736)[0m  10                  -1  1         0  torch.nn.modules.upsampling.Upsample         [None, 2, 'nearest']          
[36m(ClientAppActor pid=175736)[0m  11             [-1, 6]  1         0  ultralytics.nn.modules.conv.Concat           [1]                           
[36m(ClientAppActor pid=175736)[0m  12                  -1  1    148224  ultralytics.nn.modules.block.C2f             [384, 128, 1]                 
[36m(ClientAppActor pid=175736)[0m  13                  -1  1         0  torch.nn.modules.upsampling.Upsample         [None, 2, 'nearest']          
[36m(ClientAppActor pid=175736)[0m  14             [-1, 4]  1         0  ultralytics.nn.modules.conv.Concat           [1]                           
[36m(ClientAppActor pid=175736)[0m  15                  -1  1     37248  ultralytics.nn.modules.block.C2f             [192, 64, 1]                  
[36m(ClientAppActor pid=175736)[0m  16                  -1  1     36992  ultralytics.nn.modules.conv.Conv             [64, 64, 3, 2]                
[36m(ClientAppActor pid=175736)[0m  17            [-1, 12]  1         0  ultralytics.nn.modules.conv.Concat           [1]                           
[36m(ClientAppActor pid=175736)[0m  18                  -1  1    123648  ultralytics.nn.modules.block.C2f             [192, 128, 1]                 
[36m(ClientAppActor pid=175736)[0m  19                  -1  1    147712  ultralytics.nn.modules.conv.Conv             [128, 128, 3, 2]              
[36m(ClientAppActor pid=175736)[0m  20             [-1, 9]  1         0  ultralytics.nn.modules.conv.Concat           [1]                           
[36m(ClientAppActor pid=175736)[0m  21                  -1  1    493056  ultralytics.nn.modules.block.C2f             [384, 256, 1]                 
[36m(ClientAppActor pid=175736)[0m  22        [15, 18, 21]  1    751507  ultralytics.nn.modules.head.Detect           [1, [64, 128, 256]]           
[36m(ClientAppActor pid=175737)[0m [Client 6] Device: cuda:0[32m [repeated 8x across cluster][0m
[36m(ClientAppActor pid=175736)[0m                    all         61        191      0.626      0.455      0.499      0.333[32m [repeated 6x across cluster][0m
[36m(ClientAppActor pid=175736)[0m Speed: 3.7ms preprocess, 3.1ms inference, 0.0ms loss, 2.7ms postprocess per image[32m [repeated 7x across cluster][0m
[36m(ClientAppActor pid=175736)[0m Results saved to [1mruns/detect/val810[0m[32m [repeated 7x across cluster][0m
[36m(ClientAppActor pid=175732)[0m 
[36m(ClientAppActor pid=175732)[0m  12                  -1  1    148224  ultralytics.nn.modules.block.C2f             [384, 128, 1]                 
[36m(ClientAppActor pid=175732)[0m  15                  -1  1     37248  ultralytics.nn.modules.block.C2f             [192, 64, 1]                  
[36m(ClientAppActor pid=175732)[0m  18                  -1  1    123648  ultralytics.nn.modules.block.C2f             [192, 128, 1]                 
[36m(ClientAppActor pid=175732)[0m  21                  -1  1    493056  ultralytics.nn.modules.block.C2f             [384, 256, 1]                 
[36m(ClientAppActor pid=175736)[0m Model summary: 129 layers, 3,011,043 parameters, 3,011,027 gradients, 8.2 GFLOPs
[36m(ClientAppActor pid=175736)[0m 
[36m(ClientAppActor pid=175736)[0m Transferred 355/355 items from pretrained weights
[36m(ClientAppActor pid=175736)[0m [34m[1mTensorBoard: [0mStart with 'tensorboard --logdir runs/detect/train840', view at http://localhost:6006/
…
