…
e=0.5, shear=0.0, perspective=0.0, flipud=0.0, fliplr=0.5, bgr=0.0, mosaic=1.0, mixup=0.0, copy_paste=0.0, copy_paste_mode=flip, auto_augment=randaugment, erasing=0.4, crop_fraction=1.0, cfg=None, tracker=botsort.yaml, save_dir=runs/detect/train173
[36m(ClientAppActor pid=19681)[0m Overriding class names with single class.
[36m(ClientAppActor pid=19681)[0m 
[36m(ClientAppActor pid=19681)[0m                    from  n    params  module                                       arguments                     
[36m(ClientAppActor pid=19681)[0m   0                  -1  1       464  ultralytics.nn.modules.conv.Conv             [3, 16, 3, 2]                 
[36m(ClientAppActor pid=19681)[0m   1                  -1  1      4672  ultralytics.nn.modules.conv.Conv             [16, 32, 3, 2]                
[36m(ClientAppActor pid=19681)[0m   2                  -1  1      7360  ultralytics.nn.modules.block.C2f             [32, 32, 1, True]             
[36m(ClientAppActor pid=19681)[0m   3                  -1  1     18560  ultralytics.nn.modules.conv.Conv             [32, 64, 3, 2]                
[36m(ClientAppActor pid=19681)[0m   4                  -1  2     49664  ultralytics.nn.modules.block.C2f             [64, 64, 2, True]             
[36m(ClientAppActor pid=19681)[0m   5                  -1  1     73984  ultralytics.nn.modules.conv.Conv             [64, 128, 3, 2]               
[36m(ClientAppActor pid=19681)[0m   6                  -1  2    197632  ultralytics.nn.modules.block.C2f             [128, 128, 2, True]           
[36m(ClientAppActor pid=19681)[0m [Client 0] Device: cuda:0
[36m(ClientAppActor pid=19679)[0m 
[36m(ClientAppActor pid=19679)[0m   9                  -1  1    164608  ultralytics.nn.modules.block.SPPF            [256, 256, 5]                 
[36m(ClientAppActor pid=19679)[0m  10                  -1  1         0  torch.nn.modules.upsampling.Upsample         [None, 2, 'nearest']          
[36m(ClientAppActor pid=19679)[0m  11             [-1, 6]  1         0  ultralytics.nn.modules.conv.Concat           [1]                           
[36m(ClientAppActor pid=19679)[0m  12                  -1  1    148224  ultralytics.nn.modules.block.C2f             [384, 128, 1]                 
[36m(ClientAppActor pid=19679)[0m  13                  -1  1         0  torch.nn.modules.upsampling.Upsample         [None, 2, 'nearest']          
[36m(ClientAppActor pid=19679)[0m  14             [-1, 4]  1         0  ultralytics.nn.modules.conv.Concat           [1]                           
[36m(ClientAppActor pid=19679)[0m  15                  -1  1     37248  ultralytics.nn.modules.block.C2f             [192, 64, 1]                  
[36m(ClientAppActor pid=19679)[0m  17            [-1, 12]  1         0  ultralytics.nn.modules.conv.Concat           [1]                           
[36m(ClientAppActor pid=19679)[0m  18                  -1  1    123648  ultralytics.nn.modules.block.C2f             [192, 128, 1]                 
[36m(ClientAppActor pid=19679)[0m  20             [-1, 9]  1         0  ultralytics.nn.modules.conv.Concat           [1]                           
[36m(ClientAppActor pid=19679)[0m  21                  -1  1    493056  ultralytics.nn.modules.block.C2f             [384, 256, 1]                 
[36m(ClientAppActor pid=19679)[0m  22        [15, 18, 21]  1    751507  ultralytics.nn.modules.head.Detect           [1, [64, 128, 256]]           
[36m(ClientAppActor pid=19681)[0m  12                  -1  1    148224  ultralytics.nn.modules.block.C2f             [384, 128, 1]                 
[36m(ClientAppActor pid=19681)[0m  15                  -1  1     37248  ultralytics.nn.modules.block.C2f             [192, 64, 1]                  
[36m(ClientAppActor pid=19681)[0m  18                  -1  1    123648  ultralytics.nn.modules.block.C2f             [192, 128, 1]                 
[36m(ClientAppActor pid=19681)[0m  21                  -1  1    493056  ultralytics.nn.modules.block.C2f             [384, 256, 1]                 
[36m(ClientAppActor pid=19679)[0m Model summary: 129 layers, 3,011,043 parameters, 3,011,027 gradients, 8.2 GFLOPs
[36m(ClientAppActor pid=19679)[0m 
[36m(ClientAppActor pid=19681)[0m 
[36m(ClientAppActor pid=19681)[0m Transferred 355/355 items from pretrained weights
[36m(ClientAppActor pid=19681)[0m [34m[1mTensorBoard: [0mStart with 'tensorboard --logdir runs/detect/train173', view at http://localhost:6006/
…
0.4, degrees=0.0, translate=0.1, scale=0.5, shear=0.0, perspective=0.0, flipud=0.0, fliplr=0.5, bgr=0.0, mosaic=1.0, mixup=0.0, copy_paste=0.0, copy_paste_mode=flip, auto_augment=randaugment, erasing=0.4, crop_fraction=1.0, cfg=None, tracker=botsort.yaml, save_dir=runs/detect/train172
[36m(ClientAppActor pid=19679)[0m Overriding class names with single class.
[36m(ClientAppActor pid=19679)[0m                    from  n    params  module                                       arguments                     
[36m(ClientAppActor pid=19681)[0m  19                  -1  1    147712  ultralytics.nn.modules.conv.Conv             [128, 128, 3, 2]              [32m [repeated 10x across cluster] (Ray deduplicates logs by default. Set RAY_DEDUP_LOGS=0 to disable log deduplication, or see https://docs.ray.io/en/master/ray-observability/user-guides/configure-logging.html#log-deduplication for more options.)[0m
[36m(ClientAppActor pid=19681)[0m   8                  -1  1    460288  ultralytics.nn.modules.block.C2f             [256, 256, 1, True]           [32m [repeated 5x across cluster][0m
[36m(ClientAppActor pid=19681)[0m   9                  -1  1    164608  ultralytics.nn.modules.block.SPPF            [256, 256, 5]                 
[36m(ClientAppActor pid=19681)[0m  13                  -1  1         0  torch.nn.modules.upsampling.Upsample         [None, 2, 'nearest']          [32m [repeated 2x across cluster][0m
[36m(ClientAppActor pid=19681)[0m  20             [-1, 9]  1         0  ultralytics.nn.modules.conv.Concat           [1]                           [32m [repeated 4x across cluster][0m
[36m(ClientAppActor pid=19681)[0m  22        [15, 18, 21]  1    751507  ultralytics.nn.modules.head.Detect           [1, [64, 128, 256]]           
[36m(ClientAppActor pid=19681)[0m Model summary: 129 layers, 3,011,043 parameters, 3,011,027 gradients, 8.2 GFLOPs
[36m(ClientAppActor pid=19679)[0m Transferred 355/355 items from pretrained weights
[36m(ClientAppActor pid=19679)[0m [34m[1mTensorBoard: [0mStart with 'tensorboard --logdir runs/detect/train172', view at http://localhost:6006/
[36m(ClientAppActor pid=19679)[0m Freezing layer 'model.22.dfl.conv.weight'
…
e=0.5, shear=0.0, perspective=0.0, flipud=0.0, fliplr=0.5, bgr=0.0, mosaic=1.0, mixup=0.0, copy_paste=0.0, copy_paste_mode=flip, auto_augment=randaugment, erasing=0.4, crop_fraction=1.0, cfg=None, tracker=botsort.yaml, save_dir=runs/detect/train175
[36m(ClientAppActor pid=19681)[0m Overriding class names with single class.
[36m(ClientAppActor pid=19681)[0m 
[36m(ClientAppActor pid=19681)[0m                    from  n    params  module                                       arguments                     
[36m(ClientAppActor pid=19681)[0m   0                  -1  1       464  ultralytics.nn.modules.conv.Conv             [3, 16, 3, 2]                 
[36m(ClientAppActor pid=19681)[0m   1                  -1  1      4672  ultralytics.nn.modules.conv.Conv             [16, 32, 3, 2]                
[36m(ClientAppActor pid=19681)[0m   2                  -1  1      7360  ultralytics.nn.modules.block.C2f             [32, 32, 1, True]             
[36m(ClientAppActor pid=19681)[0m   3                  -1  1     18560  ultralytics.nn.modules.conv.Conv             [32, 64, 3, 2]                
[36m(ClientAppActor pid=19681)[0m   4                  -1  2     49664  ultralytics.nn.modules.block.C2f             [64, 64, 2, True]             
[36m(ClientAppActor pid=19681)[0m   5                  -1  1     73984  ultralytics.nn.modules.conv.Conv             [64, 128, 3, 2]               
[36m(ClientAppActor pid=19681)[0m [34m[1mtrain: [0mScanning /WehbeDocker/YOLOV8N/datasets/client_0/train/labels.cache... 1547 images, 0 backgrounds, 0 corrupt: 100%|â–ˆâ–ˆâ–ˆâ–ˆâ–ˆâ–ˆâ–ˆâ–ˆâ–ˆâ–ˆ| 1547/1547 [00:00<?, ?it/s][34m[1mtrain: [0mScanning /WehbeDocker/YOLOV8N/datasets/client_0/train/labels.cache... 1547 images, 0 backgrounds, 0 corrupt: 100%|â–ˆâ–ˆâ–ˆâ–ˆâ–ˆâ–ˆâ–ˆâ–ˆâ–ˆâ–ˆ| 1547/1547 [00:00<?, ?it/s][32m [repeated 2x across cluster][0m
…
[36m(ClientAppActor pid=19681)[0m                  Class     Images  Instances      Box(P          R      mAP50  mAP50-95): 100%|â–ˆâ–ˆâ–ˆâ–ˆâ–ˆâ–ˆâ–ˆâ–ˆâ–ˆâ–ˆ| 25/25 [00:04<00:00,  9.16it/s]                 Class     Images  Instances      Box(P          R      mAP50  mAP50-95): 100%|â–ˆâ–ˆâ–ˆâ–ˆâ–ˆâ–ˆâ–ˆâ–ˆâ–ˆâ–ˆ| 25/25 [00:04<00:00,  6.16it/s]
[36m(ClientAppActor pid=19681)[0m /usr/local/lib/python3.10/dist-packages/ultralytics/utils/metrics.py:529: DeprecationWarning: `trapz` is deprecated. Use `trapezoid` instead, or one of the numerical integration functions in `scipy.integrate`.
[36m(ClientAppActor pid=19681)[0m   ap = np.trapz(np.interp(x, mrec, mpre), x)  # integrate
[36m(ClientAppActor pid=19681)[0m   6                  -1  2    197632  ultralytics.nn.modules.block.C2f             [128, 128, 2, True]           
[36m(ClientAppActor pid=19681)[0m   7                  -1  1    295424  ultralytics.nn.modules.conv.Conv             [128, 256, 3, 2]              
[36m(ClientAppActor pid=19681)[0m   8                  -1  1    460288  ultralytics.nn.modules.block.C2f             [256, 256, 1, True]           
[36m(ClientAppActor pid=19681)[0m   9                  -1  1    164608  ultralytics.nn.modules.block.SPPF            [256, 256, 5]                 
[36m(ClientAppActor pid=19681)[0m  10                  -1  1         0  torch.nn.modules.upsampling.Upsample         [None, 2, 'nearest']          
[36m(ClientAppActor pid=19681)[0m  11             [-1, 6]  1         0  ultralytics.nn.modules.conv.Concat           [1]                           
[36m(ClientAppActor pid=19681)[0m  12                  -1  1    148224  ultralytics.nn.modules.block.C2f             [384, 128, 1]                 
[36m(ClientAppActor pid=19681)[0m  13                  -1  1         0  torch.nn.modules.upsampling.Upsample         [None, 2, 'nearest']          
[36m(ClientAppActor pid=19681)[0m  14             [-1, 4]  1         0  ultralytics.nn.modules.conv.Concat           [1]                           
[36m(ClientAppActor pid=19681)[0m  15                  -1  1     37248  ultralytics.nn.modules.block.C2f             [192, 64, 1]                  
[36m(ClientAppActor pid=19681)[0m  16                  -1  1     36992  ultralytics.nn.modules.conv.Conv             [64, 64, 3, 2]                
[36m(ClientAppActor pid=19681)[0m  17            [-1, 12]  1         0  ultralytics.nn.modules.conv.Concat           [1]                           
[36m(ClientAppActor pid=19681)[0m  18                  -1  1    123648  ultralytics.nn.modules.block.C2f             [192, 128, 1]                 
[36m(ClientAppActor pid=19681)[0m  19                  -1  1    147712  ultralytics.nn.modules.conv.Conv             [128, 128, 3, 2]              
[36m(ClientAppActor pid=19681)[0m  20             [-1, 9]  1         0  ultralytics.nn.modules.conv.Concat           [1]                           
[36m(ClientAppActor pid=19681)[0m  21                  -1  1    493056  ultralytics.nn.modules.block.C2f             [384, 256, 1]                 
[36m(ClientAppActor pid=19681)[0m  22        [15, 18, 21]  1    751507  ultralytics.nn.modules.head.Detect           [1, [64, 128, 256]]           
[36m(ClientAppActor pid=19679)[0m [Client 1] Device: cuda:0
[36m(ClientAppActor pid=19679)[0m 
[36m(ClientAppActor pid=19679)[0m  12                  -1  1    148224  ultralytics.nn.modules.block.C2f             [384, 128, 1]                 
[36m(ClientAppActor pid=19679)[0m  15                  -1  1     37248  ultralytics.nn.modules.block.C2f             [192, 64, 1]                  
[36m(ClientAppActor pid=19679)[0m  18                  -1  1    123648  ultralytics.nn.modules.block.C2f             [192, 128, 1]                 
[36m(ClientAppActor pid=19679)[0m  21                  -1  1    493056  ultralytics.nn.modules.block.C2f             [384, 256, 1]                 
[36m(ClientAppActor pid=19681)[0m Model summary: 129 layers, 3,011,043 parameters, 3,011,027 gradients, 8.2 GFLOPs
[36m(ClientAppActor pid=19681)[0m 
[36m(ClientAppActor pid=19681)[0m Transferred 355/355 items from pretrained weights
[36m(ClientAppActor pid=19681)[0m [34m[1mTensorBoard: [0mStart with 'tensorboard --logdir runs/detect/train175', view at http://localhost:6006/
…
0.4, degrees=0.0, translate=0.1, scale=0.5, shear=0.0, perspective=0.0, flipud=0.0, fliplr=0.5, bgr=0.0, mosaic=1.0, mixup=0.0, copy_paste=0.0, copy_paste_mode=flip, auto_augment=randaugment, erasing=0.4, crop_fraction=1.0, cfg=None, tracker=botsort.yaml, save_dir=runs/detect/train174
[36m(ClientAppActor pid=19679)[0m Overriding class names with single class.
[36m(ClientAppActor pid=19679)[0m                    from  n    params  module                                       arguments                     
[36m(ClientAppActor pid=19679)[0m  19                  -1  1    147712  ultralytics.nn.modules.conv.Conv             [128, 128, 3, 2]              [32m [repeated 7x across cluster][0m
[36m(ClientAppActor pid=19679)[0m   8                  -1  1    460288  ultralytics.nn.modules.block.C2f             [256, 256, 1, True]           [32m [repeated 4x across cluster][0m
[36m(ClientAppActor pid=19679)[0m   9                  -1  1    164608  ultralytics.nn.modules.block.SPPF            [256, 256, 5]                 
[36m(ClientAppActor pid=19679)[0m  13                  -1  1         0  torch.nn.modules.upsampling.Upsample         [None, 2, 'nearest']          [32m [repeated 2x across cluster][0m
[36m(ClientAppActor pid=19679)[0m  20             [-1, 9]  1         0  ultralytics.nn.modules.conv.Concat           [1]                           [32m [repeated 4x across cluster][0m
[36m(ClientAppActor pid=19679)[0m  22        [15, 18, 21]  1    751507  ultralytics.nn.modules.head.Detect           [1, [64, 128, 256]]           
[36m(ClientAppActor pid=19679)[0m Model summary: 129 layers, 3,011,043 parameters, 3,011,027 gradients, 8.2 GFLOPs
[36m(ClientAppActor pid=19679)[0m Transferred 355/355 items from pretrained weights
[36m(ClientAppActor pid=19679)[0m [34m[1mTensorBoard: [0mStart with 'tensorboard --logdir runs/detect/train174', view at http://localhost:6006/
[36m(ClientAppActor pid=19679)[0m Freezing layer 'model.22.dfl.conv.weight'
…
e=0.5, shear=0.0, perspective=0.0, flipud=0.0, fliplr=0.5, bgr=0.0, mosaic=1.0, mixup=0.0, copy_paste=0.0, copy_paste_mode=flip, auto_augment=randaugment, erasing=0.4, crop_fraction=1.0, cfg=None, tracker=botsort.yaml, save_dir=runs/detect/train177
[36m(ClientAppActor pid=19681)[0m Overriding class names with single class.
[36m(ClientAppActor pid=19681)[0m 
[36m(ClientAppActor pid=19681)[0m                    from  n    params  module                                       arguments                     
[36m(ClientAppActor pid=19681)[0m   0                  -1  1       464  ultralytics.nn.modules.conv.Conv             [3, 16, 3, 2]                 
[36m(ClientAppActor pid=19681)[0m   1                  -1  1      4672  ultralytics.nn.modules.conv.Conv             [16, 32, 3, 2]                
[36m(ClientAppActor pid=19681)[0m   2                  -1  1      7360  ultralytics.nn.modules.block.C2f             [32, 32, 1, True]             
[36m(ClientAppActor pid=19681)[0m   3                  -1  1     18560  ultralytics.nn.modules.conv.Conv             [32, 64, 3, 2]                
[36m(ClientAppActor pid=19681)[0m   4                  -1  2     49664  ultralytics.nn.modules.block.C2f             [64, 64, 2, True]             
[36m(ClientAppActor pid=19681)[0m   5                  -1  1     73984  ultralytics.nn.modules.conv.Conv             [64, 128, 3, 2]               
[36m(ClientAppActor pid=19681)[0m   6                  -1  2    197632  ultralytics.nn.modules.block.C2f             [128, 128, 2, True]           
[36m(ClientAppActor pid=19681)[0m   7                  -1  1    295424  ultralytics.nn.modules.conv.Conv             [128, 256, 3, 2]              
[36m(ClientAppActor pid=19679)[0m [Client 1] Device: cuda:0
[36m(ClientAppActor pid=19679)[0m 
[36m(ClientAppActor pid=19679)[0m   9                  -1  1    164608  ultralytics.nn.modules.block.SPPF            [256, 256, 5]                 
[36m(ClientAppActor pid=19679)[0m  10                  -1  1         0  torch.nn.modules.upsampling.Upsample         [None, 2, 'nearest']          
[36m(ClientAppActor pid=19679)[0m  11             [-1, 6]  1         0  ultralytics.nn.modules.conv.Concat           [1]                           
[36m(ClientAppActor pid=19679)[0m  12                  -1  1    148224  ultralytics.nn.modules.block.C2f             [384, 128, 1]                 
[36m(ClientAppActor pid=19679)[0m  13                  -1  1         0  torch.nn.modules.upsampling.Upsample         [None, 2, 'nearest']          
[36m(ClientAppActor pid=19679)[0m  14             [-1, 4]  1         0  ultralytics.nn.modules.conv.Concat           [1]                           
[36m(ClientAppActor pid=19679)[0m  15                  -1  1     37248  ultralytics.nn.modules.block.C2f             [192, 64, 1]                  
[36m(ClientAppActor pid=19679)[0m  17            [-1, 12]  1         0  ultralytics.nn.modules.conv.Concat           [1]                           
[36m(ClientAppActor pid=19679)[0m  18                  -1  1    123648  ultralytics.nn.modules.block.C2f             [192, 128, 1]                 
[36m(ClientAppActor pid=19679)[0m  20             [-1, 9]  1         0  ultralytics.nn.modules.conv.Concat           [1]                           
[36m(ClientAppActor pid=19679)[0m  21                  -1  1    493056  ultralytics.nn.modules.block.C2f             [384, 256, 1]                 
[36m(ClientAppActor pid=19681)[0m  12                  -1  1    148224  ultralytics.nn.modules.block.C2f             [384, 128, 1]                 
[36m(ClientAppActor pid=19681)[0m  15                  -1  1     37248  ultralytics.nn.modules.block.C2f             [192, 64, 1]                  
[36m(ClientAppActor pid=19681)[0m  18                  -1  1    123648  ultralytics.nn.modules.block.C2f             [192, 128, 1]                 
[36m(ClientAppActor pid=19681)[0m  21                  -1  1    493056  ultralytics.nn.modules.block.C2f             [384, 256, 1]                 
[36m(ClientAppActor pid=19681)[0m  22        [15, 18, 21]  1    751507  ultralytics.nn.modules.head.Detect           [1, [64, 128, 256]]           
[36m(ClientAppActor pid=19679)[0m Model summary: 129 layers, 3,011,043 parameters, 3,011,027 gradients, 8.2 GFLOPs
[36m(ClientAppActor pid=19679)[0m 
[36m(ClientAppActor pid=19681)[0m 
[36m(ClientAppActor pid=19681)[0m Transferred 355/355 items from pretrained weights
[36m(ClientAppActor pid=19681)[0m [34m[1mTensorBoard: [0mStart with 'tensorboard --logdir runs/detect/train177', view at http://localhost:6006/
…
0.4, degrees=0.0, translate=0.1, scale=0.5, shear=0.0, perspective=0.0, flipud=0.0, fliplr=0.5, bgr=0.0, mosaic=1.0, mixup=0.0, copy_paste=0.0, copy_paste_mode=flip, auto_augment=randaugment, erasing=0.4, crop_fraction=1.0, cfg=None, tracker=botsort.yaml, save_dir=runs/detect/train176
[36m(ClientAppActor pid=19679)[0m Overriding class names with single class.
[36m(ClientAppActor pid=19679)[0m                    from  n    params  module                                       arguments                     
[36m(ClientAppActor pid=19681)[0m  19                  -1  1    147712  ultralytics.nn.modules.conv.Conv             [128, 128, 3, 2]              [32m [repeated 9x across cluster][0m
[36m(ClientAppActor pid=19681)[0m   8                  -1  1    460288  ultralytics.nn.modules.block.C2f             [256, 256, 1, True]           [32m [repeated 5x across cluster][0m
[36m(ClientAppActor pid=19681)[0m   9                  -1  1    164608  ultralytics.nn.modules.block.SPPF            [256, 256, 5]                 
[36m(ClientAppActor pid=19681)[0m  13                  -1  1         0  torch.nn.modules.upsampling.Upsample         [None, 2, 'nearest']          [32m [repeated 2x across cluster][0m
[36m(ClientAppActor pid=19681)[0m  20             [-1, 9]  1         0  ultralytics.nn.modules.conv.Concat           [1]                           [32m [repeated 4x across cluster][0m
[36m(ClientAppActor pid=19679)[0m  22        [15, 18, 21]  1    751507  ultralytics.nn.modules.head.Detect           [1, [64, 128, 256]]           
[36m(ClientAppActor pid=19681)[0m Model summary: 129 layers, 3,011,043 parameters, 3,011,027 gradients, 8.2 GFLOPs
[36m(ClientAppActor pid=19679)[0m Transferred 355/355 items from pretrained weights
[36m(ClientAppActor pid=19679)[0m [34m[1mTensorBoard: [0mStart with 'tensorboard --logdir runs/detect/train176', view at http://localhost:6006/
[36m(ClientAppActor pid=19679)[0m Freezing layer 'model.22.dfl.conv.weight'
…
[36m(ClientAppActor pid=19681)[0m                  Class     Images  Instances      Box(P          R      mAP50  mAP50-95):  88%|â–ˆâ–ˆâ–ˆâ–ˆâ–ˆâ–ˆâ–ˆâ–ˆâ–Š | 22/25 [00:03<00:00,  6.83it/s][32m [repeated 18x across cluster][0m
[36m(ClientAppActor pid=19681)[0m /usr/local/lib/python3.10/dist-packages/ultralytics/utils/metrics.py:529: DeprecationWarning: `trapz` is deprecated. Use `trapezoid` instead, or one of the numerical integration functions in `scipy.integrate`.
[36m(ClientAppActor pid=19681)[0m   ap = np.trapz(np.interp(x, mrec, mpre), x)  # integrate
[36m(ClientAppActor pid=19681)[0m   4                  -1  2     49664  ultralytics.nn.modules.block.C2f             [64, 64, 2, True]             
[36m(ClientAppActor pid=19681)[0m   5                  -1  1     73984  ultralytics.nn.modules.conv.Conv             [64, 128, 3, 2]               
[36m(ClientAppActor pid=19681)[0m   6                  -1  2    197632  ultralytics.nn.modules.block.C2f             [128, 128, 2, True]           
[36m(ClientAppActor pid=19681)[0m   7                  -1  1    295424  ultralytics.nn.modules.conv.Conv             [128, 256, 3, 2]              
[36m(ClientAppActor pid=19681)[0m   8                  -1  1    460288  ultralytics.nn.modules.block.C2f             [256, 256, 1, True]           
[36m(ClientAppActor pid=19681)[0m   9                  -1  1    164608  ultralytics.nn.modules.block.SPPF            [256, 256, 5]                 
[36m(ClientAppActor pid=19681)[0m  10                  -1  1         0  torch.nn.modules.upsampling.Upsample         [None, 2, 'nearest']          
[36m(ClientAppActor pid=19681)[0m  11             [-1, 6]  1         0  ultralytics.nn.modules.conv.Concat           [1]                           
[36m(ClientAppActor pid=19681)[0m  12                  -1  1    148224  ultralytics.nn.modules.block.C2f             [384, 128, 1]                 
[36m(ClientAppActor pid=19681)[0m  13                  -1  1         0  torch.nn.modules.upsampling.Upsample         [None, 2, 'nearest']          
[36m(ClientAppActor pid=19681)[0m  14             [-1, 4]  1         0  ultralytics.nn.modules.conv.Concat           [1]                           
[36m(ClientAppActor pid=19681)[0m  15                  -1  1     37248  ultralytics.nn.modules.block.C2f             [192, 64, 1]                  
[36m(ClientAppActor pid=19681)[0m  16                  -1  1     36992  ultralytics.nn.modules.conv.Conv             [64, 64, 3, 2]                
[36m(ClientAppActor pid=19681)[0m  17            [-1, 12]  1         0  ultralytics.nn.modules.conv.Concat           [1]                           
[36m(ClientAppActor pid=19679)[0m [Client 1] Device: cuda:0
[36m(ClientAppActor pid=19681)[0m  18                  -1  1    123648  ultralytics.nn.modules.block.C2f             [192, 128, 1]                 
[36m(ClientAppActor pid=19681)[0m  19                  -1  1    147712  ultralytics.nn.modules.conv.Conv             [128, 128, 3, 2]              
[36m(ClientAppActor pid=19681)[0m  20             [-1, 9]  1         0  ultralytics.nn.modules.conv.Concat           [1]                           
[36m(ClientAppActor pid=19681)[0m  21                  -1  1    493056  ultralytics.nn.modules.block.C2f             [384, 256, 1]                 
[36m(ClientAppActor pid=19681)[0m  22        [15, 18, 21]  1    751507  ultralytics.nn.modules.head.Detect           [1, [64, 128, 256]]           
[36m(ClientAppActor pid=19679)[0m 
[36m(ClientAppActor pid=19679)[0m  12                  -1  1    148224  ultralytics.nn.modules.block.C2f             [384, 128, 1]                 
[36m(ClientAppActor pid=19679)[0m  15                  -1  1     37248  ultralytics.nn.modules.block.C2f             [192, 64, 1]                  
[36m(ClientAppActor pid=19679)[0m  18                  -1  1    123648  ultralytics.nn.modules.block.C2f             [192, 128, 1]                 
[36m(ClientAppActor pid=19679)[0m  21                  -1  1    493056  ultralytics.nn.modules.block.C2f             [384, 256, 1]                 
[36m(ClientAppActor pid=19681)[0m Model summary: 129 layers, 3,011,043 parameters, 3,011,027 gradients, 8.2 GFLOPs
[36m(ClientAppActor pid=19681)[0m 
[36m(ClientAppActor pid=19681)[0m Transferred 355/355 items from pretrained weights
[36m(ClientAppActor pid=19681)[0m [34m[1mTensorBoard: [0mStart with 'tensorboard --logdir runs/detect/train178', view at http://localhost:6006/
…
e=0.5, shear=0.0, perspective=0.0, flipud=0.0, fliplr=0.5, bgr=0.0, mosaic=1.0, mixup=0.0, copy_paste=0.0, copy_paste_mode=flip, auto_augment=randaugment, erasing=0.4, crop_fraction=1.0, cfg=None, tracker=botsort.yaml, save_dir=runs/detect/train181
[36m(ClientAppActor pid=19681)[0m Overriding class names with single class.
[36m(ClientAppActor pid=19681)[0m 
[36m(ClientAppActor pid=19681)[0m                    from  n    params  module                                       arguments                     
[36m(ClientAppActor pid=19681)[0m   0                  -1  1       464  ultralytics.nn.modules.conv.Conv             [3, 16, 3, 2]                 
[36m(ClientAppActor pid=19681)[0m   1                  -1  1      4672  ultralytics.nn.modules.conv.Conv             [16, 32, 3, 2]                
[36m(ClientAppActor pid=19681)[0m   2                  -1  1      7360  ultralytics.nn.modules.block.C2f             [32, 32, 1, True]             
[36m(ClientAppActor pid=19681)[0m   3                  -1  1     18560  ultralytics.nn.modules.conv.Conv             [32, 64, 3, 2]                
[36m(ClientAppActor pid=19681)[0m   4                  -1  2     49664  ultralytics.nn.modules.block.C2f             [64, 64, 2, True]             
[36m(ClientAppActor pid=19681)[0m   5                  -1  1     73984  ultralytics.nn.modules.conv.Conv             [64, 128, 3, 2]               
[36m(ClientAppActor pid=19681)[0m   6                  -1  2    197632  ultralytics.nn.modules.block.C2f             [128, 128, 2, True]           
[36m(ClientAppActor pid=19681)[0m   7                  -1  1    295424  ultralytics.nn.modules.conv.Conv             [128, 256, 3, 2]              
[36m(ClientAppActor pid=19681)[0m Speed: 0.2ms preprocess, 1.1ms inference, 0.0ms loss, 0.9ms postprocess per image
[36m(ClientAppActor pid=19681)[0m Results saved to [1mruns/detect/val148[0m
[36m(ClientAppActor pid=19679)[0m [Client 1] Device: cuda:0
[36m(ClientAppActor pid=19679)[0m 
[36m(ClientAppActor pid=19679)[0m   9                  -1  1    164608  ultralytics.nn.modules.block.SPPF            [256, 256, 5]                 
[36m(ClientAppActor pid=19679)[0m  10                  -1  1         0  torch.nn.modules.upsampling.Upsample         [None, 2, 'nearest']          
[36m(ClientAppActor pid=19679)[0m  11             [-1, 6]  1         0  ultralytics.nn.modules.conv.Concat           [1]                           
[36m(ClientAppActor pid=19679)[0m  12                  -1  1    148224  ultralytics.nn.modules.block.C2f             [384, 128, 1]                 
[36m(ClientAppActor pid=19679)[0m  13                  -1  1         0  torch.nn.modules.upsampling.Upsample         [None, 2, 'nearest']          
[36m(ClientAppActor pid=19679)[0m  14             [-1, 4]  1         0  ultralytics.nn.modules.conv.Concat           [1]                           
[36m(ClientAppActor pid=19679)[0m  15                  -1  1     37248  ultralytics.nn.modules.block.C2f             [192, 64, 1]                  
[36m(ClientAppActor pid=19679)[0m  17            [-1, 12]  1         0  ultralytics.nn.modules.conv.Concat           [1]                           
[36m(ClientAppActor pid=19679)[0m  18                  -1  1    123648  ultralytics.nn.modules.block.C2f             [192, 128, 1]                 
[36m(ClientAppActor pid=19681)[0m  12                  -1  1    148224  ultralytics.nn.modules.block.C2f             [384, 128, 1]                 
[36m(ClientAppActor pid=19681)[0m  15                  -1  1     37248  ultralytics.nn.modules.block.C2f             [192, 64, 1]                  
[36m(ClientAppActor pid=19681)[0m  18                  -1  1    123648  ultralytics.nn.modules.block.C2f             [192, 128, 1]                 
[36m(ClientAppActor pid=19681)[0m  21                  -1  1    493056  ultralytics.nn.modules.block.C2f             [384, 256, 1]                 
[36m(ClientAppActor pid=19681)[0m  22        [15, 18, 21]  1    751507  ultralytics.nn.modules.head.Detect           [1, [64, 128, 256]]           
[36m(ClientAppActor pid=19679)[0m  21                  -1  1    493056  ultralytics.nn.modules.block.C2f             [384, 256, 1]                 
[36m(ClientAppActor pid=19681)[0m Model summary: 129 layers, 3,011,043 parameters, 3,011,027 gradients, 8.2 GFLOPs
[36m(ClientAppActor pid=19681)[0m 
[36m(ClientAppActor pid=19681)[0m Transferred 355/355 items from pretrained weights
[36m(ClientAppActor pid=19681)[0m [34m[1mTensorBoard: [0mStart with 'tensorboard --logdir runs/detect/train181', view at http://localhost:6006/
…
0.4, degrees=0.0, translate=0.1, scale=0.5, shear=0.0, perspective=0.0, flipud=0.0, fliplr=0.5, bgr=0.0, mosaic=1.0, mixup=0.0, copy_paste=0.0, copy_paste_mode=flip, auto_augment=randaugment, erasing=0.4, crop_fraction=1.0, cfg=None, tracker=botsort.yaml, save_dir=runs/detect/train180
[36m(ClientAppActor pid=19679)[0m Overriding class names with single class.
[36m(ClientAppActor pid=19679)[0m                    from  n    params  module                                       arguments                     
[36m(ClientAppActor pid=19681)[0m  19                  -1  1    147712  ultralytics.nn.modules.conv.Conv             [128, 128, 3, 2]              [32m [repeated 9x across cluster][0m
[36m(ClientAppActor pid=19681)[0m   8                  -1  1    460288  ultralytics.nn.modules.block.C2f             [256, 256, 1, True]           [32m [repeated 5x across cluster][0m
[36m(ClientAppActor pid=19681)[0m   9                  -1  1    164608  ultralytics.nn.modules.block.SPPF            [256, 256, 5]                 
[36m(ClientAppActor pid=19681)[0m  13                  -1  1         0  torch.nn.modules.upsampling.Upsample         [None, 2, 'nearest']          [32m [repeated 2x across cluster][0m
[36m(ClientAppActor pid=19681)[0m  20             [-1, 9]  1         0  ultralytics.nn.modules.conv.Concat           [1]                           [32m [repeated 5x across cluster][0m
[36m(ClientAppActor pid=19679)[0m  22        [15, 18, 21]  1    751507  ultralytics.nn.modules.head.Detect           [1, [64, 128, 256]]           
[36m(ClientAppActor pid=19679)[0m Model summary: 129 layers, 3,011,043 parameters, 3,011,027 gradients, 8.2 GFLOPs
[36m(ClientAppActor pid=19679)[0m Transferred 355/355 items from pretrained weights
[36m(ClientAppActor pid=19679)[0m [34m[1mTensorBoard: [0mStart with 'tensorboard --logdir runs/detect/train180', view at http://localhost:6006/
[36m(ClientAppActor pid=19679)[0m Freezing layer 'model.22.dfl.conv.weight'
…
[36m(ClientAppActor pid=19681)[0m                  Class     Images  Instances      Box(P          R      mAP50  mAP50-95):  88%|â–ˆâ–ˆâ–ˆâ–ˆâ–ˆâ–ˆâ–ˆâ–ˆâ–Š | 22/25 [00:03<00:00,  6.65it/s][32m [repeated 17x across cluster][0m
[36m(ClientAppActor pid=19681)[0m /usr/local/lib/python3.10/dist-packages/ultralytics/utils/metrics.py:529: DeprecationWarning: `trapz` is deprecated. Use `trapezoid` instead, or one of the numerical integration functions in `scipy.integrate`.
[36m(ClientAppActor pid=19681)[0m   ap = np.trapz(np.interp(x, mrec, mpre), x)  # integrate
[36m(ClientAppActor pid=19681)[0m   3                  -1  1     18560  ultralytics.nn.modules.conv.Conv             [32, 64, 3, 2]                
[36m(ClientAppActor pid=19681)[0m   4                  -1  2     49664  ultralytics.nn.modules.block.C2f             [64, 64, 2, True]             
[36m(ClientAppActor pid=19681)[0m   5                  -1  1     73984  ultralytics.nn.modules.conv.Conv             [64, 128, 3, 2]               
[36m(ClientAppActor pid=19681)[0m   6                  -1  2    197632  ultralytics.nn.modules.block.C2f             [128, 128, 2, True]           
[36m(ClientAppActor pid=19681)[0m   7                  -1  1    295424  ultralytics.nn.modules.conv.Conv             [128, 256, 3, 2]              
[36m(ClientAppActor pid=19681)[0m   8                  -1  1    460288  ultralytics.nn.modules.block.C2f             [256, 256, 1, True]           
[36m(ClientAppActor pid=19681)[0m   9                  -1  1    164608  ultralytics.nn.modules.block.SPPF            [256, 256, 5]                 
[36m(ClientAppActor pid=19681)[0m  10                  -1  1         0  torch.nn.modules.upsampling.Upsample         [None, 2, 'nearest']          
[36m(ClientAppActor pid=19681)[0m  11             [-1, 6]  1         0  ultralytics.nn.modules.conv.Concat           [1]                           
[36m(ClientAppActor pid=19681)[0m  12                  -1  1    148224  ultralytics.nn.modules.block.C2f             [384, 128, 1]                 
[36m(ClientAppActor pid=19681)[0m  13                  -1  1         0  torch.nn.modules.upsampling.Upsample         [None, 2, 'nearest']          
[36m(ClientAppActor pid=19681)[0m  14             [-1, 4]  1         0  ultralytics.nn.modules.conv.Concat           [1]                           
[36m(ClientAppActor pid=19681)[0m  15                  -1  1     37248  ultralytics.nn.modules.block.C2f             [192, 64, 1]                  
[36m(ClientAppActor pid=19681)[0m  16                  -1  1     36992  ultralytics.nn.modules.conv.Conv             [64, 64, 3, 2]                
[36m(ClientAppActor pid=19681)[0m  17            [-1, 12]  1         0  ultralytics.nn.modules.conv.Concat           [1]                           
[36m(ClientAppActor pid=19681)[0m  18                  -1  1    123648  ultralytics.nn.modules.block.C2f             [192, 128, 1]                 
[36m(ClientAppActor pid=19681)[0m  19                  -1  1    147712  ultralytics.nn.modules.conv.Conv             [128, 128, 3, 2]              
[36m(ClientAppActor pid=19681)[0m  20             [-1, 9]  1         0  ultralytics.nn.modules.conv.Concat           [1]                           
[36m(ClientAppActor pid=19681)[0m  21                  -1  1    493056  ultralytics.nn.modules.block.C2f             [384, 256, 1]                 
[36m(ClientAppActor pid=19681)[0m  22        [15, 18, 21]  1    751507  ultralytics.nn.modules.head.Detect           [1, [64, 128, 256]]           
[36m(ClientAppActor pid=19679)[0m 
[36m(ClientAppActor pid=19679)[0m  12                  -1  1    148224  ultralytics.nn.modules.block.C2f             [384, 128, 1]                 
[36m(ClientAppActor pid=19679)[0m  15                  -1  1     37248  ultralytics.nn.modules.block.C2f             [192, 64, 1]                  
[36m(ClientAppActor pid=19679)[0m  18                  -1  1    123648  ultralytics.nn.modules.block.C2f             [192, 128, 1]                 
[36m(ClientAppActor pid=19679)[0m  21                  -1  1    493056  ultralytics.nn.modules.block.C2f             [384, 256, 1]                 
[36m(ClientAppActor pid=19681)[0m Model summary: 129 layers, 3,011,043 parameters, 3,011,027 gradients, 8.2 GFLOPs
[36m(ClientAppActor pid=19681)[0m 
[36m(ClientAppActor pid=19681)[0m Transferred 355/355 items from pretrained weights
[36m(ClientAppActor pid=19681)[0m [34m[1mTensorBoard: [0mStart with 'tensorboard --logdir runs/detect/train183', view at http://localhost:6006/
…
e=0.5, shear=0.0, perspective=0.0, flipud=0.0, fliplr=0.5, bgr=0.0, mosaic=1.0, mixup=0.0, copy_paste=0.0, copy_paste_mode=flip, auto_augment=randaugment, erasing=0.4, crop_fraction=1.0, cfg=None, tracker=botsort.yaml, save_dir=runs/detect/train185
[36m(ClientAppActor pid=19681)[0m Overriding class names with single class.
[36m(ClientAppActor pid=19681)[0m 
[36m(ClientAppActor pid=19681)[0m                    from  n    params  module                                       arguments                     
[36m(ClientAppActor pid=19681)[0m   0                  -1  1       464  ultralytics.nn.modules.conv.Conv             [3, 16, 3, 2]                 
[36m(ClientAppActor pid=19681)[0m   1                  -1  1      4672  ultralytics.nn.modules.conv.Conv             [16, 32, 3, 2]                
[36m(ClientAppActor pid=19681)[0m   2                  -1  1      7360  ultralytics.nn.modules.block.C2f             [32, 32, 1, True]             
[36m(ClientAppActor pid=19681)[0m   3                  -1  1     18560  ultralytics.nn.modules.conv.Conv             [32, 64, 3, 2]                
[36m(ClientAppActor pid=19681)[0m   4                  -1  2     49664  ultralytics.nn.modules.block.C2f             [64, 64, 2, True]             
[36m(ClientAppActor pid=19681)[0m   5                  -1  1     73984  ultralytics.nn.modules.conv.Conv             [64, 128, 3, 2]               
[36m(ClientAppActor pid=19681)[0m   6                  -1  2    197632  ultralytics.nn.modules.block.C2f             [128, 128, 2, True]           
[36m(ClientAppActor pid=19681)[0m   7                  -1  1    295424  ultralytics.nn.modules.conv.Conv             [128, 256, 3, 2]              
[36m(ClientAppActor pid=19681)[0m   8                  -1  1    460288  ultralytics.nn.modules.block.C2f             [256, 256, 1, True]           
[36m(ClientAppActor pid=19681)[0m   9                  -1  1    164608  ultralytics.nn.modules.block.SPPF            [256, 256, 5]                 
[36m(ClientAppActor pid=19681)[0m  10                  -1  1         0  torch.nn.modules.upsampling.Upsample         [None, 2, 'nearest']          
[36m(ClientAppActor pid=19681)[0m  11             [-1, 6]  1         0  ultralytics.nn.modules.conv.Concat           [1]                           
[36m(ClientAppActor pid=19681)[0m  12                  -1  1    148224  ultralytics.nn.modules.block.C2f             [384, 128, 1]                 
[36m(ClientAppActor pid=19681)[0m  13                  -1  1         0  torch.nn.modules.upsampling.Upsample         [None, 2, 'nearest']          
[36m(ClientAppActor pid=19681)[0m  14             [-1, 4]  1         0  ultralytics.nn.modules.conv.Concat           [1]                           
[36m(ClientAppActor pid=19681)[0m  15                  -1  1     37248  ultralytics.nn.modules.block.C2f             [192, 64, 1]                  
[36m(ClientAppActor pid=19681)[0m  16                  -1  1     36992  ultralytics.nn.modules.conv.Conv             [64, 64, 3, 2]                
[36m(ClientAppActor pid=19681)[0m  17            [-1, 12]  1         0  ultralytics.nn.modules.conv.Concat           [1]                           
[36m(ClientAppActor pid=19681)[0m  18                  -1  1    123648  ultralytics.nn.modules.block.C2f             [192, 128, 1]                 
[36m(ClientAppActor pid=19681)[0m  19                  -1  1    147712  ultralytics.nn.modules.conv.Conv             [128, 128, 3, 2]              
[36m(ClientAppActor pid=19681)[0m  20             [-1, 9]  1         0  ultralytics.nn.modules.conv.Concat           [1]                           
[36m(ClientAppActor pid=19681)[0m  21                  -1  1    493056  ultralytics.nn.modules.block.C2f             [384, 256, 1]                 
[36m(ClientAppActor pid=19681)[0m  22        [15, 18, 21]  1    751507  ultralytics.nn.modules.head.Detect           [1, [64, 128, 256]]           
[36m(ClientAppActor pid=19681)[0m Speed: 0.2ms preprocess, 1.1ms inference, 0.0ms loss, 0.7ms postprocess per image
[36m(ClientAppActor pid=19681)[0m Results saved to [1mruns/detect/val152[0m
[36m(ClientAppActor pid=19679)[0m [Client 0] Device: cuda:0
[36m(ClientAppActor pid=19679)[0m 
[36m(ClientAppActor pid=19679)[0m  12                  -1  1    148224  ultralytics.nn.modules.block.C2f             [384, 128, 1]                 
[36m(ClientAppActor pid=19679)[0m  15                  -1  1     37248  ultralytics.nn.modules.block.C2f             [192, 64, 1]                  
[36m(ClientAppActor pid=19679)[0m  18                  -1  1    123648  ultralytics.nn.modules.block.C2f             [192, 128, 1]                 
[36m(ClientAppActor pid=19679)[0m  21                  -1  1    493056  ultralytics.nn.modules.block.C2f             [384, 256, 1]                 
[36m(ClientAppActor pid=19681)[0m [34m[1mtrain: [0mScanning /WehbeDocker/YOLOV8N/datasets/client_1/train/labels.cache... 1050 images, 0 backgrounds, 0 corrupt: 100%|â–ˆâ–ˆâ–ˆâ–ˆâ–ˆâ–ˆâ–ˆâ–ˆâ–ˆâ–ˆ| 1050/1050 [00:00<?, ?it/s][34m[1mtrain: [0mScanning /WehbeDocker/YOLOV8N/datasets/client_1/train/labels.cache... 1050 images, 0 backgrounds, 0 corrupt: 100%|â–ˆâ–ˆâ–ˆâ–ˆâ–ˆâ–ˆâ–ˆâ–ˆâ–ˆâ–ˆ| 1050/1050 [00:00<?, ?it/s][32m [repeated 2x across cluster][0m
…
e=0.5, shear=0.0, perspective=0.0, flipud=0.0, fliplr=0.5, bgr=0.0, mosaic=1.0, mixup=0.0, copy_paste=0.0, copy_paste_mode=flip, auto_augment=randaugment, erasing=0.4, crop_fraction=1.0, cfg=None, tracker=botsort.yaml, save_dir=runs/detect/train188
[36m(ClientAppActor pid=19679)[0m Overriding class names with single class.
[36m(ClientAppActor pid=19679)[0m 
[36m(ClientAppActor pid=19679)[0m                    from  n    params  module                                       arguments                     
[36m(ClientAppActor pid=19679)[0m   0                  -1  1       464  ultralytics.nn.modules.conv.Conv             [3, 16, 3, 2]                 
[36m(ClientAppActor pid=19679)[0m   1                  -1  1      4672  ultralytics.nn.modules.conv.Conv             [16, 32, 3, 2]                
[36m(ClientAppActor pid=19679)[0m   2                  -1  1      7360  ultralytics.nn.modules.block.C2f             [32, 32, 1, True]             
[36m(ClientAppActor pid=19679)[0m   3                  -1  1     18560  ultralytics.nn.modules.conv.Conv             [32, 64, 3, 2]                
[36m(ClientAppActor pid=19679)[0m   4                  -1  2     49664  ultralytics.nn.modules.block.C2f             [64, 64, 2, True]             
[36m(ClientAppActor pid=19679)[0m   5                  -1  1     73984  ultralytics.nn.modules.conv.Conv             [64, 128, 3, 2]               
[36m(ClientAppActor pid=19679)[0m   6                  -1  2    197632  ultralytics.nn.modules.block.C2f             [128, 128, 2, True]           
[36m(ClientAppActor pid=19679)[0m   7                  -1  1    295424  ultralytics.nn.modules.conv.Conv             [128, 256, 3, 2]              
[36m(ClientAppActor pid=19679)[0m   8                  -1  1    460288  ultralytics.nn.modules.block.C2f             [256, 256, 1, True]           
[36m(ClientAppActor pid=19679)[0m   9                  -1  1    164608  ultralytics.nn.modules.block.SPPF            [256, 256, 5]                 
[36m(ClientAppActor pid=19679)[0m  10                  -1  1         0  torch.nn.modules.upsampling.Upsample         [None, 2, 'nearest']          
[36m(ClientAppActor pid=19679)[0m  11             [-1, 6]  1         0  ultralytics.nn.modules.conv.Concat           [1]                           
[36m(ClientAppActor pid=19679)[0m  12                  -1  1    148224  ultralytics.nn.modules.block.C2f             [384, 128, 1]                 
[36m(ClientAppActor pid=19679)[0m  13                  -1  1         0  torch.nn.modules.upsampling.Upsample         [None, 2, 'nearest']          
[36m(ClientAppActor pid=19679)[0m  14             [-1, 4]  1         0  ultralytics.nn.modules.conv.Concat           [1]                           
[36m(ClientAppActor pid=19679)[0m  15                  -1  1     37248  ultralytics.nn.modules.block.C2f             [192, 64, 1]                  
[36m(ClientAppActor pid=19679)[0m  16                  -1  1     36992  ultralytics.nn.modules.conv.Conv             [64, 64, 3, 2]                
[36m(ClientAppActor pid=19679)[0m  17            [-1, 12]  1         0  ultralytics.nn.modules.conv.Concat           [1]                           
[36m(ClientAppActor pid=19681)[0m                    all        387        863      0.717      0.611      0.678      0.506
[36m(ClientAppActor pid=19681)[0m Speed: 0.2ms preprocess, 1.1ms inference, 0.0ms loss, 0.8ms postprocess per image
[36m(ClientAppActor pid=19681)[0m Results saved to [1mruns/detect/val155[0m
[36m(ClientAppActor pid=19679)[0m [Client 0] Device: cuda:0
[36m(ClientAppActor pid=19679)[0m  18                  -1  1    123648  ultralytics.nn.modules.block.C2f             [192, 128, 1]                 
[36m(ClientAppActor pid=19679)[0m  19                  -1  1    147712  ultralytics.nn.modules.conv.Conv             [128, 128, 3, 2]              
[36m(ClientAppActor pid=19679)[0m  20             [-1, 9]  1         0  ultralytics.nn.modules.conv.Concat           [1]                           
[36m(ClientAppActor pid=19681)[0m 
[36m(ClientAppActor pid=19681)[0m [34m[1mtrain: [0mScanning /WehbeDocker/YOLOV8N/datasets/client_1/train/labels.cache... 1050 images, 0 backgrounds, 0 corrupt: 100%|â–ˆâ–ˆâ–ˆâ–ˆâ–ˆâ–ˆâ–ˆâ–ˆâ–ˆâ–ˆ| 1050/1050 [00:00<?, ?it/s][34m[1mtrain: [0mScanning /WehbeDocker/YOLOV8N/datasets/client_1/train/labels.cache... 1050 images, 0 backgrounds, 0 corrupt: 100%|â–ˆâ–ˆâ–ˆâ–ˆâ–ˆâ–ˆâ–ˆâ–ˆâ–ˆâ–ˆ| 1050/1050 [00:00<?, ?it/s][32m [repeated 2x across cluster][0m
…
[36m(ClientAppActor pid=19679)[0m        2/10      2.19G     0.9755      1.054      1.173         46        640:  92%|â–ˆâ–ˆâ–ˆâ–ˆâ–ˆâ–ˆâ–ˆâ–ˆâ–ˆâ–| 89/97 [00:11<00:00,  9.29it/s]       2/10      2.19G     0.9755      1.054      1.173         46        640:  93%|â–ˆâ–ˆâ–ˆâ–ˆâ–ˆâ–ˆâ–ˆâ–ˆâ–ˆâ–Ž| 90/97 [00:11<00:00,  7.68it/s]
[36m(ClientAppActor pid=19679)[0m        2/10      2.19G     0.9743      1.054      1.172         52        640:  93%|â–ˆâ–ˆâ–ˆâ–ˆâ–ˆâ–ˆâ–ˆâ–ˆâ–ˆâ–Ž| 90/97 [00:11<00:00,  7.68it/s]       2/10      2.19G     0.9743      1.054      1.172         52        640:  94%|â–ˆâ–ˆâ–ˆâ–ˆâ–ˆâ–ˆâ–ˆâ–ˆâ–ˆâ–| 91/97 [00:11<00:00,  6.47it/s]
[36m(ClientAppActor pid=19681)[0m  12                  -1  1    148224  ultralytics.nn.modules.block.C2f             [384, 128, 1]                 
[36m(ClientAppActor pid=19681)[0m  15                  -1  1     37248  ultralytics.nn.modules.block.C2f             [192, 64, 1]                  
[36m(ClientAppActor pid=19681)[0m  18                  -1  1    123648  ultralytics.nn.modules.block.C2f             [192, 128, 1]                 
[36m(ClientAppActor pid=19681)[0m  21                  -1  1    493056  ultralytics.nn.modules.block.C2f             [384, 256, 1]                 
[36m(ClientAppActor pid=19681)[0m  22        [15, 18, 21]  1    751507  ultralytics.nn.modules.head.Detect           [1, [64, 128, 256]]           
[36m(ClientAppActor pid=19679)[0m  21                  -1  1    493056  ultralytics.nn.modules.block.C2f             [384, 256, 1]                 
[36m(ClientAppActor pid=19681)[0m Model summary: 129 layers, 3,011,043 parameters, 3,011,027 gradients, 8.2 GFLOPs
[36m(ClientAppActor pid=19681)[0m 
[36m(ClientAppActor pid=19681)[0m Transferred 355/355 items from pretrained weights
[36m(ClientAppActor pid=19681)[0m [34m[1mTensorBoard: [0mStart with 'tensorboard --logdir runs/detect/train189', view at http://localhost:6006/
…
