…
[36m(ClientAppActor pid=404746)[0m Overriding class names with single class.
[36m(ClientAppActor pid=404741)[0m [Client 6] Device: cuda:0[32m [repeated 7x across cluster] (Ray deduplicates logs by default. Set RAY_DEDUP_LOGS=0 to disable log deduplication, or see https://docs.ray.io/en/master/ray-observability/user-guides/configure-logging.html#log-deduplication for more options.)[0m
[36m(ClientAppActor pid=404740)[0m 
[36m(ClientAppActor pid=404740)[0m                    from  n    params  module                                       arguments                     
[36m(ClientAppActor pid=404740)[0m   0                  -1  1       464  ultralytics.nn.modules.conv.Conv             [3, 16, 3, 2]                 
[36m(ClientAppActor pid=404740)[0m   1                  -1  1      4672  ultralytics.nn.modules.conv.Conv             [16, 32, 3, 2]                
[36m(ClientAppActor pid=404740)[0m   2                  -1  1      7360  ultralytics.nn.modules.block.C2f             [32, 32, 1, True]             
[36m(ClientAppActor pid=404740)[0m   3                  -1  1     18560  ultralytics.nn.modules.conv.Conv             [32, 64, 3, 2]                
[36m(ClientAppActor pid=404740)[0m   4                  -1  2     49664  ultralytics.nn.modules.block.C2f             [64, 64, 2, True]             
[36m(ClientAppActor pid=404740)[0m   5                  -1  1     73984  ultralytics.nn.modules.conv.Conv             [64, 128, 3, 2]               
[36m(ClientAppActor pid=404740)[0m   6                  -1  2    197632  ultralytics.nn.modules.block.C2f             [128, 128, 2, True]           
[36m(ClientAppActor pid=404740)[0m   7                  -1  1    295424  ultralytics.nn.modules.conv.Conv             [128, 256, 3, 2]              
[36m(ClientAppActor pid=404740)[0m   8                  -1  1    460288  ultralytics.nn.modules.block.C2f             [256, 256, 1, True]           
[36m(ClientAppActor pid=404740)[0m   9                  -1  1    164608  ultralytics.nn.modules.block.SPPF            [256, 256, 5]                 
[36m(ClientAppActor pid=404740)[0m  10                  -1  1         0  torch.nn.modules.upsampling.Upsample         [None, 2, 'nearest']          
[36m(ClientAppActor pid=404740)[0m  11             [-1, 6]  1         0  ultralytics.nn.modules.conv.Concat           [1]                           
[36m(ClientAppActor pid=404740)[0m  12                  -1  1    148224  ultralytics.nn.modules.block.C2f             [384, 128, 1]                 
[36m(ClientAppActor pid=404740)[0m  13                  -1  1         0  torch.nn.modules.upsampling.Upsample         [None, 2, 'nearest']          
[36m(ClientAppActor pid=404740)[0m  14             [-1, 4]  1         0  ultralytics.nn.modules.conv.Concat           [1]                           
[36m(ClientAppActor pid=404740)[0m  15                  -1  1     37248  ultralytics.nn.modules.block.C2f             [192, 64, 1]                  
[36m(ClientAppActor pid=404740)[0m  16                  -1  1     36992  ultralytics.nn.modules.conv.Conv             [64, 64, 3, 2]                
[36m(ClientAppActor pid=404740)[0m  17            [-1, 12]  1         0  ultralytics.nn.modules.conv.Concat           [1]                           
[36m(ClientAppActor pid=404740)[0m  18                  -1  1    123648  ultralytics.nn.modules.block.C2f             [192, 128, 1]                 
[36m(ClientAppActor pid=404740)[0m  19                  -1  1    147712  ultralytics.nn.modules.conv.Conv             [128, 128, 3, 2]              
[36m(ClientAppActor pid=404740)[0m  20             [-1, 9]  1         0  ultralytics.nn.modules.conv.Concat           [1]                           
[36m(ClientAppActor pid=404740)[0m  21                  -1  1    493056  ultralytics.nn.modules.block.C2f             [384, 256, 1]                 
[36m(ClientAppActor pid=404740)[0m  22        [15, 18, 21]  1    751507  ultralytics.nn.modules.head.Detect           [1, [64, 128, 256]]           
[36m(ClientAppActor pid=404744)[0m 
[36m(ClientAppActor pid=404746)[0m 
[36m(ClientAppActor pid=404746)[0m  12                  -1  1    148224  ultralytics.nn.modules.block.C2f             [384, 128, 1]                 
[36m(ClientAppActor pid=404746)[0m  15                  -1  1     37248  ultralytics.nn.modules.block.C2f             [192, 64, 1]                  
[36m(ClientAppActor pid=404746)[0m  18                  -1  1    123648  ultralytics.nn.modules.block.C2f             [192, 128, 1]                 
[36m(ClientAppActor pid=404746)[0m  21                  -1  1    493056  ultralytics.nn.modules.block.C2f             [384, 256, 1]                 
[36m(ClientAppActor pid=404744)[0m  12                  -1  1    148224  ultralytics.nn.modules.block.C2f             [384, 128, 1]                 
[36m(ClientAppActor pid=404744)[0m  15                  -1  1     37248  ultralytics.nn.modules.block.C2f             [192, 64, 1]                  
[36m(ClientAppActor pid=404740)[0m Model summary: 129 layers, 3,011,043 parameters, 3,011,027 gradients, 8.2 GFLOPs
[36m(ClientAppActor pid=404740)[0m 
[36m(ClientAppActor pid=404740)[0m Transferred 355/355 items from pretrained weights
[36m(ClientAppActor pid=404740)[0m [34m[1mTensorBoard: [0mStart with 'tensorboard --logdir runs/detect/train1965', view at http://localhost:6006/
[36m(ClientAppActor pid=404744)[0m  18                  -1  1    123648  ultralytics.nn.modules.block.C2f             [192, 128, 1]                 
[36m(ClientAppActor pid=404744)[0m  21                  -1  1    493056  ultralytics.nn.modules.block.C2f             [384, 256, 1]                 
[36m(ClientAppActor pid=404746)[0m 
[36m(ClientAppActor pid=404746)[0m Freezing layer 'model.22.dfl.conv.weight'
[36m(ClientAppActor pid=404746)[0m [34m[1mAMP: [0mrunning Automatic Mixed Precision (AMP) checks...
[36m(ClientAppActor pid=404744)[0m 
[36m(ClientAppActor pid=404747)[0m 
[36m(ClientAppActor pid=404747)[0m  12                  -1  1    148224  ultralytics.nn.modules.block.C2f             [384, 128, 1]                 
[36m(ClientAppActor pid=404740)[0m [34m[1mtrain: [0mScanning /WehbeDocker/YOLOV8N/datasets/client_7/train/labels.cache... 143 images, 0 backgrounds, 0 corrupt: 100%|â–ˆâ–ˆâ–ˆâ–ˆâ–ˆâ–ˆâ–ˆâ–ˆâ–ˆâ–ˆ| 143/143 [00:00<?, ?it/s][34m[1mtrain: [0mScanning /WehbeDocker/YOLOV8N/datasets/client_7/train/labels.cache... 143 images, 0 backgrounds, 0 corrupt: 100%|â–ˆâ–ˆâ–ˆâ–ˆâ–ˆâ–ˆâ–ˆâ–ˆâ–ˆâ–ˆ| 143/143 [00:00<?, ?it/s]
[36m(pid=404741)[0m WARNING: All log messages before absl::InitializeLog() is called are written to STDERR[32m [repeated 7x across cluster][0m
[36m(pid=404741)[0m E0000 00:00:1746101254.265632  404741 cuda_dnn.cc:8310] Unable to register cuDNN factory: Attempting to register factory for plugin cuDNN when one has already been registered[32m [repeated 7x across cluster][0m
[36m(pid=404741)[0m E0000 00:00:1746101254.270527  404741 cuda_blas.cc:1418] Unable to register cuBLAS factory: Attempting to register factory for plugin cuBLAS when one has already been registered[32m [repeated 7x across cluster][0m
[36m(ClientAppActor pid=404747)[0m  15                  -1  1     37248  ultralytics.nn.modules.block.C2f             [192, 64, 1]                  
[36m(ClientAppActor pid=404747)[0m  18                  -1  1    123648  ultralytics.nn.modules.block.C2f             [192, 128, 1]                 
[36m(ClientAppActor pid=404747)[0m  21                  -1  1    493056  ultralytics.nn.modules.block.C2f             [384, 256, 1]                 
[36m(ClientAppActor pid=404748)[0m 
[36m(ClientAppActor pid=404748)[0m  12                  -1  1    148224  ultralytics.nn.modules.block.C2f             [384, 128, 1]                 
[36m(ClientAppActor pid=404748)[0m  15                  -1  1     37248  ultralytics.nn.modules.block.C2f             [192, 64, 1]                  
[36m(ClientAppActor pid=404748)[0m  18                  -1  1    123648  ultralytics.nn.modules.block.C2f             [192, 128, 1]                 
[36m(ClientAppActor pid=404748)[0m  21                  -1  1    493056  ultralytics.nn.modules.block.C2f             [384, 256, 1]                 
[36m(ClientAppActor pid=404741)[0m 
[36m(ClientAppActor pid=404741)[0m  12                  -1  1    148224  ultralytics.nn.modules.block.C2f             [384, 128, 1]                 
[36m(ClientAppActor pid=404741)[0m  15                  -1  1     37248  ultralytics.nn.modules.block.C2f             [192, 64, 1]                  
[36m(ClientAppActor pid=404741)[0m  18                  -1  1    123648  ultralytics.nn.modules.block.C2f             [192, 128, 1]                 
[36m(ClientAppActor pid=404741)[0m  21                  -1  1    493056  ultralytics.nn.modules.block.C2f             [384, 256, 1]                 
[36m(ClientAppActor pid=404743)[0m 
[36m(ClientAppActor pid=404743)[0m  12                  -1  1    148224  ultralytics.nn.modules.block.C2f             [384, 128, 1]                 
[36m(ClientAppActor pid=404743)[0m  15                  -1  1     37248  ultralytics.nn.modules.block.C2f             [192, 64, 1]                  
[36m(ClientAppActor pid=404743)[0m  18                  -1  1    123648  ultralytics.nn.modules.block.C2f             [192, 128, 1]                 
[36m(ClientAppActor pid=404743)[0m  21                  -1  1    493056  ultralytics.nn.modules.block.C2f             [384, 256, 1]                 
[36m(ClientAppActor pid=404750)[0m 
[36m(ClientAppActor pid=404750)[0m  12                  -1  1    148224  ultralytics.nn.modules.block.C2f             [384, 128, 1]                 
[36m(ClientAppActor pid=404750)[0m  15                  -1  1     37248  ultralytics.nn.modules.block.C2f             [192, 64, 1]                  
[36m(ClientAppActor pid=404750)[0m  18                  -1  1    123648  ultralytics.nn.modules.block.C2f             [192, 128, 1]                 
[36m(ClientAppActor pid=404750)[0m  21                  -1  1    493056  ultralytics.nn.modules.block.C2f             [384, 256, 1]                 
[36m(ClientAppActor pid=404747)[0m 
[36m(ClientAppActor pid=404748)[0m 
[36m(ClientAppActor pid=404741)[0m 
[36m(ClientAppActor pid=404743)[0m 
[36m(ClientAppActor pid=404750)[0m 
[36m(ClientAppActor pid=404740)[0m [34m[1mAMP: [0mchecks passed âœ…
[36m(ClientAppActor pid=404746)[0m Plotting labels to runs/detect/train1964/labels.jpg... 
[36m(ClientAppActor pid=404741)[0m New https://pypi.org/project/ultralytics/8.3.122 available ðŸ˜ƒ Update with 'pip install -U ultralytics'[32m [repeated 7x across cluster][0m
…
ixup=0.0, copy_paste=0.0, copy_paste_mode=flip, auto_augment=randaugment, erasing=0.4, crop_fraction=1.0, cfg=None, tracker=botsort.yaml, save_dir=runs/detect/train1969[32m [repeated 7x across cluster][0m
[36m(ClientAppActor pid=404741)[0m Overriding class names with single class.[32m [repeated 7x across cluster][0m
[36m(ClientAppActor pid=404750)[0m                    from  n    params  module                                       arguments                     [32m [repeated 7x across cluster][0m
[36m(ClientAppActor pid=404750)[0m  19                  -1  1    147712  ultralytics.nn.modules.conv.Conv             [128, 128, 3, 2]              [32m [repeated 49x across cluster][0m
[36m(ClientAppActor pid=404750)[0m   8                  -1  1    460288  ultralytics.nn.modules.block.C2f             [256, 256, 1, True]           [32m [repeated 28x across cluster][0m
[36m(ClientAppActor pid=404750)[0m   9                  -1  1    164608  ultralytics.nn.modules.block.SPPF            [256, 256, 5]                 [32m [repeated 7x across cluster][0m
[36m(ClientAppActor pid=404750)[0m  13                  -1  1         0  torch.nn.modules.upsampling.Upsample         [None, 2, 'nearest']          [32m [repeated 14x across cluster][0m
[36m(ClientAppActor pid=404750)[0m  20             [-1, 9]  1         0  ultralytics.nn.modules.conv.Concat           [1]                           [32m [repeated 28x across cluster][0m
[36m(ClientAppActor pid=404750)[0m  22        [15, 18, 21]  1    751507  ultralytics.nn.modules.head.Detect           [1, [64, 128, 256]]           [32m [repeated 7x across cluster][0m
[36m(ClientAppActor pid=404750)[0m Model summary: 129 layers, 3,011,043 parameters, 3,011,027 gradients, 8.2 GFLOPs[32m [repeated 7x across cluster][0m
[36m(ClientAppActor pid=404741)[0m Transferred 355/355 items from pretrained weights[32m [repeated 7x across cluster][0m
[36m(ClientAppActor pid=404741)[0m [34m[1mTensorBoard: [0mStart with 'tensorboard --logdir runs/detect/train1969', view at http://localhost:6006/[32m [repeated 7x across cluster][0m
…
, shear=0.0, perspective=0.0, flipud=0.0, fliplr=0.5, bgr=0.0, mosaic=1.0, mixup=0.0, copy_paste=0.0, copy_paste_mode=flip, auto_augment=randaugment, erasing=0.4, crop_fraction=1.0, cfg=None, tracker=botsort.yaml, save_dir=runs/detect/train1972
[36m(ClientAppActor pid=404744)[0m Overriding class names with single class.
[36m(ClientAppActor pid=404744)[0m 
[36m(ClientAppActor pid=404744)[0m                    from  n    params  module                                       arguments                     
[36m(ClientAppActor pid=404744)[0m   0                  -1  1       464  ultralytics.nn.modules.conv.Conv             [3, 16, 3, 2]                 
[36m(ClientAppActor pid=404744)[0m   1                  -1  1      4672  ultralytics.nn.modules.conv.Conv             [16, 32, 3, 2]                
[36m(ClientAppActor pid=404744)[0m   2                  -1  1      7360  ultralytics.nn.modules.block.C2f             [32, 32, 1, True]             
[36m(ClientAppActor pid=404744)[0m   3                  -1  1     18560  ultralytics.nn.modules.conv.Conv             [32, 64, 3, 2]                
[36m(ClientAppActor pid=404744)[0m   4                  -1  2     49664  ultralytics.nn.modules.block.C2f             [64, 64, 2, True]             
[36m(ClientAppActor pid=404744)[0m   5                  -1  1     73984  ultralytics.nn.modules.conv.Conv             [64, 128, 3, 2]               
[36m(ClientAppActor pid=404744)[0m   6                  -1  2    197632  ultralytics.nn.modules.block.C2f             [128, 128, 2, True]           
[36m(ClientAppActor pid=404744)[0m   7                  -1  1    295424  ultralytics.nn.modules.conv.Conv             [128, 256, 3, 2]              
[36m(ClientAppActor pid=404744)[0m   8                  -1  1    460288  ultralytics.nn.modules.block.C2f             [256, 256, 1, True]           
[36m(ClientAppActor pid=404744)[0m   9                  -1  1    164608  ultralytics.nn.modules.block.SPPF            [256, 256, 5]                 
[36m(ClientAppActor pid=404744)[0m  10                  -1  1         0  torch.nn.modules.upsampling.Upsample         [None, 2, 'nearest']          
[36m(ClientAppActor pid=404744)[0m  11             [-1, 6]  1         0  ultralytics.nn.modules.conv.Concat           [1]                           
[36m(ClientAppActor pid=404744)[0m  12                  -1  1    148224  ultralytics.nn.modules.block.C2f             [384, 128, 1]                 
[36m(ClientAppActor pid=404744)[0m  13                  -1  1         0  torch.nn.modules.upsampling.Upsample         [None, 2, 'nearest']          
[36m(ClientAppActor pid=404744)[0m  14             [-1, 4]  1         0  ultralytics.nn.modules.conv.Concat           [1]                           
[36m(ClientAppActor pid=404744)[0m  15                  -1  1     37248  ultralytics.nn.modules.block.C2f             [192, 64, 1]                  
[36m(ClientAppActor pid=404744)[0m  16                  -1  1     36992  ultralytics.nn.modules.conv.Conv             [64, 64, 3, 2]                
[36m(ClientAppActor pid=404744)[0m  17            [-1, 12]  1         0  ultralytics.nn.modules.conv.Concat           [1]                           
[36m(ClientAppActor pid=404744)[0m  18                  -1  1    123648  ultralytics.nn.modules.block.C2f             [192, 128, 1]                 
[36m(ClientAppActor pid=404744)[0m  19                  -1  1    147712  ultralytics.nn.modules.conv.Conv             [128, 128, 3, 2]              
[36m(ClientAppActor pid=404744)[0m  20             [-1, 9]  1         0  ultralytics.nn.modules.conv.Concat           [1]                           
[36m(ClientAppActor pid=404744)[0m  21                  -1  1    493056  ultralytics.nn.modules.block.C2f             [384, 256, 1]                 
[36m(ClientAppActor pid=404744)[0m  22        [15, 18, 21]  1    751507  ultralytics.nn.modules.head.Detect           [1, [64, 128, 256]]           
[36m(ClientAppActor pid=404743)[0m 10 epochs completed in 0.014 hours.[32m [repeated 3x across cluster][0m
[36m(ClientAppActor pid=404743)[0m Optimizer stripped from runs/detect/train1970/weights/best.pt, 6.2MB[32m [repeated 6x across cluster][0m
[36m(ClientAppActor pid=404743)[0m Validating runs/detect/train1970/weights/best.pt...[32m [repeated 3x across cluster][0m
…
[36m(ClientAppActor pid=404743)[0m   ap = np.trapz(np.interp(x, mrec, mpre), x)  # integrate[32m [repeated 7x across cluster][0m
[36m(ClientAppActor pid=404743)[0m                  Class     Images  Instances      Box(P          R      mAP50  mAP50-95): 100%|â–ˆâ–ˆâ–ˆâ–ˆâ–ˆâ–ˆâ–ˆâ–ˆâ–ˆâ–ˆ| 1/1 [00:00<00:00, 13.30it/s]
[36m(ClientAppActor pid=404744)[0m 
[36m(ClientAppActor pid=404744)[0m Transferred 355/355 items from pretrained weights
[36m(ClientAppActor pid=404744)[0m [34m[1mTensorBoard: [0mStart with 'tensorboard --logdir runs/detect/train1972', view at http://localhost:6006/
[36m(ClientAppActor pid=404747)[0m  12                  -1  1    148224  ultralytics.nn.modules.block.C2f             [384, 128, 1]                 
[36m(ClientAppActor pid=404747)[0m  15                  -1  1     37248  ultralytics.nn.modules.block.C2f             [192, 64, 1]                  
[36m(ClientAppActor pid=404747)[0m  18                  -1  1    123648  ultralytics.nn.modules.block.C2f             [192, 128, 1]                 
[36m(ClientAppActor pid=404747)[0m  21                  -1  1    493056  ultralytics.nn.modules.block.C2f             [384, 256, 1]                 
[36m(ClientAppActor pid=404744)[0m Freezing layer 'model.22.dfl.conv.weight'
[36m(ClientAppActor pid=404744)[0m [34m[1mAMP: [0mrunning Automatic Mixed Precision (AMP) checks...
[36m(ClientAppActor pid=404747)[0m 
[36m(ClientAppActor pid=404746)[0m 
[36m(ClientAppActor pid=404746)[0m  12                  -1  1    148224  ultralytics.nn.modules.block.C2f             [384, 128, 1]                 
[36m(ClientAppActor pid=404746)[0m  15                  -1  1     37248  ultralytics.nn.modules.block.C2f             [192, 64, 1]                  
[36m(ClientAppActor pid=404746)[0m  18                  -1  1    123648  ultralytics.nn.modules.block.C2f             [192, 128, 1]                 
[36m(ClientAppActor pid=404746)[0m  21                  -1  1    493056  ultralytics.nn.modules.block.C2f             [384, 256, 1]                 
[36m(ClientAppActor pid=404746)[0m 
[36m(ClientAppActor pid=404744)[0m [34m[1mAMP: [0mchecks passed âœ…
[36m(ClientAppActor pid=404747)[0m Plotting labels to runs/detect/train1973/labels.jpg... 
[36m(ClientAppActor pid=404750)[0m 
[36m(ClientAppActor pid=404750)[0m  12                  -1  1    148224  ultralytics.nn.modules.block.C2f             [384, 128, 1]                 
[36m(ClientAppActor pid=404750)[0m  15                  -1  1     37248  ultralytics.nn.modules.block.C2f             [192, 64, 1]                  
[36m(ClientAppActor pid=404750)[0m  18                  -1  1    123648  ultralytics.nn.modules.block.C2f             [192, 128, 1]                 
[36m(ClientAppActor pid=404740)[0m 
[36m(ClientAppActor pid=404750)[0m  21                  -1  1    493056  ultralytics.nn.modules.block.C2f             [384, 256, 1]                 
[36m(ClientAppActor pid=404740)[0m  12                  -1  1    148224  ultralytics.nn.modules.block.C2f             [384, 128, 1]                 
[36m(ClientAppActor pid=404740)[0m  15                  -1  1     37248  ultralytics.nn.modules.block.C2f             [192, 64, 1]                  
[36m(ClientAppActor pid=404740)[0m  18                  -1  1    123648  ultralytics.nn.modules.block.C2f             [192, 128, 1]                 
[36m(ClientAppActor pid=404740)[0m  21                  -1  1    493056  ultralytics.nn.modules.block.C2f             [384, 256, 1]                 
[36m(ClientAppActor pid=404740)[0m 
[36m(ClientAppActor pid=404748)[0m 
[36m(ClientAppActor pid=404748)[0m  12                  -1  1    148224  ultralytics.nn.modules.block.C2f             [384, 128, 1]                 
[36m(ClientAppActor pid=404748)[0m  15                  -1  1     37248  ultralytics.nn.modules.block.C2f             [192, 64, 1]                  
[36m(ClientAppActor pid=404748)[0m  18                  -1  1    123648  ultralytics.nn.modules.block.C2f             [192, 128, 1]                 
[36m(ClientAppActor pid=404748)[0m  21                  -1  1    493056  ultralytics.nn.modules.block.C2f             [384, 256, 1]                 
[36m(ClientAppActor pid=404743)[0m 
[36m(ClientAppActor pid=404741)[0m 
[36m(ClientAppActor pid=404743)[0m  12                  -1  1    148224  ultralytics.nn.modules.block.C2f             [384, 128, 1]                 
[36m(ClientAppActor pid=404743)[0m  15                  -1  1     37248  ultralytics.nn.modules.block.C2f             [192, 64, 1]                  
[36m(ClientAppActor pid=404750)[0m 
[36m(ClientAppActor pid=404743)[0m  18                  -1  1    123648  ultralytics.nn.modules.block.C2f             [192, 128, 1]                 
[36m(ClientAppActor pid=404743)[0m  21                  -1  1    493056  ultralytics.nn.modules.block.C2f             [384, 256, 1]                 
[36m(ClientAppActor pid=404748)[0m 
[36m(ClientAppActor pid=404741)[0m  12                  -1  1    148224  ultralytics.nn.modules.block.C2f             [384, 128, 1]                 
[36m(ClientAppActor pid=404741)[0m  15                  -1  1     37248  ultralytics.nn.modules.block.C2f             [192, 64, 1]                  
[36m(ClientAppActor pid=404741)[0m  18                  -1  1    123648  ultralytics.nn.modules.block.C2f             [192, 128, 1]                 
[36m(ClientAppActor pid=404741)[0m  21                  -1  1    493056  ultralytics.nn.modules.block.C2f             [384, 256, 1]                 
[36m(ClientAppActor pid=404743)[0m 
[36m(ClientAppActor pid=404743)[0m New https://pypi.org/project/ultralytics/8.3.122 available ðŸ˜ƒ Update with 'pip install -U ultralytics'[32m [repeated 7x across cluster][0m
[36m(ClientAppActor pid=404741)[0m [34m[1mengine/trainer: [0mtask=detect, mode=train, model=model_14.pt, data=/WehbeDocker/YOLOV8N/datasets/client_
…
, shear=0.0, perspective=0.0, flipud=0.0, fliplr=0.5, bgr=0.0, mosaic=1.0, mixup=0.0, copy_paste=0.0, copy_paste_mode=flip, auto_augment=randaugment, erasing=0.4, crop_fraction=1.0, cfg=None, tracker=botsort.yaml, save_dir=runs/detect/train1980
[36m(ClientAppActor pid=404747)[0m Overriding class names with single class.
[36m(ClientAppActor pid=404747)[0m 
[36m(ClientAppActor pid=404747)[0m                    from  n    params  module                                       arguments                     
[36m(ClientAppActor pid=404747)[0m   0                  -1  1       464  ultralytics.nn.modules.conv.Conv             [3, 16, 3, 2]                 
[36m(ClientAppActor pid=404747)[0m   1                  -1  1      4672  ultralytics.nn.modules.conv.Conv             [16, 32, 3, 2]                
[36m(ClientAppActor pid=404747)[0m   2                  -1  1      7360  ultralytics.nn.modules.block.C2f             [32, 32, 1, True]             
[36m(ClientAppActor pid=404747)[0m   3                  -1  1     18560  ultralytics.nn.modules.conv.Conv             [32, 64, 3, 2]                
[36m(ClientAppActor pid=404747)[0m   4                  -1  2     49664  ultralytics.nn.modules.block.C2f             [64, 64, 2, True]             
[36m(ClientAppActor pid=404747)[0m   5                  -1  1     73984  ultralytics.nn.modules.conv.Conv             [64, 128, 3, 2]               
[36m(ClientAppActor pid=404747)[0m   6                  -1  2    197632  ultralytics.nn.modules.block.C2f             [128, 128, 2, True]           
[36m(ClientAppActor pid=404747)[0m   7                  -1  1    295424  ultralytics.nn.modules.conv.Conv             [128, 256, 3, 2]              
[36m(ClientAppActor pid=404747)[0m   8                  -1  1    460288  ultralytics.nn.modules.block.C2f             [256, 256, 1, True]           
[36m(ClientAppActor pid=404747)[0m   9                  -1  1    164608  ultralytics.nn.modules.block.SPPF            [256, 256, 5]                 
[36m(ClientAppActor pid=404747)[0m  10                  -1  1         0  torch.nn.modules.upsampling.Upsample         [None, 2, 'nearest']          
[36m(ClientAppActor pid=404747)[0m  11             [-1, 6]  1         0  ultralytics.nn.modules.conv.Concat           [1]                           
[36m(ClientAppActor pid=404747)[0m  12                  -1  1    148224  ultralytics.nn.modules.block.C2f             [384, 128, 1]                 
[36m(ClientAppActor pid=404747)[0m  13                  -1  1         0  torch.nn.modules.upsampling.Upsample         [None, 2, 'nearest']          
[36m(ClientAppActor pid=404747)[0m  14             [-1, 4]  1         0  ultralytics.nn.modules.conv.Concat           [1]                           
[36m(ClientAppActor pid=404747)[0m  15                  -1  1     37248  ultralytics.nn.modules.block.C2f             [192, 64, 1]                  
[36m(ClientAppActor pid=404747)[0m  16                  -1  1     36992  ultralytics.nn.modules.conv.Conv             [64, 64, 3, 2]                
[36m(ClientAppActor pid=404747)[0m  17            [-1, 12]  1         0  ultralytics.nn.modules.conv.Concat           [1]                           
[36m(ClientAppActor pid=404747)[0m  18                  -1  1    123648  ultralytics.nn.modules.block.C2f             [192, 128, 1]                 
[36m(ClientAppActor pid=404747)[0m  19                  -1  1    147712  ultralytics.nn.modules.conv.Conv             [128, 128, 3, 2]              
[36m(ClientAppActor pid=404747)[0m  20             [-1, 9]  1         0  ultralytics.nn.modules.conv.Concat           [1]                           
[36m(ClientAppActor pid=404747)[0m [34m[1mtrain: [0mScanning /WehbeDocker/YOLOV8N/datasets/client_7/train/labels.cache... 143 images, 0 backgrounds, 0 corrupt: 100%|â–ˆâ–ˆâ–ˆâ–ˆâ–ˆâ–ˆâ–ˆâ–ˆâ–ˆâ–ˆ| 143/143 [00:00<?, ?it/s][34m[1mtrain: [0mScanning /WehbeDocker/YOLOV8N/datasets/client_7/train/labels.cache... 143 images, 0 backgrounds, 0 corrupt: 100%|â–ˆâ–ˆâ–ˆâ–ˆâ–ˆâ–ˆâ–ˆâ–ˆâ–ˆâ–ˆ| 143/143 [00:00<?, ?it/s]
…
, shear=0.0, perspective=0.0, flipud=0.0, fliplr=0.5, bgr=0.0, mosaic=1.0, mixup=0.0, copy_paste=0.0, copy_paste_mode=flip, auto_augment=randaugment, erasing=0.4, crop_fraction=1.0, cfg=None, tracker=botsort.yaml, save_dir=runs/detect/train1988
[36m(ClientAppActor pid=404747)[0m Overriding class names with single class.
[36m(ClientAppActor pid=404747)[0m 
[36m(ClientAppActor pid=404747)[0m                    from  n    params  module                                       arguments                     
[36m(ClientAppActor pid=404747)[0m   0                  -1  1       464  ultralytics.nn.modules.conv.Conv             [3, 16, 3, 2]                 
[36m(ClientAppActor pid=404747)[0m   1                  -1  1      4672  ultralytics.nn.modules.conv.Conv             [16, 32, 3, 2]                
[36m(ClientAppActor pid=404747)[0m   2                  -1  1      7360  ultralytics.nn.modules.block.C2f             [32, 32, 1, True]             
[36m(ClientAppActor pid=404747)[0m   3                  -1  1     18560  ultralytics.nn.modules.conv.Conv             [32, 64, 3, 2]                
[36m(ClientAppActor pid=404747)[0m   4                  -1  2     49664  ultralytics.nn.modules.block.C2f             [64, 64, 2, True]             
[36m(ClientAppActor pid=404747)[0m   5                  -1  1     73984  ultralytics.nn.modules.conv.Conv             [64, 128, 3, 2]               
[36m(ClientAppActor pid=404747)[0m   6                  -1  2    197632  ultralytics.nn.modules.block.C2f             [128, 128, 2, True]           
[36m(ClientAppActor pid=404747)[0m   7                  -1  1    295424  ultralytics.nn.modules.conv.Conv             [128, 256, 3, 2]              
[36m(ClientAppActor pid=404747)[0m   8                  -1  1    460288  ultralytics.nn.modules.block.C2f             [256, 256, 1, True]           
[36m(ClientAppActor pid=404747)[0m   9                  -1  1    164608  ultralytics.nn.modules.block.SPPF            [256, 256, 5]                 
[36m(ClientAppActor pid=404747)[0m  10                  -1  1         0  torch.nn.modules.upsampling.Upsample         [None, 2, 'nearest']          
[36m(ClientAppActor pid=404747)[0m  11             [-1, 6]  1         0  ultralytics.nn.modules.conv.Concat           [1]                           
[36m(ClientAppActor pid=404747)[0m  12                  -1  1    148224  ultralytics.nn.modules.block.C2f             [384, 128, 1]                 
[36m(ClientAppActor pid=404747)[0m  13                  -1  1         0  torch.nn.modules.upsampling.Upsample         [None, 2, 'nearest']          
[36m(ClientAppActor pid=404747)[0m  14             [-1, 4]  1         0  ultralytics.nn.modules.conv.Concat           [1]                           
[36m(ClientAppActor pid=404747)[0m  15                  -1  1     37248  ultralytics.nn.modules.block.C2f             [192, 64, 1]                  
[36m(ClientAppActor pid=404747)[0m  16                  -1  1     36992  ultralytics.nn.modules.conv.Conv             [64, 64, 3, 2]                
[36m(ClientAppActor pid=404747)[0m  17            [-1, 12]  1         0  ultralytics.nn.modules.conv.Concat           [1]                           
[36m(ClientAppActor pid=404747)[0m  18                  -1  1    123648  ultralytics.nn.modules.block.C2f             [192, 128, 1]                 
[36m(ClientAppActor pid=404747)[0m  19                  -1  1    147712  ultralytics.nn.modules.conv.Conv             [128, 128, 3, 2]              
[36m(ClientAppActor pid=404747)[0m  20             [-1, 9]  1         0  ultralytics.nn.modules.conv.Concat           [1]                           
[36m(ClientAppActor pid=404747)[0m  21                  -1  1    493056  ultralytics.nn.modules.block.C2f             [384, 256, 1]                 
[36m(ClientAppActor pid=404747)[0m  22        [15, 18, 21]  1    751507  ultralytics.nn.modules.head.Detect           [1, [64, 128, 256]]           
[36m(ClientAppActor pid=404750)[0m [Client 15] Device: cuda:0[32m [repeated 4x across cluster][0m
[36m(ClientAppActor pid=404747)[0m Model summary: 129 layers, 3,011,043 parameters, 3,011,027 gradients, 8.2 GFLOPs
[36m(ClientAppActor pid=404747)[0m 
[36m(ClientAppActor pid=404747)[0m Transferred 355/355 items from pretrained weights
[36m(ClientAppActor pid=404747)[0m [34m[1mTensorBoard: [0mStart with 'tensorboard --logdir runs/detect/train1988', view at http://localhost:6006/
[36m(ClientAppActor pid=404741)[0m 
[36m(ClientAppActor pid=404741)[0m  12                  -1  1    148224  ultralytics.nn.modules.block.C2f             [384, 128, 1]                 
[36m(ClientAppActor pid=404741)[0m  15                  -1  1     37248  ultralytics.nn.modules.block.C2f             [192, 64, 1]                  
[36m(ClientAppActor pid=404741)[0m  18                  -1  1    123648  ultralytics.nn.modules.block.C2f             [192, 128, 1]                 
[36m(ClientAppActor pid=404741)[0m  21                  -1  1    493056  ultralytics.nn.modules.block.C2f             [384, 256, 1]                 
[36m(ClientAppActor pid=404747)[0m Freezing layer 'model.22.dfl.conv.weight'
[36m(ClientAppActor pid=404747)[0m [34m[1mAMP: [0mrunning Automatic Mixed Precision (AMP) checks...
[36m(ClientAppActor pid=404741)[0m 
[36m(ClientAppActor pid=404740)[0m 
[36m(ClientAppActor pid=404740)[0m  12                  -1  1    148224  ultralytics.nn.modules.block.C2f             [384, 128, 1]                 
[36m(ClientAppActor pid=404740)[0m  15                  -1  1     37248  ultralytics.nn.modules.block.C2f             [192, 64, 1]                  
[36m(ClientAppActor pid=404740)[0m  18                  -1  1    123648  ultralytics.nn.modules.block.C2f             [192, 128, 1]                 
[36m(ClientAppActor pid=404740)[0m  21                  -1  1    493056  ultralytics.nn.modules.block.C2f             [384, 256, 1]                 
[36m(ClientAppActor pid=404746)[0m                    all         37         78      0.749      0.449       0.59      0.442[32m [repeated 4x across cluster][0m
[36m(ClientAppActor pid=404740)[0m 
[36m(ClientAppActor pid=404747)[0m [34m[1mAMP: [0mchecks passed âœ…
[36m(ClientAppActor pid=404743)[0m 
[36m(ClientAppActor pid=404743)[0m  12                  -1  1    148224  ultralytics.nn.modules.block.C2f             [384, 128, 1]                 
[36m(ClientAppActor pid=404743)[0m  15                  -1  1     37248  ultralytics.nn.modules.block.C2f             [192, 64, 1]                  
[36m(ClientAppActor pid=404743)[0m  18                  -1  1    123648  ultralytics.nn.modules.block.C2f             [192, 128, 1]                 
[36m(ClientAppActor pid=404748)[0m       10/10      2.05G      1.103      1.551      1.265         65        640:   0%|          | 0/12 [00:00<?, ?it/s]      10/10      2.05G      1.107      1.673      1.275         64        640:   0%|          | 0/12 [00:00<?, ?it/s]      10/10      2.05G      1.107      1.673      1.275         64        640:  17%|â–ˆâ–‹        | 2/12 [00:00<00:00, 12.80it/s]
…
ixup=0.0, copy_paste=0.0, copy_paste_mode=flip, auto_augment=randaugment, erasing=0.4, crop_fraction=1.0, cfg=None, tracker=botsort.yaml, save_dir=runs/detect/train1992[32m [repeated 4x across cluster][0m
[36m(ClientAppActor pid=404750)[0m Overriding class names with single class.[32m [repeated 4x across cluster][0m
[36m(ClientAppActor pid=404750)[0m                    from  n    params  module                                       arguments                     [32m [repeated 4x across cluster][0m
[36m(ClientAppActor pid=404750)[0m  19                  -1  1    147712  ultralytics.nn.modules.conv.Conv             [128, 128, 3, 2]              [32m [repeated 28x across cluster][0m
[36m(ClientAppActor pid=404750)[0m   8                  -1  1    460288  ultralytics.nn.modules.block.C2f             [256, 256, 1, True]           [32m [repeated 16x across cluster][0m
[36m(ClientAppActor pid=404750)[0m   9                  -1  1    164608  ultralytics.nn.modules.block.SPPF            [256, 256, 5]                 [32m [repeated 4x across cluster][0m
[36m(ClientAppActor pid=404750)[0m  13                  -1  1         0  torch.nn.modules.upsampling.Upsample         [None, 2, 'nearest']          [32m [repeated 8x across cluster][0m
[36m(ClientAppActor pid=404750)[0m  20             [-1, 9]  1         0  ultralytics.nn.modules.conv.Concat           [1]                           [32m [repeated 16x across cluster][0m
[36m(ClientAppActor pid=404750)[0m  22        [15, 18, 21]  1    751507  ultralytics.nn.modules.head.Detect           [1, [64, 128, 256]]           [32m [repeated 4x across cluster][0m
[36m(ClientAppActor pid=404750)[0m Model summary: 129 layers, 3,011,043 parameters, 3,011,027 gradients, 8.2 GFLOPs[32m [repeated 4x across cluster][0m
[36m(ClientAppActor pid=404750)[0m Transferred 355/355 items from pretrained weights[32m [repeated 4x across cluster][0m
[36m(ClientAppActor pid=404750)[0m [34m[1mTensorBoard: [0mStart with 'tensorboard --logdir runs/detect/train1992', view at http://localhost:6006/[32m [repeated 4x across cluster][0m
…
ixup=0.0, copy_paste=0.0, copy_paste_mode=flip, auto_augment=randaugment, erasing=0.4, crop_fraction=1.0, cfg=None, tracker=botsort.yaml, save_dir=runs/detect/train1995[32m [repeated 2x across cluster][0m
[36m(ClientAppActor pid=404744)[0m Overriding class names with single class.[32m [repeated 2x across cluster][0m
[36m(ClientAppActor pid=404744)[0m                    from  n    params  module                                       arguments                     [32m [repeated 2x across cluster][0m
[36m(ClientAppActor pid=404744)[0m  19                  -1  1    147712  ultralytics.nn.modules.conv.Conv             [128, 128, 3, 2]              [32m [repeated 14x across cluster][0m
[36m(ClientAppActor pid=404744)[0m   8                  -1  1    460288  ultralytics.nn.modules.block.C2f             [256, 256, 1, True]           [32m [repeated 8x across cluster][0m
[36m(ClientAppActor pid=404744)[0m   9                  -1  1    164608  ultralytics.nn.modules.block.SPPF            [256, 256, 5]                 [32m [repeated 2x across cluster][0m
[36m(ClientAppActor pid=404744)[0m  13                  -1  1         0  torch.nn.modules.upsampling.Upsample         [None, 2, 'nearest']          [32m [repeated 4x across cluster][0m
[36m(ClientAppActor pid=404744)[0m  20             [-1, 9]  1         0  ultralytics.nn.modules.conv.Concat           [1]                           [32m [repeated 8x across cluster][0m
[36m(ClientAppActor pid=404744)[0m  22        [15, 18, 21]  1    751507  ultralytics.nn.modules.head.Detect           [1, [64, 128, 256]]           [32m [repeated 2x across cluster][0m
[36m(ClientAppActor pid=404744)[0m Model summary: 129 layers, 3,011,043 parameters, 3,011,027 gradients, 8.2 GFLOPs[32m [repeated 2x across cluster][0m
[36m(ClientAppActor pid=404744)[0m Transferred 355/355 items from pretrained weights[32m [repeated 2x across cluster][0m
[36m(ClientAppActor pid=404744)[0m [34m[1mTensorBoard: [0mStart with 'tensorboard --logdir runs/detect/train1995', view at http://localhost:6006/[32m [repeated 2x across cluster][0m
…
, shear=0.0, perspective=0.0, flipud=0.0, fliplr=0.5, bgr=0.0, mosaic=1.0, mixup=0.0, copy_paste=0.0, copy_paste_mode=flip, auto_augment=randaugment, erasing=0.4, crop_fraction=1.0, cfg=None, tracker=botsort.yaml, save_dir=runs/detect/train1996
[36m(ClientAppActor pid=404746)[0m Overriding class names with single class.
[36m(ClientAppActor pid=404746)[0m 
[36m(ClientAppActor pid=404746)[0m                    from  n    params  module                                       arguments                     
[36m(ClientAppActor pid=404746)[0m   0                  -1  1       464  ultralytics.nn.modules.conv.Conv             [3, 16, 3, 2]                 
[36m(ClientAppActor pid=404746)[0m   1                  -1  1      4672  ultralytics.nn.modules.conv.Conv             [16, 32, 3, 2]                
[36m(ClientAppActor pid=404746)[0m   2                  -1  1      7360  ultralytics.nn.modules.block.C2f             [32, 32, 1, True]             
[36m(ClientAppActor pid=404746)[0m   3                  -1  1     18560  ultralytics.nn.modules.conv.Conv             [32, 64, 3, 2]                
[36m(ClientAppActor pid=404746)[0m   4                  -1  2     49664  ultralytics.nn.modules.block.C2f             [64, 64, 2, True]             
[36m(ClientAppActor pid=404746)[0m   5                  -1  1     73984  ultralytics.nn.modules.conv.Conv             [64, 128, 3, 2]               
[36m(ClientAppActor pid=404746)[0m   6                  -1  2    197632  ultralytics.nn.modules.block.C2f             [128, 128, 2, True]           
[36m(ClientAppActor pid=404746)[0m   7                  -1  1    295424  ultralytics.nn.modules.conv.Conv             [128, 256, 3, 2]              
[36m(ClientAppActor pid=404746)[0m   8                  -1  1    460288  ultralytics.nn.modules.block.C2f             [256, 256, 1, True]           
[36m(ClientAppActor pid=404746)[0m   9                  -1  1    164608  ultralytics.nn.modules.block.SPPF            [256, 256, 5]                 
[36m(ClientAppActor pid=404746)[0m  10                  -1  1         0  torch.nn.modules.upsampling.Upsample         [None, 2, 'nearest']          
[36m(ClientAppActor pid=404746)[0m  11             [-1, 6]  1         0  ultralytics.nn.modules.conv.Concat           [1]                           
[36m(ClientAppActor pid=404746)[0m  12                  -1  1    148224  ultralytics.nn.modules.block.C2f             [384, 128, 1]                 
[36m(ClientAppActor pid=404746)[0m  13                  -1  1         0  torch.nn.modules.upsampling.Upsample         [None, 2, 'nearest']          
[36m(ClientAppActor pid=404746)[0m  14             [-1, 4]  1         0  ultralytics.nn.modules.conv.Concat           [1]                           
[36m(ClientAppActor pid=404746)[0m  15                  -1  1     37248  ultralytics.nn.modules.block.C2f             [192, 64, 1]                  
[36m(ClientAppActor pid=404746)[0m  16                  -1  1     36992  ultralytics.nn.modules.conv.Conv             [64, 64, 3, 2]                
[36m(ClientAppActor pid=404746)[0m  17            [-1, 12]  1         0  ultralytics.nn.modules.conv.Concat           [1]                           
[36m(ClientAppActor pid=404746)[0m  18                  -1  1    123648  ultralytics.nn.modules.block.C2f             [192, 128, 1]                 
[36m(ClientAppActor pid=404746)[0m  19                  -1  1    147712  ultralytics.nn.modules.conv.Conv             [128, 128, 3, 2]              
[36m(ClientAppActor pid=404746)[0m  20             [-1, 9]  1         0  ultralytics.nn.modules.conv.Concat           [1]                           
[36m(ClientAppActor pid=404746)[0m  21                  -1  1    493056  ultralytics.nn.modules.block.C2f             [384, 256, 1]                 
[36m(ClientAppActor pid=404746)[0m  22        [15, 18, 21]  1    751507  ultralytics.nn.modules.head.Detect           [1, [64, 128, 256]]           
[36m(ClientAppActor pid=404746)[0m                    all         58        117      0.466      0.479      0.425       0.26[32m [repeated 7x across cluster][0m
[36m(ClientAppActor pid=404744)[0m [Client 11] Device: cuda:0[32m [repeated 8x across cluster][0m
[36m(ClientAppActor pid=404746)[0m Speed: 0.8ms preprocess, 3.5ms inference, 0.0ms loss, 3.6ms postprocess per image[32m [repeated 8x across cluster][0m
[36m(ClientAppActor pid=404746)[0m Results saved to [1mruns/detect/val1964[0m[32m [repeated 8x across cluster][0m
[36m(ClientAppActor pid=404750)[0m 
[36m(ClientAppActor pid=404750)[0m  12                  -1  1    148224  ultralytics.nn.modules.block.C2f             [384, 128, 1]                 
[36m(ClientAppActor pid=404750)[0m  15                  -1  1     37248  ultralytics.nn.modules.block.C2f             [192, 64, 1]                  
[36m(ClientAppActor pid=404750)[0m  18                  -1  1    123648  ultralytics.nn.modules.block.C2f             [192, 128, 1]                 
[36m(ClientAppActor pid=404750)[0m  21                  -1  1    493056  ultralytics.nn.modules.block.C2f             [384, 256, 1]                 
[36m(ClientAppActor pid=404746)[0m Model summary: 129 layers, 3,011,043 parameters, 3,011,027 gradients, 8.2 GFLOPs
[36m(ClientAppActor pid=404746)[0m 
[36m(ClientAppActor pid=404746)[0m Transferred 355/355 items from pretrained weights
[36m(ClientAppActor pid=404746)[0m [34m[1mTensorBoard: [0mStart with 'tensorboard --logdir runs/detect/train1996', view at http://localhost:6006/
[36m(ClientAppActor pid=404746)[0m Freezing layer 'model.22.dfl.conv.weight'
[36m(ClientAppActor pid=404746)[0m [34m[1mAMP: [0mrunning Automatic Mixed Precision (AMP) checks...
[36m(ClientAppActor pid=404741)[0m 
[36m(ClientAppActor pid=404750)[0m 
[36m(ClientAppActor pid=404747)[0m 
[36m(ClientAppActor pid=404747)[0m  12                  -1  1    148224  ultralytics.nn.modules.block.C2f             [384, 128, 1]                 
[36m(ClientAppActor pid=404747)[0m  15                  -1  1     37248  ultralytics.nn.modules.block.C2f             [192, 64, 1]                  
[36m(ClientAppActor pid=404747)[0m  18                  -1  1    123648  ultralytics.nn.modules.block.C2f             [192, 128, 1]                 
[36m(ClientAppActor pid=404747)[0m  21                  -1  1    493056  ultralytics.nn.modules.block.C2f             [384, 256, 1]                 
[36m(ClientAppActor pid=404746)[0m [34m[1mtrain: [0mScanning /WehbeDocker/YOLOV8N/datasets/client_13/train/labels.cache... 188 images, 0 backgrounds, 0 corrupt: 100%|â–ˆâ–ˆâ–ˆâ–ˆâ–ˆâ–ˆâ–ˆâ–ˆâ–ˆâ–ˆ| 188/188 [00:00<?, ?it/s][34m[1mtrain: [0mScanning /WehbeDocker/YOLOV8N/datasets/client_13/train/labels.cache... 188 images, 0 backgrounds, 0 corrupt: 100%|â–ˆâ–ˆâ–ˆâ–ˆâ–ˆâ–ˆâ–ˆâ–ˆâ–ˆâ–ˆ| 188/188 [00:00<?, ?it/s]
…
[36m(ClientAppActor pid=404746)[0m                  Class     Images  Instances      Box(P          R      mAP50  mAP50-95): 100%|â–ˆâ–ˆâ–ˆâ–ˆâ–ˆâ–ˆâ–ˆâ–ˆâ–ˆâ–ˆ| 4/4 [00:04<00:00,  1.26it/s]                 Class     Images  Instances      Box(P          R      mAP50  mAP50-95): 100%|â–ˆâ–ˆâ–ˆâ–ˆâ–ˆâ–ˆâ–ˆâ–ˆâ–ˆâ–ˆ| 4/4 [00:04<00:00,  1.20s/it][32m [repeated 4x across cluster][0m
[36m(ClientAppActor pid=404750)[0m [34m[1mtrain: [0mScanning /WehbeDocker/YOLOV8N/datasets/client_4/train/labels.cache... 126 images, 0 backgrounds, 0 corrupt: 100%|â–ˆâ–ˆâ–ˆâ–ˆâ–ˆâ–ˆâ–ˆâ–ˆâ–ˆâ–ˆ| 126/126 [00:00<?, ?it/s][34m[1mtrain: [0mScanning /WehbeDocker/YOLOV8N/datasets/client_4/train/labels.cache... 126 images, 0 backgrounds, 0 corrupt: 100%|â–ˆâ–ˆâ–ˆâ–ˆâ–ˆâ–ˆâ–ˆâ–ˆâ–ˆâ–ˆ| 126/126 [00:00<?, ?it/s]
[36m(ClientAppActor pid=404741)[0m  12                  -1  1    148224  ultralytics.nn.modules.block.C2f             [384, 128, 1]                 
[36m(ClientAppActor pid=404741)[0m  15                  -1  1     37248  ultralytics.nn.modules.block.C2f             [192, 64, 1]                  
[36m(ClientAppActor pid=404741)[0m  18                  -1  1    123648  ultralytics.nn.modules.block.C2f             [192, 128, 1]                 
[36m(ClientAppActor pid=404741)[0m  21                  -1  1    493056  ultralytics.nn.modules.block.C2f             [384, 256, 1]                 
[36m(ClientAppActor pid=404743)[0m 
[36m(ClientAppActor pid=404747)[0m 
[36m(ClientAppActor pid=404748)[0m 
[36m(ClientAppActor pid=404748)[0m  12                  -1  1    148224  ultralytics.nn.modules.block.C2f             [384, 128, 1]                 
[36m(ClientAppActor pid=404748)[0m  15                  -1  1     37248  ultralytics.nn.modules.block.C2f             [192, 64, 1]                  
[36m(ClientAppActor pid=404748)[0m  18                  -1  1    123648  ultralytics.nn.modules.block.C2f             [192, 128, 1]                 
[36m(ClientAppActor pid=404748)[0m  21                  -1  1    493056  ultralytics.nn.modules.block.C2f             [384, 256, 1]                 
[36m(ClientAppActor pid=404741)[0m 
[36m(ClientAppActor pid=404740)[0m 
[36m(ClientAppActor pid=404740)[0m  12                  -1  1    148224  ultralytics.nn.modules.block.C2f             [384, 128, 1]                 
[36m(ClientAppActor pid=404740)[0m  15                  -1  1     37248  ultralytics.nn.modules.block.C2f             [192, 64, 1]                  
[36m(ClientAppActor pid=404740)[0m  18                  -1  1    123648  ultralytics.nn.modules.block.C2f             [192, 128, 1]                 
[36m(ClientAppActor pid=404740)[0m  21                  -1  1    493056  ultralytics.nn.modules.block.C2f             [384, 256, 1]                 
[36m(ClientAppActor pid=404744)[0m 
[36m(ClientAppActor pid=404744)[0m  12                  -1  1    148224  ultralytics.nn.modules.block.C2f             [384, 128, 1]                 
[36m(ClientAppActor pid=404744)[0m  15                  -1  1     37248  ultralytics.nn.modules.block.C2f             [192, 64, 1]                  
[36m(ClientAppActor pid=404744)[0m  18                  -1  1    123648  ultralytics.nn.modules.block.C2f             [192, 128, 1]                 
[36m(ClientAppActor pid=404744)[0m  21                  -1  1    493056  ultralytics.nn.modules.block.C2f             [384, 256, 1]                 
[36m(ClientAppActor pid=404743)[0m  12                  -1  1    148224  ultralytics.nn.modules.block.C2f             [384, 128, 1]                 
[36m(ClientAppActor pid=404743)[0m  15                  -1  1     37248  ultralytics.nn.modules.block.C2f             [192, 64, 1]                  
[36m(ClientAppActor pid=404743)[0m  18                  -1  1    123648  ultralytics.nn.modules.block.C2f             [192, 128, 1]                 
[36m(ClientAppActor pid=404743)[0m  21                  -1  1    493056  ultralytics.nn.modules.block.C2f             [384, 256, 1]                 
[36m(ClientAppActor pid=404748)[0m 
[36m(ClientAppActor pid=404744)[0m 
[36m(ClientAppActor pid=404743)[0m 
[36m(ClientAppActor pid=404746)[0m [34m[1mAMP: [0mchecks passed âœ…
[36m(ClientAppActor pid=404740)[0m 
[36m(ClientAppActor pid=404746)[0m Plotting labels to runs/detect/train1996/labels.jpg... 
[36m(ClientAppActor pid=404744)[0m New https://pypi.org/project/ultralytics/8.3.122 available ðŸ˜ƒ Update with 'pip install -U ultralytics'[32m [repeated 7x across cluster][0m
…
, shear=0.0, perspective=0.0, flipud=0.0, fliplr=0.5, bgr=0.0, mosaic=1.0, mixup=0.0, copy_paste=0.0, copy_paste_mode=flip, auto_augment=randaugment, erasing=0.4, crop_fraction=1.0, cfg=None, tracker=botsort.yaml, save_dir=runs/detect/train2004
[36m(ClientAppActor pid=404750)[0m Overriding class names with single class.
[36m(ClientAppActor pid=404750)[0m 
[36m(ClientAppActor pid=404750)[0m                    from  n    params  module                                       arguments                     
[36m(ClientAppActor pid=404750)[0m   0                  -1  1       464  ultralytics.nn.modules.conv.Conv             [3, 16, 3, 2]                 
[36m(ClientAppActor pid=404750)[0m   1                  -1  1      4672  ultralytics.nn.modules.conv.Conv             [16, 32, 3, 2]                
[36m(ClientAppActor pid=404750)[0m   2                  -1  1      7360  ultralytics.nn.modules.block.C2f             [32, 32, 1, True]             
[36m(ClientAppActor pid=404750)[0m   3                  -1  1     18560  ultralytics.nn.modules.conv.Conv             [32, 64, 3, 2]                
[36m(ClientAppActor pid=404750)[0m   4                  -1  2     49664  ultralytics.nn.modules.block.C2f             [64, 64, 2, True]             
[36m(ClientAppActor pid=404750)[0m   5                  -1  1     73984  ultralytics.nn.modules.conv.Conv             [64, 128, 3, 2]               
[36m(ClientAppActor pid=404750)[0m   6                  -1  2    197632  ultralytics.nn.modules.block.C2f             [128, 128, 2, True]           
[36m(ClientAppActor pid=404750)[0m   7                  -1  1    295424  ultralytics.nn.modules.conv.Conv             [128, 256, 3, 2]              
[36m(ClientAppActor pid=404750)[0m   8                  -1  1    460288  ultralytics.nn.modules.block.C2f             [256, 256, 1, True]           
[36m(ClientAppActor pid=404750)[0m   9                  -1  1    164608  ultralytics.nn.modules.block.SPPF            [256, 256, 5]                 
[36m(ClientAppActor pid=404750)[0m  10                  -1  1         0  torch.nn.modules.upsampling.Upsample         [None, 2, 'nearest']          
[36m(ClientAppActor pid=404750)[0m  11             [-1, 6]  1         0  ultralytics.nn.modules.conv.Concat           [1]                           
[36m(ClientAppActor pid=404750)[0m  12                  -1  1    148224  ultralytics.nn.modules.block.C2f             [384, 128, 1]                 
[36m(ClientAppActor pid=404750)[0m  13                  -1  1         0  torch.nn.modules.upsampling.Upsample         [None, 2, 'nearest']          
[36m(ClientAppActor pid=404750)[0m  14             [-1, 4]  1         0  ultralytics.nn.modules.conv.Concat           [1]                           
[36m(ClientAppActor pid=404750)[0m  15                  -1  1     37248  ultralytics.nn.modules.block.C2f             [192, 64, 1]                  
[36m(ClientAppActor pid=404750)[0m  16                  -1  1     36992  ultralytics.nn.modules.conv.Conv             [64, 64, 3, 2]                
[36m(ClientAppActor pid=404750)[0m  17            [-1, 12]  1         0  ultralytics.nn.modules.conv.Concat           [1]                           
[36m(ClientAppActor pid=404750)[0m  18                  -1  1    123648  ultralytics.nn.modules.block.C2f             [192, 128, 1]                 
[36m(ClientAppActor pid=404750)[0m  19                  -1  1    147712  ultralytics.nn.modules.conv.Conv             [128, 128, 3, 2]              
[36m(ClientAppActor pid=404750)[0m  20             [-1, 9]  1         0  ultralytics.nn.modules.conv.Concat           [1]                           
[36m(ClientAppActor pid=404750)[0m  21                  -1  1    493056  ultralytics.nn.modules.block.C2f             [384, 256, 1]                 
[36m(ClientAppActor pid=404746)[0m                  Class     Images  Instances      Box(P          R      mAP50  mAP50-95):  50%|â–ˆâ–ˆâ–ˆâ–ˆâ–ˆ     | 1/2 [00:00<00:00,  3.17it/s][32m [repeated 7x across cluster][0m
[36m(ClientAppActor pid=404747)[0m        9/10       2.1G      1.185      1.734      1.289         91        640:  42%|â–ˆâ–ˆâ–ˆâ–ˆâ–     | 5/12 [00:00<00:00, 11.75it/s][32m [repeated 8x across cluster][0m
…
[36m(ClientAppActor pid=404747)[0m       10/10      2.25G      1.215      1.701      1.323        110        640:  42%|â–ˆâ–ˆâ–ˆâ–ˆâ–     | 5/12 [00:01<00:01,  6.18it/s]      10/10      2.25G      1.215      1.701      1.323        110        640:  50%|â–ˆâ–ˆâ–ˆâ–ˆâ–ˆ     | 6/12 [00:01<00:01,  4.84it/s][32m [repeated 30x across cluster][0m
[36m(ClientAppActor pid=404744)[0m                  Class     Images  Instances      Box(P          R      mAP50  mAP50-95):  50%|â–ˆâ–ˆâ–ˆâ–ˆâ–ˆ     | 1/2 [00:00<00:00,  3.45it/s][32m [repeated 4x across cluster][0m
[36m(ClientAppActor pid=404750)[0m  22        [15, 18, 21]  1    751507  ultralytics.nn.modules.head.Detect           [1, [64, 128, 256]]           
[36m(ClientAppActor pid=404740)[0m 
[36m(ClientAppActor pid=404740)[0m  12                  -1  1    148224  ultralytics.nn.modules.block.C2f             [384, 128, 1]                 
[36m(ClientAppActor pid=404740)[0m  15                  -1  1     37248  ultralytics.nn.modules.block.C2f             [192, 64, 1]                  
[36m(ClientAppActor pid=404740)[0m  18                  -1  1    123648  ultralytics.nn.modules.block.C2f             [192, 128, 1]                 
[36m(ClientAppActor pid=404740)[0m  21                  -1  1    493056  ultralytics.nn.modules.block.C2f             [384, 256, 1]                 
[36m(ClientAppActor pid=404750)[0m Model summary: 129 layers, 3,011,043 parameters, 3,011,027 gradients, 8.2 GFLOPs
[36m(ClientAppActor pid=404750)[0m 
[36m(ClientAppActor pid=404750)[0m Transferred 355/355 items from pretrained weights
[36m(ClientAppActor pid=404750)[0m [34m[1mTensorBoard: [0mStart with 'tensorboard --logdir runs/detect/train2004', view at http://localhost:6006/
[36m(ClientAppActor pid=404741)[0m 
[36m(ClientAppActor pid=404748)[0m 
[36m(ClientAppActor pid=404740)[0m 
[36m(ClientAppActor pid=404744)[0m 
[36m(ClientAppActor pid=404748)[0m  12                  -1  1    148224  ultralytics.nn.modules.block.C2f             [384, 128, 1]                 
[36m(ClientAppActor pid=404748)[0m  15                  -1  1     37248  ultralytics.nn.modules.block.C2f             [192, 64, 1]                  
[36m(ClientAppActor pid=404748)[0m  18                  -1  1    123648  ultralytics.nn.modules.block.C2f             [192, 128, 1]                 
[36m(ClientAppActor pid=404748)[0m  21                  -1  1    493056  ultralytics.nn.modules.block.C2f             [384, 256, 1]                 
[36m(ClientAppActor pid=404748)[0m 
[36m(ClientAppActor pid=404743)[0m Model summary (fused): 72 layers, 3,005,843 parameters, 0 gradients, 8.1 GFLOPs
[36m(ClientAppActor pid=404746)[0m 
[36m(ClientAppActor pid=404746)[0m 10 epochs completed in 0.018 hours.
[36m(ClientAppActor pid=404746)[0m 
[36m(ClientAppActor pid=404746)[0m Validating runs/detect/train1996/weights/best.pt...
…
ixup=0.0, copy_paste=0.0, copy_paste_mode=flip, auto_augment=randaugment, erasing=0.4, crop_fraction=1.0, cfg=None, tracker=botsort.yaml, save_dir=runs/detect/train2007[32m [repeated 3x across cluster][0m
[36m(ClientAppActor pid=404743)[0m Overriding class names with single class.[32m [repeated 3x across cluster][0m
[36m(ClientAppActor pid=404743)[0m                    from  n    params  module                                       arguments                     [32m [repeated 3x across cluster][0m
[36m(ClientAppActor pid=404748)[0m  19                  -1  1    147712  ultralytics.nn.modules.conv.Conv             [128, 128, 3, 2]              [32m [repeated 14x across cluster][0m
[36m(ClientAppActor pid=404748)[0m   8                  -1  1    460288  ultralytics.nn.modules.block.C2f             [256, 256, 1, True]           [32m [repeated 8x across cluster][0m
[36m(ClientAppActor pid=404748)[0m   9                  -1  1    164608  ultralytics.nn.modules.block.SPPF            [256, 256, 5]                 [32m [repeated 2x across cluster][0m
[36m(ClientAppActor pid=404748)[0m  13                  -1  1         0  torch.nn.modules.upsampling.Upsample         [None, 2, 'nearest']          [32m [repeated 4x across cluster][0m
[36m(ClientAppActor pid=404748)[0m  20             [-1, 9]  1         0  ultralytics.nn.modules.conv.Concat           [1]                           [32m [repeated 8x across cluster][0m
[36m(ClientAppActor pid=404748)[0m  22        [15, 18, 21]  1    751507  ultralytics.nn.modules.head.Detect           [1, [64, 128, 256]]           [32m [repeated 2x across cluster][0m
[36m(ClientAppActor pid=404748)[0m Model summary: 129 layers, 3,011,043 parameters, 3,011,027 gradients, 8.2 GFLOPs[32m [repeated 2x across cluster][0m
[36m(ClientAppActor pid=404748)[0m Transferred 355/355 items from pretrained weights[32m [repeated 2x across cluster][0m
[36m(ClientAppActor pid=404748)[0m [34m[1mTensorBoard: [0mStart with 'tensorboard --logdir runs/detect/train2006', view at http://localhost:6006/[32m [repeated 2x across cluster][0m
[36m(ClientAppActor pid=404750)[0m Plotting labels to runs/detect/train2004/labels.jpg... 
[36m(ClientAppActor pid=404743)[0m  12                  -1  1    148224  ultralytics.nn.modules.block.C2f             [384, 128, 1]                 
[36m(ClientAppActor pid=404743)[0m  15                  -1  1     37248  ultralytics.nn.modules.block.C2f             [192, 64, 1]                  
[36m(ClientAppActor pid=404743)[0m  18                  -1  1    123648  ultralytics.nn.modules.block.C2f             [192, 128, 1]                 
[36m(ClientAppActor pid=404743)[0m  21                  -1  1    493056  ultralytics.nn.modules.block.C2f             [384, 256, 1]                 
[36m(ClientAppActor pid=404744)[0m        9/10      2.03G      1.158      1.616      1.311         51        640:  86%|â–ˆâ–ˆâ–ˆâ–ˆâ–ˆâ–ˆâ–ˆâ–ˆâ–Œ | 12/14 [00:02<00:00,  5.42it/s]       9/10      2.03G      1.158      1.616      1.311         51        640:  93%|â–ˆâ–ˆâ–ˆâ–ˆâ–ˆâ–ˆâ–ˆâ–ˆâ–ˆâ–Ž| 13/14 [00:02<00:00,  6.29it/s]       9/10      2.04G      1.147      1.614       1.31         13        640:  93%|â–ˆâ–ˆâ–ˆâ–ˆâ–ˆâ–ˆâ–ˆâ–ˆâ–ˆâ–Ž| 13/14 [00:02<00:00,  6.29it/s]       9/10      2.04G      1.147      1.614       1.31         13        640: 100%|â–ˆâ–ˆâ–ˆâ–ˆâ–ˆâ–ˆâ–ˆâ–ˆâ–ˆâ–ˆ| 14/14 [00:02<00:00,  5.24it/s][32m [repeated 3x across cluster][0m
…
[36m(ClientAppActor pid=404746)[0m Results saved to [1mruns/detect/train1996[0m
[36m(ClientAppActor pid=404748)[0m [34m[1mAMP: [0mchecks passed âœ…[32m [repeated 2x across cluster][0m
[36m(ClientAppActor pid=404746)[0m                    all         37         78      0.648      0.564       0.65      0.488
[36m(ClientAppActor pid=404744)[0m       Epoch    GPU_mem   box_loss   cls_loss   dfl_loss  Instances       Size
[36m(ClientAppActor pid=404744)[0m                    all         47        103      0.528      0.408      0.392      0.243
[36m(ClientAppActor pid=404743)[0m  19                  -1  1    147712  ultralytics.nn.modules.conv.Conv             [128, 128, 3, 2]              [32m [repeated 7x across cluster][0m
[36m(ClientAppActor pid=404743)[0m   8                  -1  1    460288  ultralytics.nn.modules.block.C2f             [256, 256, 1, True]           [32m [repeated 4x across cluster][0m
[36m(ClientAppActor pid=404743)[0m   9                  -1  1    164608  ultralytics.nn.modules.block.SPPF            [256, 256, 5]                 
[36m(ClientAppActor pid=404743)[0m  13                  -1  1         0  torch.nn.modules.upsampling.Upsample         [None, 2, 'nearest']          [32m [repeated 2x across cluster][0m
[36m(ClientAppActor pid=404743)[0m  20             [-1, 9]  1         0  ultralytics.nn.modules.conv.Concat           [1]                           [32m [repeated 4x across cluster][0m
[36m(ClientAppActor pid=404743)[0m  22        [15, 18, 21]  1    751507  ultralytics.nn.modules.head.Detect           [1, [64, 128, 256]]           
[36m(ClientAppActor pid=404743)[0m Model summary: 129 layers, 3,011,043 parameters, 3,011,027 gradients, 8.2 GFLOPs
[36m(ClientAppActor pid=404743)[0m Transferred 355/355 items from pretrained weights
[36m(ClientAppActor pid=404743)[0m [34m[1mTensorBoard: [0mStart with 'tensorboard --logdir runs/detect/train2007', view at http://localhost:6006/
[36m(ClientAppActor pid=404740)[0m Plotting labels to runs/detect/train2005/labels.jpg... [32m [repeated 2x across cluster][0m
…
[36m(ClientAppActor pid=404748)[0m                  Class     Images  Instances      Box(P          R      mAP50  mAP50-95):  50%|â–ˆâ–ˆâ–ˆâ–ˆâ–ˆ     | 1/2 [00:00<00:00,  1.99it/s]
[36m(ClientAppActor pid=404743)[0m                  Class     Images  Instances      Box(P          R      mAP50  mAP50-95): 100%|â–ˆâ–ˆâ–ˆâ–ˆâ–ˆâ–ˆâ–ˆâ–ˆâ–ˆâ–ˆ| 1/1 [00:00<00:00,  8.95it/s]                 Class     Images  Instances      Box(P          R      mAP50  mAP50-95): 100%|â–ˆâ–ˆâ–ˆâ–ˆâ–ˆâ–ˆâ–ˆâ–ˆâ–ˆâ–ˆ| 1/1 [00:00<00:00,  8.88it/s][32m [repeated 4x across cluster][0m
[36m(ClientAppActor pid=404741)[0m   1                  -1  1      4672  ultralytics.nn.modules.conv.Conv             [16, 32, 3, 2]                
[36m(ClientAppActor pid=404741)[0m   2                  -1  1      7360  ultralytics.nn.modules.block.C2f             [32, 32, 1, True]             
[36m(ClientAppActor pid=404741)[0m   3                  -1  1     18560  ultralytics.nn.modules.conv.Conv             [32, 64, 3, 2]                
[36m(ClientAppActor pid=404741)[0m   4                  -1  2     49664  ultralytics.nn.modules.block.C2f             [64, 64, 2, True]             
[36m(ClientAppActor pid=404741)[0m   5                  -1  1     73984  ultralytics.nn.modules.conv.Conv             [64, 128, 3, 2]               
[36m(ClientAppActor pid=404741)[0m   6                  -1  2    197632  ultralytics.nn.modules.block.C2f             [128, 128, 2, True]           
[36m(ClientAppActor pid=404741)[0m   7                  -1  1    295424  ultralytics.nn.modules.conv.Conv             [128, 256, 3, 2]              
[36m(ClientAppActor pid=404744)[0m 
[36m(ClientAppActor pid=404743)[0m                    all         13         40       0.34       0.35      0.282      0.162[32m [repeated 5x across cluster][0m
[36m(ClientAppActor pid=404747)[0m 
[36m(ClientAppActor pid=404741)[0m   9                  -1  1    164608  ultralytics.nn.modules.block.SPPF            [256, 256, 5]                 
[36m(ClientAppActor pid=404741)[0m  10                  -1  1         0  torch.nn.modules.upsampling.Upsample         [None, 2, 'nearest']          
[36m(ClientAppActor pid=404741)[0m  11             [-1, 6]  1         0  ultralytics.nn.modules.conv.Concat           [1]                           
[36m(ClientAppActor pid=404741)[0m  12                  -1  1    148224  ultralytics.nn.modules.block.C2f             [384, 128, 1]                 
[36m(ClientAppActor pid=404741)[0m  13                  -1  1         0  torch.nn.modules.upsampling.Upsample         [None, 2, 'nearest']          
[36m(ClientAppActor pid=404741)[0m  14             [-1, 4]  1         0  ultralytics.nn.modules.conv.Concat           [1]                           
[36m(ClientAppActor pid=404741)[0m  15                  -1  1     37248  ultralytics.nn.modules.block.C2f             [192, 64, 1]                  
[36m(ClientAppActor pid=404741)[0m  17            [-1, 12]  1         0  ultralytics.nn.modules.conv.Concat           [1]                           
[36m(ClientAppActor pid=404741)[0m  18                  -1  1    123648  ultralytics.nn.modules.block.C2f             [192, 128, 1]                 
[36m(ClientAppActor pid=404741)[0m  20             [-1, 9]  1         0  ultralytics.nn.modules.conv.Concat           [1]                           
[36m(ClientAppActor pid=404741)[0m  21                  -1  1    493056  ultralytics.nn.modules.block.C2f             [384, 256, 1]                 
[36m(ClientAppActor pid=404741)[0m  22        [15, 18, 21]  1    751507  ultralytics.nn.modules.head.Detect           [1, [64, 128, 256]]           
[36m(ClientAppActor pid=404740)[0m 
[36m(ClientAppActor pid=404744)[0m  12                  -1  1    148224  ultralytics.nn.modules.block.C2f             [384, 128, 1]                 
[36m(ClientAppActor pid=404747)[0m  12                  -1  1    148224  ultralytics.nn.modules.block.C2f             [384, 128, 1]                 
[36m(ClientAppActor pid=404744)[0m  15                  -1  1     37248  ultralytics.nn.modules.block.C2f             [192, 64, 1]                  
[36m(ClientAppActor pid=404747)[0m  15                  -1  1     37248  ultralytics.nn.modules.block.C2f             [192, 64, 1]                  
[36m(ClientAppActor pid=404744)[0m  18                  -1  1    123648  ultralytics.nn.modules.block.C2f             [192, 128, 1]                 
[36m(ClientAppActor pid=404747)[0m  18                  -1  1    123648  ultralytics.nn.modules.block.C2f             [192, 128, 1]                 
[36m(ClientAppActor pid=404744)[0m  21                  -1  1    493056  ultralytics.nn.modules.block.C2f             [384, 256, 1]                 
[36m(ClientAppActor pid=404750)[0m 
[36m(ClientAppActor pid=404747)[0m  21                  -1  1    493056  ultralytics.nn.modules.block.C2f             [384, 256, 1]                 
[36m(ClientAppActor pid=404741)[0m Model summary: 129 layers, 3,011,043 parameters, 3,011,027 gradients, 8.2 GFLOPs
[36m(ClientAppActor pid=404741)[0m 
[36m(ClientAppActor pid=404744)[0m 
[36m(ClientAppActor pid=404741)[0m Transferred 355/355 items from pretrained weights
[36m(ClientAppActor pid=404741)[0m [34m[1mTensorBoard: [0mStart with 'tensorboard --logdir runs/detect/train2009', view at http://localhost:6006/
…
 [repeated 60x across cluster][0m
[36m(ClientAppActor pid=404744)[0m        2/10      2.12G      1.542       2.43      1.535         61        640:  92%|â–ˆâ–ˆâ–ˆâ–ˆâ–ˆâ–ˆâ–ˆâ–ˆâ–ˆâ–| 12/13 [00:04<00:00,  3.10it/s]       2/10      2.12G      1.542       2.43      1.535         61        640: 100%|â–ˆâ–ˆâ–ˆâ–ˆâ–ˆâ–ˆâ–ˆâ–ˆâ–ˆâ–ˆ| 13/13 [00:04<00:00,  3.34it/s]       2/10      2.12G      1.542       2.43      1.535         61        640: 100%|â–ˆâ–ˆâ–ˆâ–ˆâ–ˆâ–ˆâ–ˆâ–ˆâ–ˆâ–ˆ| 13/13 [00:04<00:00,  2.68it/s]
[36m(ClientAppActor pid=404747)[0m   8                  -1  1    460288  ultralytics.nn.modules.block.C2f             [256, 256, 1, True]           [32m [repeated 9x across cluster][0m
[36m(ClientAppActor pid=404743)[0m                    all         13         40      0.354       0.37      0.289      0.172[32m [repeated 4x across cluster][0m
[36m(ClientAppActor pid=404747)[0m   9                  -1  1    164608  ultralytics.nn.modules.block.SPPF            [256, 256, 5]                 [32m [repeated 2x across cluster][0m
[36m(ClientAppActor pid=404747)[0m  13                  -1  1         0  torch.nn.modules.upsampling.Upsample         [None, 2, 'nearest']          [32m [repeated 4x across cluster][0m
[36m(ClientAppActor pid=404747)[0m  20             [-1, 9]  1         0  ultralytics.nn.modules.conv.Concat           [1]                           [32m [repeated 8x across cluster][0m
[36m(ClientAppActor pid=404747)[0m  22        [15, 18, 21]  1    751507  ultralytics.nn.modules.head.Detect           [1, [64, 128, 256]]           [32m [repeated 2x across cluster][0m
[36m(ClientAppActor pid=404747)[0m Model summary: 129 layers, 3,011,043 parameters, 3,011,027 gradients, 8.2 GFLOPs[32m [repeated 2x across cluster][0m
[36m(ClientAppActor pid=404746)[0m [34m[1mTensorBoard: [0mmodel graph visualization added âœ…
[36m(ClientAppActor pid=404747)[0m Transferred 355/355 items from pretrained weights[32m [repeated 2x across cluster][0m
…
[36m(ClientAppActor pid=404746)[0m   ap = np.trapz(np.interp(x, mrec, mpre), x)  # integrate
[36m(ClientAppActor pid=404746)[0m [34m[1mval: [0mScanning /WehbeDocker/YOLOV8N/datasets/client_6/valid/labels.cache... 23 images, 0 backgrounds, 0 corrupt: 100%|â–ˆâ–ˆâ–ˆâ–ˆâ–ˆâ–ˆâ–ˆâ–ˆâ–ˆâ–ˆ| 23/23 [00:00<?, ?it/s]
[36m(ClientAppActor pid=404746)[0m [34m[1mval: [0mScanning /WehbeDocker/YOLOV8N/datasets/client_6/valid/labels.cache... 23 images, 0 backgrounds, 0 corrupt: 100%|â–ˆâ–ˆâ–ˆâ–ˆâ–ˆâ–ˆâ–ˆâ–ˆâ–ˆâ–ˆ| 23/23 [00:00<?, ?it/s]
[36m(ClientAppActor pid=404743)[0m  21                  -1  1    493056  ultralytics.nn.modules.block.C2f             [384, 256, 1]                 
[36m(ClientAppActor pid=404743)[0m  22        [15, 18, 21]  1    751507  ultralytics.nn.modules.head.Detect           [1, [64, 128, 256]]           
[36m(ClientAppActor pid=404747)[0m [Client 2] Device: cuda:0[32m [repeated 8x across cluster][0m
[36m(ClientAppActor pid=404746)[0m                    all         37         78      0.807      0.423      0.614      0.474[32m [repeated 7x across cluster][0m
[36m(ClientAppActor pid=404746)[0m Speed: 1.1ms preprocess, 7.6ms inference, 0.0ms loss, 1.5ms postprocess per image[32m [repeated 8x across cluster][0m
[36m(ClientAppActor pid=404746)[0m Results saved to [1mruns/detect/val1980[0m[32m [repeated 8x across cluster][0m
[36m(ClientAppActor pid=404746)[0m 
[36m(ClientAppActor pid=404746)[0m  12                  -1  1    148224  ultralytics.nn.modules.block.C2f             [384, 128, 1]                 
[36m(ClientAppActor pid=404746)[0m  15                  -1  1     37248  ultralytics.nn.modules.block.C2f             [192, 64, 1]                  
[36m(ClientAppActor pid=404746)[0m  18                  -1  1    123648  ultralytics.nn.modules.block.C2f             [192, 128, 1]                 
[36m(ClientAppActor pid=404746)[0m  21                  -1  1    493056  ultralytics.nn.modules.block.C2f             [384, 256, 1]                 
[36m(ClientAppActor pid=404741)[0m 
[36m(ClientAppActor pid=404741)[0m  12                  -1  1    148224  ultralytics.nn.modules.block.C2f             [384, 128, 1]                 
[36m(ClientAppActor pid=404741)[0m  15                  -1  1     37248  ultralytics.nn.modules.block.C2f             [192, 64, 1]                  
[36m(ClientAppActor pid=404741)[0m  18                  -1  1    123648  ultralytics.nn.modules.block.C2f             [192, 128, 1]                 
[36m(ClientAppActor pid=404741)[0m  21                  -1  1    493056  ultralytics.nn.modules.block.C2f             [384, 256, 1]                 
[36m(ClientAppActor pid=404744)[0m 
[36m(ClientAppActor pid=404744)[0m  12                  -1  1    148224  ultralytics.nn.modules.block.C2f             [384, 128, 1]                 
[36m(ClientAppActor pid=404744)[0m  15                  -1  1     37248  ultralytics.nn.modules.block.C2f             [192, 64, 1]                  
[36m(ClientAppActor pid=404744)[0m  18                  -1  1    123648  ultralytics.nn.modules.block.C2f             [192, 128, 1]                 
[36m(ClientAppActor pid=404744)[0m  21                  -1  1    493056  ultralytics.nn.modules.block.C2f             [384, 256, 1]                 
[36m(ClientAppActor pid=404743)[0m Model summary: 129 layers, 3,011,043 parameters, 3,011,027 gradients, 8.2 GFLOPs
[36m(ClientAppActor pid=404743)[0m 
[36m(ClientAppActor pid=404743)[0m Transferred 355/355 items from pretrained weights
[36m(ClientAppActor pid=404743)[0m [34m[1mTensorBoard: [0mStart with 'tensorboard --logdir runs/detect/train2012', view at http://localhost:6006/
[36m(ClientAppActor pid=404750)[0m 
[36m(ClientAppActor pid=404750)[0m  12                  -1  1    148224  ultralytics.nn.modules.block.C2f             [384, 128, 1]                 
[36m(ClientAppActor pid=404750)[0m  15                  -1  1     37248  ultralytics.nn.modules.block.C2f             [192, 64, 1]                  
[36m(ClientAppActor pid=404750)[0m  18                  -1  1    123648  ultralytics.nn.modules.block.C2f             [192, 128, 1]                 
[36m(ClientAppActor pid=404750)[0m  21                  -1  1    493056  ultralytics.nn.modules.block.C2f             [384, 256, 1]                 
[36m(ClientAppActor pid=404746)[0m 
[36m(ClientAppActor pid=404748)[0m 
[36m(ClientAppActor pid=404748)[0m  12                  -1  1    148224  ultralytics.nn.modules.block.C2f             [384, 128, 1]                 
[36m(ClientAppActor pid=404748)[0m  15                  -1  1     37248  ultralytics.nn.modules.block.C2f             [192, 64, 1]                  
[36m(ClientAppActor pid=404748)[0m  18                  -1  1    123648  ultralytics.nn.modules.block.C2f             [192, 128, 1]                 
[36m(ClientAppActor pid=404748)[0m  21                  -1  1    493056  ultralytics.nn.modules.block.C2f             [384, 256, 1]                 
[36m(ClientAppActor pid=404741)[0m 
[36m(ClientAppActor pid=404743)[0m Freezing layer 'model.22.dfl.conv.weight'
[36m(ClientAppActor pid=404743)[0m [34m[1mAMP: [0mrunning Automatic Mixed Precision (AMP) checks...
[36m(ClientAppActor pid=404744)[0m 
[36m(ClientAppActor pid=404748)[0m 
[36m(ClientAppActor pid=404750)[0m 
[36m(ClientAppActor pid=404743)[0m [34m[1mAMP: [0mchecks passed âœ…
[36m(ClientAppActor pid=404747)[0m 
[36m(ClientAppActor pid=404747)[0m  12                  -1  1    148224  ultralytics.nn.modules.block.C2f             [384, 128, 1]                 
[36m(ClientAppActor pid=404747)[0m  15                  -1  1     37248  ultralytics.nn.modules.block.C2f             [192, 64, 1]                  
[36m(ClientAppActor pid=404747)[0m  18                  -1  1    123648  ultralytics.nn.modules.block.C2f             [192, 128, 1]                 
[36m(ClientAppActor pid=404747)[0m  21                  -1  1    493056  ultralytics.nn.modules.block.C2f             [384, 256, 1]                 
[36m(ClientAppActor pid=404740)[0m 
[36m(ClientAppActor pid=404740)[0m  12                  -1  1    148224  ultralytics.nn.modules.block.C2f             [384, 128, 1]                 
[36m(ClientAppActor pid=404740)[0m  15                  -1  1     37248  ultralytics.nn.modules.block.C2f             [192, 64, 1]                  
[36m(ClientAppActor pid=404740)[0m  18                  -1  1    123648  ultralytics.nn.modules.block.C2f             [192, 128, 1]                 
[36m(ClientAppActor pid=404740)[0m  21                  -1  1    493056  ultralytics.nn.modules.block.C2f             [384, 256, 1]                 
[36m(ClientAppActor pid=404747)[0m 
[36m(ClientAppActor pid=404740)[0m 
[36m(ClientAppActor pid=404743)[0m Plotting labels to runs/detect/train2012/labels.jpg... 
[36m(ClientAppActor pid=404747)[0m New https://pypi.org/project/ultralytics/8.3.122 available ðŸ˜ƒ Update with 'pip install -U ultralytics'[32m [repeated 7x across cluster][0m
[36m(ClientAppActor pid=404741)[0m   0%|          | 0/13 [00:00<?, ?it/s]
…
[36m(ClientAppActor pid=404741)[0m Model summary (fused): 72 layers, 3,005,843 parameters, 0 gradients, 8.1 GFLOPs
[36m(ClientAppActor pid=404743)[0m 
[36m(ClientAppActor pid=404747)[0m [34m[1moptimizer:[0m 'optimizer=auto' found, ignoring 'lr0=0.001' and 'momentum=0.937' and determining best 'optimizer', 'lr0' and 'momentum' automatically... 
[36m(ClientAppActor pid=404747)[0m [34m[1moptimizer:[0m AdamW(lr=0.002, momentum=0.9) with parameter groups 57 weight(decay=0.0), 64 weight(decay=0.0005), 63 bias(decay=0.0)
[36m(ClientAppActor pid=404746)[0m 
[36m(ClientAppActor pid=404746)[0m  12                  -1  1    148224  ultralytics.nn.modules.block.C2f             [384, 128, 1]                 
[36m(ClientAppActor pid=404746)[0m  15                  -1  1     37248  ultralytics.nn.modules.block.C2f             [192, 64, 1]                  
[36m(ClientAppActor pid=404746)[0m  18                  -1  1    123648  ultralytics.nn.modules.block.C2f             [192, 128, 1]                 
[36m(ClientAppActor pid=404746)[0m  21                  -1  1    493056  ultralytics.nn.modules.block.C2f             [384, 256, 1]                 
[36m(ClientAppActor pid=404744)[0m 
[36m(ClientAppActor pid=404744)[0m  12                  -1  1    148224  ultralytics.nn.modules.block.C2f             [384, 128, 1]                 
[36m(ClientAppActor pid=404744)[0m  15                  -1  1     37248  ultralytics.nn.modules.block.C2f             [192, 64, 1]                  
[36m(ClientAppActor pid=404744)[0m  18                  -1  1    123648  ultralytics.nn.modules.block.C2f             [192, 128, 1]                 
[36m(ClientAppActor pid=404744)[0m  21                  -1  1    493056  ultralytics.nn.modules.block.C2f             [384, 256, 1]                 
[36m(ClientAppActor pid=404744)[0m 
[36m(ClientAppActor pid=404746)[0m 
[36m(ClientAppActor pid=404740)[0m [34m[1mAMP: [0mchecks passed âœ…[32m [repeated 2x across cluster][0m
[36m(ClientAppActor pid=404740)[0m Plotting labels to runs/detect/train2022/labels.jpg... [32m [repeated 2x across cluster][0m
[36m(ClientAppActor pid=404746)[0m New https://pypi.org/project/ultralytics/8.3.122 available ðŸ˜ƒ Update with 'pip install -U ultralytics'[32m [repeated 2x across cluster][0m
…
[36m(ClientAppActor pid=404741)[0m [34m[1mTensorBoard: [0mStart with 'tensorboard --logdir runs/detect/train2025', view at http://localhost:6006/
[36m(ClientAppActor pid=404746)[0m 
[36m(ClientAppActor pid=404741)[0m Freezing layer 'model.22.dfl.conv.weight'
[36m(ClientAppActor pid=404741)[0m [34m[1mAMP: [0mrunning Automatic Mixed Precision (AMP) checks...
[36m(ClientAppActor pid=404747)[0m                    all         15         30      0.225        0.2      0.125     0.0434
[36m(ClientAppActor pid=404747)[0m 
[36m(ClientAppActor pid=404743)[0m 
[36m(ClientAppActor pid=404743)[0m  12                  -1  1    148224  ultralytics.nn.modules.block.C2f             [384, 128, 1]                 
[36m(ClientAppActor pid=404743)[0m  15                  -1  1     37248  ultralytics.nn.modules.block.C2f             [192, 64, 1]                  
[36m(ClientAppActor pid=404743)[0m  18                  -1  1    123648  ultralytics.nn.modules.block.C2f             [192, 128, 1]                 
[36m(ClientAppActor pid=404743)[0m  21                  -1  1    493056  ultralytics.nn.modules.block.C2f             [384, 256, 1]                 
[36m(ClientAppActor pid=404746)[0m [34m[1moptimizer:[0m 'optimizer=auto' found, ignoring 'lr0=0.001' and 'momentum=0.937' and determining best 'optimizer', 'lr0' and 'momentum' automatically... 
[36m(ClientAppActor pid=404746)[0m [34m[1moptimizer:[0m AdamW(lr=0.002, momentum=0.9) with parameter groups 57 weight(decay=0.0), 64 weight(decay=0.0005), 63 bias(decay=0.0)
[36m(ClientAppActor pid=404747)[0m       Epoch    GPU_mem   box_loss   cls_loss   dfl_loss  Instances       Size[32m [repeated 5x across cluster][0m
[36m(ClientAppActor pid=404743)[0m 
[36m(ClientAppActor pid=404748)[0m 
[36m(ClientAppActor pid=404748)[0m  12                  -1  1    148224  ultralytics.nn.modules.block.C2f             [384, 128, 1]                 
[36m(ClientAppActor pid=404748)[0m  15                  -1  1     37248  ultralytics.nn.modules.block.C2f             [192, 64, 1]                  
[36m(ClientAppActor pid=404748)[0m  18                  -1  1    123648  ultralytics.nn.modules.block.C2f             [192, 128, 1]                 
[36m(ClientAppActor pid=404741)[0m [34m[1mtrain: [0mScanning /WehbeDocker/YOLOV8N/datasets/client_12/train/labels.cache... 190 images, 0 backgrounds, 0 corrupt: 100%|â–ˆâ–ˆâ–ˆâ–ˆâ–ˆâ–ˆâ–ˆâ–ˆâ–ˆâ–ˆ| 190/190 [00:00<?, ?it/s][34m[1mtrain: [0mScanning /WehbeDocker/YOLOV8N/datasets/client_12/train/labels.cache... 190 images, 0 backgrounds, 0 corrupt: 100%|â–ˆâ–ˆâ–ˆâ–ˆâ–ˆâ–ˆâ–ˆâ–ˆâ–ˆâ–ˆ| 190/190 [00:00<?, ?it/s]
…
, shear=0.0, perspective=0.0, flipud=0.0, fliplr=0.5, bgr=0.0, mosaic=1.0, mixup=0.0, copy_paste=0.0, copy_paste_mode=flip, auto_augment=randaugment, erasing=0.4, crop_fraction=1.0, cfg=None, tracker=botsort.yaml, save_dir=runs/detect/train2028
[36m(ClientAppActor pid=404744)[0m Overriding class names with single class.
[36m(ClientAppActor pid=404744)[0m 
[36m(ClientAppActor pid=404744)[0m                    from  n    params  module                                       arguments                     
[36m(ClientAppActor pid=404744)[0m   0                  -1  1       464  ultralytics.nn.modules.conv.Conv             [3, 16, 3, 2]                 
[36m(ClientAppActor pid=404744)[0m   1                  -1  1      4672  ultralytics.nn.modules.conv.Conv             [16, 32, 3, 2]                
[36m(ClientAppActor pid=404744)[0m   2                  -1  1      7360  ultralytics.nn.modules.block.C2f             [32, 32, 1, True]             
[36m(ClientAppActor pid=404744)[0m   3                  -1  1     18560  ultralytics.nn.modules.conv.Conv             [32, 64, 3, 2]                
[36m(ClientAppActor pid=404744)[0m   4                  -1  2     49664  ultralytics.nn.modules.block.C2f             [64, 64, 2, True]             
[36m(ClientAppActor pid=404744)[0m [34m[1mtrain: [0mScanning /WehbeDocker/YOLOV8N/datasets/client_15/train/labels.cache... 193 images, 0 backgrounds, 0 corrupt: 100%|â–ˆâ–ˆâ–ˆâ–ˆâ–ˆâ–ˆâ–ˆâ–ˆâ–ˆâ–ˆ| 193/193 [00:00<?, ?it/s][34m[1mtrain: [0mScanning /WehbeDocker/YOLOV8N/datasets/client_15/train/labels.cache... 193 images, 0 backgrounds, 0 corrupt: 100%|â–ˆâ–ˆâ–ˆâ–ˆâ–ˆâ–ˆâ–ˆâ–ˆâ–ˆâ–ˆ| 193/193 [00:00<?, ?it/s]
…
[36m(ClientAppActor pid=404740)[0m                  Class     Images  Instances      Box(P          R      mAP50  mAP50-95):  75%|â–ˆâ–ˆâ–ˆâ–ˆâ–ˆâ–ˆâ–ˆâ–Œ  | 3/4 [00:04<00:01,  1.21s/it][32m [repeated 11x across cluster][0m
[36m(ClientAppActor pid=404740)[0m [34m[1mtrain: [0mScanning /WehbeDocker/YOLOV8N/datasets/client_1/train/labels.cache... 147 images, 0 backgrounds, 0 corrupt: 100%|â–ˆâ–ˆâ–ˆâ–ˆâ–ˆâ–ˆâ–ˆâ–ˆâ–ˆâ–ˆ| 147/147 [00:00<?, ?it/s][34m[1mtrain: [0mScanning /WehbeDocker/YOLOV8N/datasets/client_1/train/labels.cache... 147 images, 0 backgrounds, 0 corrupt: 100%|â–ˆâ–ˆâ–ˆâ–ˆâ–ˆâ–ˆâ–ˆâ–ˆâ–ˆâ–ˆ| 147/147 [00:00<?, ?it/s]
[36m(ClientAppActor pid=404744)[0m   5                  -1  1     73984  ultralytics.nn.modules.conv.Conv             [64, 128, 3, 2]               
[36m(ClientAppActor pid=404744)[0m   6                  -1  2    197632  ultralytics.nn.modules.block.C2f             [128, 128, 2, True]           
[36m(ClientAppActor pid=404744)[0m   7                  -1  1    295424  ultralytics.nn.modules.conv.Conv             [128, 256, 3, 2]              
[36m(ClientAppActor pid=404744)[0m   8                  -1  1    460288  ultralytics.nn.modules.block.C2f             [256, 256, 1, True]           
[36m(ClientAppActor pid=404744)[0m   9                  -1  1    164608  ultralytics.nn.modules.block.SPPF            [256, 256, 5]                 
[36m(ClientAppActor pid=404744)[0m  10                  -1  1         0  torch.nn.modules.upsampling.Upsample         [None, 2, 'nearest']          
[36m(ClientAppActor pid=404744)[0m  11             [-1, 6]  1         0  ultralytics.nn.modules.conv.Concat           [1]                           
[36m(ClientAppActor pid=404744)[0m  12                  -1  1    148224  ultralytics.nn.modules.block.C2f             [384, 128, 1]                 
[36m(ClientAppActor pid=404744)[0m  13                  -1  1         0  torch.nn.modules.upsampling.Upsample         [None, 2, 'nearest']          
[36m(ClientAppActor pid=404744)[0m  14             [-1, 4]  1         0  ultralytics.nn.modules.conv.Concat           [1]                           
[36m(ClientAppActor pid=404744)[0m  15                  -1  1     37248  ultralytics.nn.modules.block.C2f             [192, 64, 1]                  
[36m(ClientAppActor pid=404744)[0m  16                  -1  1     36992  ultralytics.nn.modules.conv.Conv             [64, 64, 3, 2]                
[36m(ClientAppActor pid=404744)[0m  17            [-1, 12]  1         0  ultralytics.nn.modules.conv.Concat           [1]                           
[36m(ClientAppActor pid=404744)[0m  18                  -1  1    123648  ultralytics.nn.modules.block.C2f             [192, 128, 1]                 
[36m(ClientAppActor pid=404744)[0m  19                  -1  1    147712  ultralytics.nn.modules.conv.Conv             [128, 128, 3, 2]              
[36m(ClientAppActor pid=404744)[0m  20             [-1, 9]  1         0  ultralytics.nn.modules.conv.Concat           [1]                           
[36m(ClientAppActor pid=404744)[0m  21                  -1  1    493056  ultralytics.nn.modules.block.C2f             [384, 256, 1]                 
[36m(ClientAppActor pid=404748)[0m [Client 4] Device: cuda:0[32m [repeated 8x across cluster][0m
[36m(ClientAppActor pid=404740)[0m                    all         58        117      0.546      0.521      0.513      0.365[32m [repeated 7x across cluster][0m
[36m(ClientAppActor pid=404740)[0m Speed: 1.3ms preprocess, 5.4ms inference, 0.0ms loss, 1.5ms postprocess per image[32m [repeated 8x across cluster][0m
[36m(ClientAppActor pid=404740)[0m Results saved to [1mruns/detect/val1995[0m[32m [repeated 8x across cluster][0m
[36m(ClientAppActor pid=404740)[0m 
[36m(ClientAppActor pid=404740)[0m  12                  -1  1    148224  ultralytics.nn.modules.block.C2f             [384, 128, 1]                 
[36m(ClientAppActor pid=404740)[0m  15                  -1  1     37248  ultralytics.nn.modules.block.C2f             [192, 64, 1]                  
[36m(ClientAppActor pid=404740)[0m  18                  -1  1    123648  ultralytics.nn.modules.block.C2f             [192, 128, 1]                 
[36m(ClientAppActor pid=404740)[0m  21                  -1  1    493056  ultralytics.nn.modules.block.C2f             [384, 256, 1]                 
[36m(ClientAppActor pid=404740)[0m  22        [15, 18, 21]  1    751507  ultralytics.nn.modules.head.Detect           [1, [64, 128, 256]]           
[36m(ClientAppActor pid=404741)[0m 
[36m(ClientAppActor pid=404741)[0m  12                  -1  1    148224  ultralytics.nn.modules.block.C2f             [384, 128, 1]                 
[36m(ClientAppActor pid=404741)[0m  15                  -1  1     37248  ultralytics.nn.modules.block.C2f             [192, 64, 1]                  
[36m(ClientAppActor pid=404741)[0m  18                  -1  1    123648  ultralytics.nn.modules.block.C2f             [192, 128, 1]                 
[36m(ClientAppActor pid=404744)[0m Model summary: 129 layers, 3,011,043 parameters, 3,011,027 gradients, 8.2 GFLOPs
[36m(ClientAppActor pid=404744)[0m 
[36m(ClientAppActor pid=404740)[0m 
[36m(ClientAppActor pid=404740)[0m Transferred 355/355 items from pretrained weights
[36m(ClientAppActor pid=404740)[0m [34m[1mTensorBoard: [0mStart with 'tensorboard --logdir runs/detect/train2029', view at http://localhost:6006/
[36m(ClientAppActor pid=404744)[0m Freezing layer 'model.22.dfl.conv.weight'
[36m(ClientAppActor pid=404744)[0m [34m[1mAMP: [0mrunning Automatic Mixed Precision (AMP) checks...
[36m(ClientAppActor pid=404741)[0m  21                  -1  1    493056  ultralytics.nn.modules.block.C2f             [384, 256, 1]                 
[36m(ClientAppActor pid=404741)[0m 
[36m(ClientAppActor pid=404747)[0m 
[36m(ClientAppActor pid=404747)[0m  12                  -1  1    148224  ultralytics.nn.modules.block.C2f             [384, 128, 1]                 
[36m(ClientAppActor pid=404747)[0m  15                  -1  1     37248  ultralytics.nn.modules.block.C2f             [192, 64, 1]                  
[36m(ClientAppActor pid=404747)[0m  18                  -1  1    123648  ultralytics.nn.modules.block.C2f             [192, 128, 1]                 
[36m(ClientAppActor pid=404750)[0m 
[36m(ClientAppActor pid=404750)[0m  12                  -1  1    148224  ultralytics.nn.modules.block.C2f             [384, 128, 1]                 
[36m(ClientAppActor pid=404750)[0m  15                  -1  1     37248  ultralytics.nn.modules.block.C2f             [192, 64, 1]                  
[36m(ClientAppActor pid=404747)[0m  21                  -1  1    493056  ultralytics.nn.modules.block.C2f             [384, 256, 1]                 
[36m(ClientAppActor pid=404750)[0m  18                  -1  1    123648  ultralytics.nn.modules.block.C2f             [192, 128, 1]                 
[36m(ClientAppActor pid=404747)[0m 
[36m(ClientAppActor pid=404744)[0m [34m[1mAMP: [0mchecks passed âœ…
[36m(ClientAppActor pid=404743)[0m 
[36m(ClientAppActor pid=404743)[0m  12                  -1  1    148224  ultralytics.nn.modules.block.C2f             [384, 128, 1]                 
[36m(ClientAppActor pid=404743)[0m  15                  -1  1     37248  ultralytics.nn.modules.block.C2f             [192, 64, 1]                  
[36m(ClientAppActor pid=404743)[0m  18                  -1  1    123648  ultralytics.nn.modules.block.C2f             [192, 128, 1]                 
[36m(ClientAppActor pid=404743)[0m  21                  -1  1    493056  ultralytics.nn.modules.block.C2f             [384, 256, 1]                 
[36m(ClientAppActor pid=404750)[0m  21                  -1  1    493056  ultralytics.nn.modules.block.C2f             [384, 256, 1]                 
[36m(ClientAppActor pid=404746)[0m 
[36m(ClientAppActor pid=404746)[0m  12                  -1  1    148224  ultralytics.nn.modules.block.C2f             [384, 128, 1]                 
[36m(ClientAppActor pid=404746)[0m  15                  -1  1     37248  ultralytics.nn.modules.block.C2f             [192, 64, 1]                  
[36m(ClientAppActor pid=404746)[0m  18                  -1  1    123648  ultralytics.nn.modules.block.C2f             [192, 128, 1]                 
[36m(ClientAppActor pid=404746)[0m  21                  -1  1    493056  ultralytics.nn.modules.block.C2f             [384, 256, 1]                 
[36m(ClientAppActor pid=404743)[0m 
[36m(ClientAppActor pid=404750)[0m 
[36m(ClientAppActor pid=404746)[0m 
[36m(ClientAppActor pid=404748)[0m 
[36m(ClientAppActor pid=404748)[0m  12                  -1  1    148224  ultralytics.nn.modules.block.C2f             [384, 128, 1]                 
[36m(ClientAppActor pid=404741)[0m   0%|          | 0/8 [00:00<?, ?it/s]
[36m(ClientAppActor pid=404748)[0m [34m[1mval: [0mScanning /WehbeDocker/YOLOV8N/datasets/client_4/valid/labels.cache... 17 images, 0 backgrounds, 0 corrupt: 100%|â–ˆâ–ˆâ–ˆâ–ˆâ–ˆâ–ˆâ–ˆâ–ˆâ–ˆâ–ˆ| 17/17 [00:00<?, ?it/s][34m[1mval: [0mScanning /WehbeDocker/YOLOV8N/datasets/client_4/valid/labels.cache... 17 images, 0 backgrounds, 0 corrupt: 100%|â–ˆâ–ˆâ–ˆâ–ˆâ–ˆâ–ˆâ–ˆâ–ˆâ–ˆâ–ˆ| 17/17 [00:00<?, ?it/s][32m [repeated 14x across cluster][0m
…
[36m(ClientAppActor pid=404741)[0m [34m[1mTensorBoard: [0mStart with 'tensorboard --logdir runs/detect/train2037', view at http://localhost:6006/[32m [repeated 2x across cluster][0m
[36m(ClientAppActor pid=404741)[0m Freezing layer 'model.22.dfl.conv.weight'[32m [repeated 2x across cluster][0m
[36m(ClientAppActor pid=404741)[0m [34m[1mAMP: [0mrunning Automatic Mixed Precision (AMP) checks...[32m [repeated 2x across cluster][0m
[36m(ClientAppActor pid=404747)[0m 
[36m(ClientAppActor pid=404750)[0m Plotting labels to runs/detect/train2036/labels.jpg... 
[36m(ClientAppActor pid=404747)[0m  12                  -1  1    148224  ultralytics.nn.modules.block.C2f             [384, 128, 1]                 
[36m(ClientAppActor pid=404747)[0m  15                  -1  1     37248  ultralytics.nn.modules.block.C2f             [192, 64, 1]                  
[36m(ClientAppActor pid=404747)[0m  18                  -1  1    123648  ultralytics.nn.modules.block.C2f             [192, 128, 1]                 
[36m(ClientAppActor pid=404740)[0m 
[36m(ClientAppActor pid=404740)[0m  12                  -1  1    148224  ultralytics.nn.modules.block.C2f             [384, 128, 1]                 
[36m(ClientAppActor pid=404740)[0m  15                  -1  1     37248  ultralytics.nn.modules.block.C2f             [192, 64, 1]                  
[36m(ClientAppActor pid=404747)[0m  21                  -1  1    493056  ultralytics.nn.modules.block.C2f             [384, 256, 1]                 
[36m(ClientAppActor pid=404740)[0m  18                  -1  1    123648  ultralytics.nn.modules.block.C2f             [192, 128, 1]                 
[36m(ClientAppActor pid=404740)[0m  21                  -1  1    493056  ultralytics.nn.modules.block.C2f             [384, 256, 1]                 
[36m(ClientAppActor pid=404747)[0m 
[36m(ClientAppActor pid=404740)[0m 
[36m(ClientAppActor pid=404741)[0m [34m[1mAMP: [0mchecks passed âœ…[32m [repeated 2x across cluster][0m
[36m(ClientAppActor pid=404743)[0m                    all         52        100      0.636       0.49       0.52      0.319[32m [repeated 2x across cluster][0m
[36m(ClientAppActor pid=404744)[0m 
…
, shear=0.0, perspective=0.0, flipud=0.0, fliplr=0.5, bgr=0.0, mosaic=1.0, mixup=0.0, copy_paste=0.0, copy_paste_mode=flip, auto_augment=randaugment, erasing=0.4, crop_fraction=1.0, cfg=None, tracker=botsort.yaml, save_dir=runs/detect/train2041
[36m(ClientAppActor pid=404744)[0m Overriding class names with single class.
[36m(ClientAppActor pid=404744)[0m 
[36m(ClientAppActor pid=404744)[0m                    from  n    params  module                                       arguments                     
[36m(ClientAppActor pid=404744)[0m   0                  -1  1       464  ultralytics.nn.modules.conv.Conv             [3, 16, 3, 2]                 
[36m(ClientAppActor pid=404744)[0m   1                  -1  1      4672  ultralytics.nn.modules.conv.Conv             [16, 32, 3, 2]                
[36m(ClientAppActor pid=404744)[0m   2                  -1  1      7360  ultralytics.nn.modules.block.C2f             [32, 32, 1, True]             
[36m(ClientAppActor pid=404744)[0m   3                  -1  1     18560  ultralytics.nn.modules.conv.Conv             [32, 64, 3, 2]                
[36m(ClientAppActor pid=404744)[0m   4                  -1  2     49664  ultralytics.nn.modules.block.C2f             [64, 64, 2, True]             
[36m(ClientAppActor pid=404744)[0m   5                  -1  1     73984  ultralytics.nn.modules.conv.Conv             [64, 128, 3, 2]               
[36m(ClientAppActor pid=404744)[0m   6                  -1  2    197632  ultralytics.nn.modules.block.C2f             [128, 128, 2, True]           
[36m(ClientAppActor pid=404744)[0m   7                  -1  1    295424  ultralytics.nn.modules.conv.Conv             [128, 256, 3, 2]              
[36m(ClientAppActor pid=404744)[0m   8                  -1  1    460288  ultralytics.nn.modules.block.C2f             [256, 256, 1, True]           
[36m(ClientAppActor pid=404747)[0m 
[36m(ClientAppActor pid=404744)[0m   9                  -1  1    164608  ultralytics.nn.modules.block.SPPF            [256, 256, 5]                 
[36m(ClientAppActor pid=404744)[0m  10                  -1  1         0  torch.nn.modules.upsampling.Upsample         [None, 2, 'nearest']          
[36m(ClientAppActor pid=404744)[0m  11             [-1, 6]  1         0  ultralytics.nn.modules.conv.Concat           [1]                           
[36m(ClientAppActor pid=404744)[0m  12                  -1  1    148224  ultralytics.nn.modules.block.C2f             [384, 128, 1]                 
[36m(ClientAppActor pid=404744)[0m  13                  -1  1         0  torch.nn.modules.upsampling.Upsample         [None, 2, 'nearest']          
[36m(ClientAppActor pid=404744)[0m  14             [-1, 4]  1         0  ultralytics.nn.modules.conv.Concat           [1]                           
[36m(ClientAppActor pid=404744)[0m  15                  -1  1     37248  ultralytics.nn.modules.block.C2f             [192, 64, 1]                  
[36m(ClientAppActor pid=404744)[0m  16                  -1  1     36992  ultralytics.nn.modules.conv.Conv             [64, 64, 3, 2]                
[36m(ClientAppActor pid=404744)[0m  17            [-1, 12]  1         0  ultralytics.nn.modules.conv.Concat           [1]                           
[36m(ClientAppActor pid=404744)[0m  18                  -1  1    123648  ultralytics.nn.modules.block.C2f             [192, 128, 1]                 
[36m(ClientAppActor pid=404744)[0m  19                  -1  1    147712  ultralytics.nn.modules.conv.Conv             [128, 128, 3, 2]              
[36m(ClientAppActor pid=404744)[0m  20             [-1, 9]  1         0  ultralytics.nn.modules.conv.Concat           [1]                           
[36m(ClientAppActor pid=404744)[0m  21                  -1  1    493056  ultralytics.nn.modules.block.C2f             [384, 256, 1]                 
[36m(ClientAppActor pid=404744)[0m  22        [15, 18, 21]  1    751507  ultralytics.nn.modules.head.Detect           [1, [64, 128, 256]]           
[36m(ClientAppActor pid=404744)[0m Model summary: 129 layers, 3,011,043 parameters, 3,011,027 gradients, 8.2 GFLOPs
[36m(ClientAppActor pid=404744)[0m 
[36m(ClientAppActor pid=404744)[0m Transferred 355/355 items from pretrained weights
[36m(ClientAppActor pid=404744)[0m [34m[1mTensorBoard: [0mStart with 'tensorboard --logdir runs/detect/train2041', view at http://localhost:6006/
[36m(ClientAppActor pid=404744)[0m Freezing layer 'model.22.dfl.conv.weight'
[36m(ClientAppActor pid=404744)[0m [34m[1mAMP: [0mrunning Automatic Mixed Precision (AMP) checks...
[36m(ClientAppActor pid=404743)[0m 
[36m(ClientAppActor pid=404743)[0m  12                  -1  1    148224  ultralytics.nn.modules.block.C2f             [384, 128, 1]                 
[36m(ClientAppActor pid=404743)[0m  15                  -1  1     37248  ultralytics.nn.modules.block.C2f             [192, 64, 1]                  
[36m(ClientAppActor pid=404743)[0m  18                  -1  1    123648  ultralytics.nn.modules.block.C2f             [192, 128, 1]                 
[36m(ClientAppActor pid=404743)[0m  21                  -1  1    493056  ultralytics.nn.modules.block.C2f             [384, 256, 1]                 
[36m(ClientAppActor pid=404743)[0m 
[36m(ClientAppActor pid=404746)[0m 
[36m(ClientAppActor pid=404748)[0m        2/10       2.1G       1.33      1.985      1.336         62        640:  92%|â–ˆâ–ˆâ–ˆâ–ˆâ–ˆâ–ˆâ–ˆâ–ˆâ–ˆâ–| 11/12 [00:03<00:00,  3.92it/s]       2/10       2.1G       1.33      1.985      1.336         62        640: 100%|â–ˆâ–ˆâ–ˆâ–ˆâ–ˆâ–ˆâ–ˆâ–ˆâ–ˆâ–ˆ| 12/12 [00:03<00:00,  4.22it/s]       2/10       2.1G       1.33      1.985      1.336         62        640: 100%|â–ˆâ–ˆâ–ˆâ–ˆâ–ˆâ–ˆâ–ˆâ–ˆâ–ˆâ–ˆ| 12/12 [00:03<00:00,  3.76it/s]
…
, shear=0.0, perspective=0.0, flipud=0.0, fliplr=0.5, bgr=0.0, mosaic=1.0, mixup=0.0, copy_paste=0.0, copy_paste_mode=flip, auto_augment=randaugment, erasing=0.4, crop_fraction=1.0, cfg=None, tracker=botsort.yaml, save_dir=runs/detect/train2045
[36m(ClientAppActor pid=404740)[0m Overriding class names with single class.
[36m(ClientAppActor pid=404740)[0m 
[36m(ClientAppActor pid=404740)[0m                    from  n    params  module                                       arguments                     
[36m(ClientAppActor pid=404740)[0m   0                  -1  1       464  ultralytics.nn.modules.conv.Conv             [3, 16, 3, 2]                 
[36m(ClientAppActor pid=404740)[0m   1                  -1  1      4672  ultralytics.nn.modules.conv.Conv             [16, 32, 3, 2]                
[36m(ClientAppActor pid=404740)[0m   2                  -1  1      7360  ultralytics.nn.modules.block.C2f             [32, 32, 1, True]             
[36m(ClientAppActor pid=404740)[0m   3                  -1  1     18560  ultralytics.nn.modules.conv.Conv             [32, 64, 3, 2]                
[36m(ClientAppActor pid=404740)[0m   4                  -1  2     49664  ultralytics.nn.modules.block.C2f             [64, 64, 2, True]             
[36m(ClientAppActor pid=404740)[0m   5                  -1  1     73984  ultralytics.nn.modules.conv.Conv             [64, 128, 3, 2]               
[36m(ClientAppActor pid=404740)[0m   6                  -1  2    197632  ultralytics.nn.modules.block.C2f             [128, 128, 2, True]           
[36m(ClientAppActor pid=404740)[0m   7                  -1  1    295424  ultralytics.nn.modules.conv.Conv             [128, 256, 3, 2]              
[36m(ClientAppActor pid=404740)[0m   8                  -1  1    460288  ultralytics.nn.modules.block.C2f             [256, 256, 1, True]           
[36m(ClientAppActor pid=404740)[0m   9                  -1  1    164608  ultralytics.nn.modules.block.SPPF            [256, 256, 5]                 
[36m(ClientAppActor pid=404740)[0m  10                  -1  1         0  torch.nn.modules.upsampling.Upsample         [None, 2, 'nearest']          
[36m(ClientAppActor pid=404740)[0m  11             [-1, 6]  1         0  ultralytics.nn.modules.conv.Concat           [1]                           
[36m(ClientAppActor pid=404740)[0m  12                  -1  1    148224  ultralytics.nn.modules.block.C2f             [384, 128, 1]                 
[36m(ClientAppActor pid=404740)[0m  13                  -1  1         0  torch.nn.modules.upsampling.Upsample         [None, 2, 'nearest']          
[36m(ClientAppActor pid=404740)[0m  14             [-1, 4]  1         0  ultralytics.nn.modules.conv.Concat           [1]                           
[36m(ClientAppActor pid=404740)[0m  15                  -1  1     37248  ultralytics.nn.modules.block.C2f             [192, 64, 1]                  
[36m(ClientAppActor pid=404740)[0m  16                  -1  1     36992  ultralytics.nn.modules.conv.Conv             [64, 64, 3, 2]                
[36m(ClientAppActor pid=404740)[0m  17            [-1, 12]  1         0  ultralytics.nn.modules.conv.Concat           [1]                           
[36m(ClientAppActor pid=404740)[0m  18                  -1  1    123648  ultralytics.nn.modules.block.C2f             [192, 128, 1]                 
[36m(ClientAppActor pid=404740)[0m  19                  -1  1    147712  ultralytics.nn.modules.conv.Conv             [128, 128, 3, 2]              
[36m(ClientAppActor pid=404740)[0m  20             [-1, 9]  1         0  ultralytics.nn.modules.conv.Concat           [1]                           
[36m(ClientAppActor pid=404740)[0m  21                  -1  1    493056  ultralytics.nn.modules.block.C2f             [384, 256, 1]                 
[36m(ClientAppActor pid=404740)[0m  22        [15, 18, 21]  1    751507  ultralytics.nn.modules.head.Detect           [1, [64, 128, 256]]           
[36m(ClientAppActor pid=404748)[0m Speed: 5.3ms preprocess, 5.8ms inference, 0.0ms loss, 6.9ms postprocess per image[32m [repeated 8x across cluster][0m
[36m(ClientAppActor pid=404748)[0m Results saved to [1mruns/detect/val2007[0m[32m [repeated 8x across cluster][0m
[36m(ClientAppActor pid=404744)[0m [Client 1] Device: cuda:0[32m [repeated 8x across cluster][0m
[36m(ClientAppActor pid=404748)[0m                    all         52        100      0.529       0.44      0.435      0.305[32m [repeated 7x across cluster][0m
[36m(ClientAppActor pid=404743)[0m 
[36m(ClientAppActor pid=404743)[0m  12                  -1  1    148224  ultralytics.nn.modules.block.C2f             [384, 128, 1]                 
[36m(ClientAppActor pid=404743)[0m  15                  -1  1     37248  ultralytics.nn.modules.block.C2f             [192, 64, 1]                  
[36m(ClientAppActor pid=404748)[0m 
[36m(ClientAppActor pid=404748)[0m  12                  -1  1    148224  ultralytics.nn.modules.block.C2f             [384, 128, 1]                 
[36m(ClientAppActor pid=404748)[0m  15                  -1  1     37248  ultralytics.nn.modules.block.C2f             [192, 64, 1]                  
[36m(ClientAppActor pid=404748)[0m  18                  -1  1    123648  ultralytics.nn.modules.block.C2f             [192, 128, 1]                 
[36m(ClientAppActor pid=404748)[0m  21                  -1  1    493056  ultralytics.nn.modules.block.C2f             [384, 256, 1]                 
[36m(ClientAppActor pid=404743)[0m  18                  -1  1    123648  ultralytics.nn.modules.block.C2f             [192, 128, 1]                 
[36m(ClientAppActor pid=404740)[0m Model summary: 129 layers, 3,011,043 parameters, 3,011,027 gradients, 8.2 GFLOPs
[36m(ClientAppActor pid=404740)[0m 
[36m(ClientAppActor pid=404740)[0m Transferred 355/355 items from pretrained weights
[36m(ClientAppActor pid=404740)[0m [34m[1mTensorBoard: [0mStart with 'tensorboard --logdir runs/detect/train2045', view at http://localhost:6006/
[36m(ClientAppActor pid=404740)[0m Freezing layer 'model.22.dfl.conv.weight'
[36m(ClientAppActor pid=404740)[0m [34m[1mAMP: [0mrunning Automatic Mixed Precision (AMP) checks...
[36m(ClientAppActor pid=404743)[0m  21                  -1  1    493056  ultralytics.nn.modules.block.C2f             [384, 256, 1]                 
[36m(ClientAppActor pid=404747)[0m 
[36m(ClientAppActor pid=404747)[0m  12                  -1  1    148224  ultralytics.nn.modules.block.C2f             [384, 128, 1]                 
[36m(ClientAppActor pid=404747)[0m  15                  -1  1     37248  ultralytics.nn.modules.block.C2f             [192, 64, 1]                  
[36m(ClientAppActor pid=404748)[0m [34m[1mtrain: [0mScanning /WehbeDocker/YOLOV8N/datasets/client_11/train/labels.cache... 212 images, 0 backgrounds, 0 corrupt: 100%|â–ˆâ–ˆâ–ˆâ–ˆâ–ˆâ–ˆâ–ˆâ–ˆâ–ˆâ–ˆ| 212/212 [00:00<?, ?it/s][34m[1mtrain: [0mScanning /WehbeDocker/YOLOV8N/datasets/client_11/train/labels.cache... 212 images, 0 backgrounds, 0 corrupt: 100%|â–ˆâ–ˆâ–ˆâ–ˆâ–ˆâ–ˆâ–ˆâ–ˆâ–ˆâ–ˆ| 212/212 [00:00<?, ?it/s]
…
[36m(ClientAppActor pid=404740)[0m                  Class     Images  Instances      Box(P          R      mAP50  mAP50-95): 100%|â–ˆâ–ˆâ–ˆâ–ˆâ–ˆâ–ˆâ–ˆâ–ˆâ–ˆâ–ˆ| 4/4 [00:04<00:00,  1.19it/s]                 Class     Images  Instances      Box(P          R      mAP50  mAP50-95): 100%|â–ˆâ–ˆâ–ˆâ–ˆâ–ˆâ–ˆâ–ˆâ–ˆâ–ˆâ–ˆ| 4/4 [00:04<00:00,  1.22s/it][32m [repeated 5x across cluster][0m
[36m(ClientAppActor pid=404740)[0m [34m[1mtrain: [0mScanning /WehbeDocker/YOLOV8N/datasets/client_9/train/labels.cache... 206 images, 0 backgrounds, 0 corrupt: 100%|â–ˆâ–ˆâ–ˆâ–ˆâ–ˆâ–ˆâ–ˆâ–ˆâ–ˆâ–ˆ| 206/206 [00:00<?, ?it/s][34m[1mtrain: [0mScanning /WehbeDocker/YOLOV8N/datasets/client_9/train/labels.cache... 206 images, 0 backgrounds, 0 corrupt: 100%|â–ˆâ–ˆâ–ˆâ–ˆâ–ˆâ–ˆâ–ˆâ–ˆâ–ˆâ–ˆ| 206/206 [00:00<?, ?it/s]
[36m(ClientAppActor pid=404747)[0m  18                  -1  1    123648  ultralytics.nn.modules.block.C2f             [192, 128, 1]                 
[36m(ClientAppActor pid=404747)[0m  21                  -1  1    493056  ultralytics.nn.modules.block.C2f             [384, 256, 1]                 
[36m(ClientAppActor pid=404748)[0m 
[36m(ClientAppActor pid=404743)[0m 
[36m(ClientAppActor pid=404747)[0m 
[36m(ClientAppActor pid=404741)[0m 
[36m(ClientAppActor pid=404741)[0m  12                  -1  1    148224  ultralytics.nn.modules.block.C2f             [384, 128, 1]                 
[36m(ClientAppActor pid=404741)[0m  15                  -1  1     37248  ultralytics.nn.modules.block.C2f             [192, 64, 1]                  
[36m(ClientAppActor pid=404741)[0m  18                  -1  1    123648  ultralytics.nn.modules.block.C2f             [192, 128, 1]                 
[36m(ClientAppActor pid=404750)[0m 
[36m(ClientAppActor pid=404750)[0m  12                  -1  1    148224  ultralytics.nn.modules.block.C2f             [384, 128, 1]                 
[36m(ClientAppActor pid=404750)[0m  15                  -1  1     37248  ultralytics.nn.modules.block.C2f             [192, 64, 1]                  
[36m(ClientAppActor pid=404750)[0m  18                  -1  1    123648  ultralytics.nn.modules.block.C2f             [192, 128, 1]                 
[36m(ClientAppActor pid=404750)[0m  21                  -1  1    493056  ultralytics.nn.modules.block.C2f             [384, 256, 1]                 
[36m(ClientAppActor pid=404748)[0m [34m[1mAMP: [0mchecks passed âœ…
[36m(ClientAppActor pid=404741)[0m  21                  -1  1    493056  ultralytics.nn.modules.block.C2f             [384, 256, 1]                 
[36m(ClientAppActor pid=404750)[0m 
[36m(ClientAppActor pid=404746)[0m 
[36m(ClientAppActor pid=404746)[0m  12                  -1  1    148224  ultralytics.nn.modules.block.C2f             [384, 128, 1]                 
[36m(ClientAppActor pid=404746)[0m  15                  -1  1     37248  ultralytics.nn.modules.block.C2f             [192, 64, 1]                  
[36m(ClientAppActor pid=404746)[0m  18                  -1  1    123648  ultralytics.nn.modules.block.C2f             [192, 128, 1]                 
[36m(ClientAppActor pid=404746)[0m  21                  -1  1    493056  ultralytics.nn.modules.block.C2f             [384, 256, 1]                 
[36m(ClientAppActor pid=404741)[0m 
[36m(ClientAppActor pid=404746)[0m 
[36m(ClientAppActor pid=404744)[0m 
[36m(ClientAppActor pid=404744)[0m  12                  -1  1    148224  ultralytics.nn.modules.block.C2f             [384, 128, 1]                 
[36m(ClientAppActor pid=404744)[0m  15                  -1  1     37248  ultralytics.nn.modules.block.C2f             [192, 64, 1]                  
[36m(ClientAppActor pid=404744)[0m  18                  -1  1    123648  ultralytics.nn.modules.block.C2f             [192, 128, 1]                 
[36m(ClientAppActor pid=404744)[0m  21                  -1  1    493056  ultralytics.nn.modules.block.C2f             [384, 256, 1]                 
[36m(ClientAppActor pid=404744)[0m 
[36m(ClientAppActor pid=404748)[0m Plotting labels to runs/detect/train2044/labels.jpg... 
[36m(ClientAppActor pid=404744)[0m New https://pypi.org/project/ultralytics/8.3.122 available ðŸ˜ƒ Update with 'pip install -U ultralytics'[32m [repeated 7x across cluster][0m
[36m(ClientAppActor pid=404744)[0m [34m[1mengine/traine
…
, shear=0.0, perspective=0.0, flipud=0.0, fliplr=0.5, bgr=0.0, mosaic=1.0, mixup=0.0, copy_paste=0.0, copy_paste_mode=flip, auto_augment=randaugment, erasing=0.4, crop_fraction=1.0, cfg=None, tracker=botsort.yaml, save_dir=runs/detect/train2054
[36m(ClientAppActor pid=404750)[0m Overriding class names with single class.
[36m(ClientAppActor pid=404750)[0m 
[36m(ClientAppActor pid=404750)[0m                    from  n    params  module                                       arguments                     
[36m(ClientAppActor pid=404746)[0m   9                  -1  1    164608  ultralytics.nn.modules.block.SPPF            [256, 256, 5]                 
[36m(ClientAppActor pid=404746)[0m  10                  -1  1         0  torch.nn.modules.upsampling.Upsample         [None, 2, 'nearest']          
[36m(ClientAppActor pid=404746)[0m  11             [-1, 6]  1         0  ultralytics.nn.modules.conv.Concat           [1]                           
[36m(ClientAppActor pid=404746)[0m  12                  -1  1    148224  ultralytics.nn.modules.block.C2f             [384, 128, 1]                 
[36m(ClientAppActor pid=404746)[0m  13                  -1  1         0  torch.nn.modules.upsampling.Upsample         [None, 2, 'nearest']          
[36m(ClientAppActor pid=404746)[0m  14             [-1, 4]  1         0  ultralytics.nn.modules.conv.Concat           [1]                           
[36m(ClientAppActor pid=404746)[0m  15                  -1  1     37248  ultralytics.nn.modules.block.C2f             [192, 64, 1]                  
[36m(ClientAppActor pid=404746)[0m  17            [-1, 12]  1         0  ultralytics.nn.modules.conv.Concat           [1]                           
[36m(ClientAppActor pid=404746)[0m  18                  -1  1    123648  ultralytics.nn.modules.block.C2f             [192, 128, 1]                 
[36m(ClientAppActor pid=404746)[0m  20             [-1, 9]  1         0  ultralytics.nn.modules.conv.Concat           [1]                           
[36m(ClientAppActor pid=404746)[0m  21                  -1  1    493056  ultralytics.nn.modules.block.C2f             [384, 256, 1]                 
[36m(ClientAppActor pid=404746)[0m  22        [15, 18, 21]  1    751507  ultralytics.nn.modules.head.Detect           [1, [64, 128, 256]]           
[36m(ClientAppActor pid=404744)[0m 
[36m(ClientAppActor pid=404744)[0m  12                  -1  1    148224  ultralytics.nn.modules.block.C2f             [384, 128, 1]                 
[36m(ClientAppActor pid=404750)[0m  12                  -1  1    148224  ultralytics.nn.modules.block.C2f             [384, 128, 1]                 
[36m(ClientAppActor pid=404750)[0m  15                  -1  1     37248  ultralytics.nn.modules.block.C2f             [192, 64, 1]                  
[36m(ClientAppActor pid=404750)[0m  18                  -1  1    123648  ultralytics.nn.modules.block.C2f             [192, 128, 1]                 
[36m(ClientAppActor pid=404750)[0m  21                  -1  1    493056  ultralytics.nn.modules.block.C2f             [384, 256, 1]                 
[36m(ClientAppActor pid=404744)[0m  15                  -1  1     37248  ultralytics.nn.modules.block.C2f             [192, 64, 1]                  
[36m(ClientAppActor pid=404748)[0m        9/10      2.05G      1.088      1.551      1.256         50        640:   0%|          | 0/14 [00:00<?, ?it/s]       9/10      2.05G      1.088      1.551      1.256         50        640:   7%|â–‹         | 1/14 [00:00<00:03,  3.88it/s][32m [repeated 4x across cluster][0m
[36m(ClientAppActor pid=404748)[0m        9/1
…
, shear=0.0, perspective=0.0, flipud=0.0, fliplr=0.5, bgr=0.0, mosaic=1.0, mixup=0.0, copy_paste=0.0, copy_paste_mode=flip, auto_augment=randaugment, erasing=0.4, crop_fraction=1.0, cfg=None, tracker=botsort.yaml, save_dir=runs/detect/train2056
[36m(ClientAppActor pid=404748)[0m Overriding class names with single class.
[36m(ClientAppActor pid=404748)[0m 
[36m(ClientAppActor pid=404748)[0m                    from  n    params  module                                       arguments                     
[36m(ClientAppActor pid=404748)[0m   0                  -1  1       464  ultralytics.nn.modules.conv.Conv             [3, 16, 3, 2]                 
[36m(ClientAppActor pid=404748)[0m   1                  -1  1      4672  ultralytics.nn.modules.conv.Conv             [16, 32, 3, 2]                
[36m(ClientAppActor pid=404748)[0m   2                  -1  1      7360  ultralytics.nn.modules.block.C2f             [32, 32, 1, True]             
[36m(ClientAppActor pid=404748)[0m   3                  -1  1     18560  ultralytics.nn.modules.conv.Conv             [32, 64, 3, 2]                
[36m(ClientAppActor pid=404748)[0m   4                  -1  2     49664  ultralytics.nn.modules.block.C2f             [64, 64, 2, True]             
[36m(ClientAppActor pid=404750)[0m Image sizes 640 train, 640 val[32m [repeated 2x across cluster][0m
[36m(ClientAppActor pid=404750)[0m Using 8 dataloader workers[32m [repeated 2x across cluster][0m
[36m(ClientAppActor pid=404750)[0m Logging results to [1mruns/detect/train2054[0m[32m [repeated 2x across cluster][0m
[36m(ClientAppActor pid=404750)[0m Starting training for 10 epochs...[32m [repeated 2x across cluster][0m
[36m(ClientAppActor pid=404748)[0m   5                  -1  1     73984  ultralytics.nn.modules.conv.Conv             [64, 128, 3, 2]               
[36m(ClientAppActor pid=404748)[0m   6                  -1  2    197632  ultralytics.nn.modules.block.C2f             [128, 128, 2, True]           
[36m(ClientAppActor pid=404748)[0m   7                  -1  1    295424  ultralytics.nn.modules.conv.Conv             [128, 256, 3, 2]              
[36m(ClientAppActor pid=404748)[0m   8                  -1  1    460288  ultralytics.nn.modules.block.C2f             [256, 256, 1, True]           
[36m(ClientAppActor pid=404748)[0m   9                  -1  1    164608  ultralytics.nn.modules.block.SPPF            [256, 256, 5]                 
[36m(ClientAppActor pid=404748)[0m  10                  -1  1         0  torch.nn.modules.upsampling.Upsample         [None, 2, 'nearest']          
[36m(ClientAppActor pid=404748)[0m  11             [-1, 6]  1         0  ultralytics.nn.modules.conv.Concat           [1]                           
[36m(ClientAppActor pid=404748)[0m  12                  -1  1    148224  ultralytics.nn.modules.block.C2f             [384, 128, 1]                 
[36m(ClientAppActor pid=404748)[0m  13                  -1  1         0  torch.nn.modules.upsampling.Upsample         [None, 2, 'nearest']          
[36m(ClientAppActor pid=404748)[0m  14             [-1, 4]  1         0  ultralytics.nn.modules.conv.Concat           [1]                           [36m(ClientAppActor pid=404741)[0m                  Class     Images  Instances      Box(P          R      mAP50  mAP50-95):  50%|â–ˆâ–ˆâ–ˆâ–ˆâ–ˆ     | 1/2 [00:00<00:00,  3.67it/s][32m [repeated 2x across cluster][0m
[36m(ClientAppActor pid=404750)[0m                  Class     Images  Instances      Box(P          R      mAP50  mAP50-95): 100%|â–ˆâ–ˆâ–ˆâ–ˆâ–ˆâ–ˆâ–ˆâ–ˆâ–ˆâ–ˆ| 1/1 [00:00<00:00,  1.31it/s]                 Class     Images  Instances      Box(P          R      mAP50  mAP50-95): 100%|â–ˆâ–ˆâ–ˆâ–ˆâ–ˆâ–ˆâ–ˆâ–ˆâ–ˆâ–ˆ| 1/1 [00:00<00:00,  1.31it/s][32m [repeated 6x across cluster][0m
…
–ˆâ–ˆâ–ˆâ–ˆâ–ˆâ–ˆ| 8/8 [00:01<00:00,  4.88it/s][32m [repeated 6x across cluster][0m
[36m(ClientAppActor pid=404746)[0m                  Class     Images  Instances      Box(P          R      mAP50  mAP50-95):   0%|          | 0/1 [00:00<?, ?it/s][32m [repeated 6x across cluster][0m
[36m(ClientAppActor pid=404741)[0m                  Class     Images  Instances      Box(P          R      mAP50  mAP50-95):  50%|â–ˆâ–ˆâ–ˆâ–ˆâ–ˆ     | 1/2 [00:00<00:00,  1.31it/s][32m [repeated 2x across cluster][0m

[36m(ClientAppActor pid=404748)[0m  15                  -1  1     37248  ultralytics.nn.modules.block.C2f             [192, 64, 1]                  
[36m(ClientAppActor pid=404748)[0m  16                  -1  1     36992  ultralytics.nn.modules.conv.Conv             [64, 64, 3, 2]                
[36m(ClientAppActor pid=404748)[0m  17            [-1, 12]  1         0  ultralytics.nn.modules.conv.Concat           [1]                           
[36m(ClientAppActor pid=404748)[0m  18                  -1  1    123648  ultralytics.nn.modules.block.C2f             [192, 128, 1]                 
[36m(ClientAppActor pid=404748)[0m  19                  -1  1    147712  ultralytics.nn.modules.conv.Conv             [128, 128, 3, 2]              
[36m(ClientAppActor pid=404748)[0m  20             [-1, 9]  1         0  ultralytics.nn.modules.conv.Concat           [1]                           
[36m(ClientAppActor pid=404748)[0m  21                  -1  1    493056  ultralytics.nn.modules.block.C2f             [384, 256, 1]                 
[36m(ClientAppActor pid=404748)[0m  22        [15, 18, 21]  1    751507  ultralytics.nn.modules.head.Detect           [1, [64, 128, 256]]           
[36m(ClientAppActor pid=404748)[0m Model summary: 129 layers, 3,011,043 parameters, 3,011,027 gradients, 8.2 GFLOPs
[36m(ClientAppActor pid=404748)[0m 
[36m(ClientAppActor pid=404748)[0m Transferred 355/355 items from pretrained weights
[36m(ClientAppActor pid=404748)[0m [34m[1mTensorBoard: [0mStart with 'tensorboard --logdir runs/detect/train2056', view at http://localhost:6006/
[36m(ClientAppActor pid=404741)[0m                    all         56        132      0.311      0.394      0.283       0.16[32m [repeated 6x across cluster][0m
[36m(ClientAppActor pid=404740)[0m 
[36m(ClientAppActor pid=404740)[0m  12                  -1  1    148224  ultralytics.nn.modules.block.C2f             [384, 128, 1]                 
[36m(ClientAppActor pid=404740)[0m  15                  -1  1     37248  ultralytics.nn.modules.block.C2f             [192, 64, 1]                  
[36m(ClientAppActor pid=404740)[0m  18                  -1  1    123648  ultralytics.nn.modules.block.C2f             [192, 128, 1]                 
[36m(ClientAppActor pid=404740)[0m  21                  -1  1    493056  ultralytics.nn.modules.block.C2f             [384, 256, 1]                 
[36m(ClientAppActor pid=404743)[0m 
[36m(ClientAppActor pid=404740)[0m 
[36m(ClientAppActor pid=404743)[0m  12                  -1  1    148224  ultralytics.nn.modules.block.C2f             [384, 128, 1]                 
[36m(ClientAppActor pid=404743)[0m  15                  -1  1     37248  ultralytics.nn.modules.block.C2f             [192, 64, 1]                  
[36m(ClientAppActor pid=404743)[0m  18                  -1  1    123648  ultralytics.nn.modules.block.C2f             [192, 128, 1]                 
[36m(ClientAppActor pid=404743)[0m  21                  -1  1    493056  ultralytics.nn.modules.block.C2f             [384, 256, 1]                 
[36m(ClientAppActor pid=404743)[0m 
[36m(ClientAppActor pid=404748)[0m Freezing layer 'model.22.dfl.conv.weight'
[36m(ClientAppActor pid=404748)[0m [34m[1mAMP: [0mrunning Automatic Mixed Precision (AMP) checks...
[36m(ClientAppActor pid=404750)[0m 
[36m(ClientAppActor pid=404747)[0m 
[36m(ClientAppActor pid=404747)[0m  12                  -1  1    148224  ultralytics.nn.modules.block.C2f             [384, 128, 1]                 
[36m(ClientAppActor pid=404747)[0m  15                  -1  1     37248  ultralytics.nn.modules.block.C2f             [192, 64, 1]                  
[36m(ClientAppActor pid=404747)[0m  18                  -1  1    123648  ultralytics.nn.modules.block.C2f             [192, 128, 1]                 
[36m(ClientAppActor pid=404747)[0m  21                  -1  1    493056  ultralytics.nn.modules.block.C2f             [384, 256, 1]                 
[36m(ClientAppActor pid=404747)[0m 
[36m(ClientAppActor pid=404746)[0m 
[36m(ClientAppActor pid=404748)[0m [34m[1mAMP: [0mchecks passed âœ…
[36m(ClientAppActor pid=404744)[0m 
[36m(ClientAppActor pid=404744)[0m       Epoch    GPU_mem   box_loss   cls_loss   dfl_loss  Instances       Size[32m [repeated 7x across cluster][0m
[36m(ClientAppActor pid=404750)[0m 
…
ixup=0.0, copy_paste=0.0, copy_paste_mode=flip, auto_augment=randaugment, erasing=0.4, crop_fraction=1.0, cfg=None, tracker=botsort.yaml, save_dir=runs/detect/train2059[32m [repeated 3x across cluster][0m
[36m(ClientAppActor pid=404747)[0m Overriding class names with single class.[32m [repeated 3x across cluster][0m
[36m(ClientAppActor pid=404747)[0m                    from  n    params  module                                       arguments                     [32m [repeated 3x across cluster][0m
[36m(ClientAppActor pid=404747)[0m  19                  -1  1    147712  ultralytics.nn.modules.conv.Conv             [128, 128, 3, 2]              [32m [repeated 21x across cluster][0m
[36m(ClientAppActor pid=404747)[0m   8                  -1  1    460288  ultralytics.nn.modules.block.C2f             [256, 256, 1, True]           [32m [repeated 12x across cluster][0m
[36m(ClientAppActor pid=404747)[0m   9                  -1  1    164608  ultralytics.nn.modules.block.SPPF            [256, 256, 5]                 [32m [repeated 3x across cluster][0m
[36m(ClientAppActor pid=404747)[0m  13                  -1  1         0  torch.nn.modules.upsampling.Upsample         [None, 2, 'nearest']          [32m [repeated 6x across cluster][0m
[36m(ClientAppActor pid=404747)[0m  20             [-1, 9]  1         0  ultralytics.nn.modules.conv.Concat           [1]                           [32m [repeated 12x across cluster][0m
[36m(ClientAppActor pid=404747)[0m  22        [15, 18, 21]  1    751507  ultralytics.nn.modules.head.Detect           [1, [64, 128, 256]]           [32m [repeated 3x across cluster][0m
[36m(ClientAppActor pid=404747)[0m Model summary: 129 layers, 3,011,043 parameters, 3,011,027 gradients, 8.2 GFLOPs[32m [repeated 3x across cluster][0m
[36m(ClientAppActor pid=404747)[0m Transferred 355/355 items from pretrained weights[32m [repeated 3x across cluster][0m
[36m(ClientAppActor pid=404741)[0m              
…
, shear=0.0, perspective=0.0, flipud=0.0, fliplr=0.5, bgr=0.0, mosaic=1.0, mixup=0.0, copy_paste=0.0, copy_paste_mode=flip, auto_augment=randaugment, erasing=0.4, crop_fraction=1.0, cfg=None, tracker=botsort.yaml, save_dir=runs/detect/train2061
[36m(ClientAppActor pid=404746)[0m Overriding class names with single class.
[36m(ClientAppActor pid=404746)[0m 
[36m(ClientAppActor pid=404746)[0m                    from  n    params  module                                       arguments                     
[36m(ClientAppActor pid=404746)[0m   0                  -1  1       464  ultralytics.nn.modules.conv.Conv             [3, 16, 3, 2]                 
[36m(ClientAppActor pid=404746)[0m   1                  -1  1      4672  ultralytics.nn.modules.conv.Conv             [16, 32, 3, 2]                
[36m(ClientAppActor pid=404746)[0m   2                  -1  1      7360  ultralytics.nn.modules.block.C2f             [32, 32, 1, True]             
[36m(ClientAppActor pid=404746)[0m   3                  -1  1     18560  ultralytics.nn.modules.conv.Conv             [32, 64, 3, 2]                
[36m(ClientAppActor pid=404746)[0m   4                  -1  2     49664  ultralytics.nn.modules.block.C2f             [64, 64, 2, True]             
[36m(ClientAppActor pid=404746)[0m   5                  -1  1     73984  ultralytics.nn.modules.conv.Conv             [64, 128, 3, 2]               
[36m(ClientAppActor pid=404746)[0m   6                  -1  2    197632  ultralytics.nn.modules.block.C2f             [128, 128, 2, True]           
[36m(ClientAppActor pid=404746)[0m   7                  -1  1    295424  ultralytics.nn.modules.conv.Conv             [128, 256, 3, 2]              
[36m(ClientAppActor pid=404746)[0m   8                  -1  1    460288  ultralytics.nn.modules.block.C2f             [256, 256, 1, True]           
[36m(ClientAppActor pid=404746)[0m   9                  -1  1    164608  ultralytics.nn.modules.block.SPPF            [256, 256, 5]                 
[36m(ClientAppActor pid=404746)[0m  10                  -1  1         0  torch.nn.modules.upsampling.Upsample         [None, 2, 'nearest']          
[36m(ClientAppActor pid=404746)[0m  11             [-1, 6]  1         0  ultralytics.nn.modules.conv.Concat           [1]                           
[36m(ClientAppActor pid=404746)[0m  12                  -1  1    148224  ultralytics.nn.modules.block.C2f             [384, 128, 1]                 
[36m(ClientAppActor pid=404746)[0m  13                  -1  1         0  torch.nn.modules.upsampling.Upsample         [None, 2, 'nearest']          
[36m(ClientAppActor pid=404746)[0m  14             [-1, 4]  1         0  ultralytics.nn.modules.conv.Concat           [1]                           
[36m(ClientAppActor pid=404746)[0m  15                  -1  1     37248  ultralytics.nn.modules.block.C2f             [192, 64, 1]                  
[36m(ClientAppActor pid=404746)[0m  16                  -1  1     36992  ultralytics.nn.modules.conv.Conv             [64, 64, 3, 2]                
[36m(ClientAppActor pid=404746)[0m  17            [-1, 12]  1         0  ultralytics.nn.modules.conv.Concat           [1]                           
[36m(ClientAppActor pid=404746)[0m  18                  -1  1    123648  ultralytics.nn.modules.block.C2f             [192, 128, 1]                 
[36m(ClientAppActor pid=404746)[0m  19                  -1  1    147712  ultralytics.nn.modules.conv.Conv             [128, 128, 3, 2]              
[36m(ClientAppActor pid=404746)[0m  20             [-1, 9]  1         0  ultralytics.nn.modules.conv.Concat           [1]                           
[36m(ClientAppActor pid=404746)[0m  21                  -1  1    493056  ultralytics.nn.modules.block.C2f             [384, 256, 1]                 
[36m(ClientAppActor pid=404746)[0m  22        [15, 18, 21]  1    751507  ultralytics.nn.modules.head.Detect           [1, [64, 128, 256]]           
[36m(ClientAppActor pid=404748)[0m 
[36m(ClientAppActor pid=404748)[0m  12                  -1  1    148224  ultralytics.nn.modules.block.C2f             [384, 128, 1]                 
[36m(ClientAppActor pid=404748)[0m  15                  -1  1     37248  ultralytics.nn.modules.block.C2f             [192, 64, 1]                  
[36m(ClientAppActor pid=404748)[0m [34m[1mtrain: [0mScanning /WehbeDocker/YOLOV8N/datasets/client_0/train/labels.cache... 120 images, 0 backgrounds, 0 corrupt: 100%|â–ˆâ–ˆâ–ˆâ–ˆâ–ˆâ–ˆâ–ˆâ–ˆâ–ˆâ–ˆ| 120/120 [00:00<?, ?it/s][34m[1mtrain: [0mScanning /WehbeDocker/YOLOV8N/datasets/client_0/train/labels.cache... 120 images, 0 backgrounds, 0 corrupt: 100%|â–ˆâ–ˆâ–ˆâ–ˆâ–ˆâ–ˆâ–ˆâ–ˆâ–ˆâ–ˆ| 120/120 [00:00<?, ?it/s]
…
[36m(ClientAppActor pid=404750)[0m                  Class     Images  Instances      Box(P          R      mAP50  mAP50-95): 100%|â–ˆâ–ˆâ–ˆâ–ˆâ–ˆâ–ˆâ–ˆâ–ˆâ–ˆâ–ˆ| 3/3 [00:03<00:00,  1.02s/it]                 Class     Images  Instances      Box(P          R      mAP50  mAP50-95): 100%|â–ˆâ–ˆâ–ˆâ–ˆâ–ˆâ–ˆâ–ˆâ–ˆâ–ˆâ–ˆ| 3/3 [00:03<00:00,  1.30s/it][32m [repeated 4x across cluster][0m
[36m(ClientAppActor pid=404746)[0m [34m[1mtrain: [0mScanning /WehbeDocker/YOLOV8N/datasets/client_14/train/labels.cache... 187 images, 0 backgrounds, 0 corrupt: 100%|â–ˆâ–ˆâ–ˆâ–ˆâ–ˆâ–ˆâ–ˆâ–ˆâ–ˆâ–ˆ| 187/187 [00:00<?, ?it/s][34m[1mtrain: [0mScanning /WehbeDocker/YOLOV8N/datasets/client_14/train/labels.cache... 187 images, 0 backgrounds, 0 corrupt: 100%|â–ˆâ–ˆâ–ˆâ–ˆâ–ˆâ–ˆâ–ˆâ–ˆâ–ˆâ–ˆ| 187/187 [00:00<?, ?it/s]
[36m(ClientAppActor pid=404748)[0m  18                  -1  1    123648  ultralytics.nn.modules.block.C2f             [192, 128, 1]                 
[36m(ClientAppActor pid=404748)[0m  21                  -1  1    493056  ultralytics.nn.modules.block.C2f             [384, 256, 1]                 
[36m(ClientAppActor pid=404750)[0m 
[36m(ClientAppActor pid=404750)[0m  12                  -1  1    148224  ultralytics.nn.modules.block.C2f             [384, 128, 1]                 
[36m(ClientAppActor pid=404750)[0m  15                  -1  1     37248  ultralytics.nn.modules.block.C2f             [192, 64, 1]                  
[36m(ClientAppActor pid=404750)[0m  18                  -1  1    123648  ultralytics.nn.modules.block.C2f             [192, 128, 1]                 
[36m(ClientAppActor pid=404750)[0m  21                  -1  1    493056  ultralytics.nn.modules.block.C2f             [384, 256, 1]                 
[36m(ClientAppActor pid=404746)[0m Model summary: 129 layers, 3,011,043 parameters, 3,011,027 gradients, 8.2 GFLOPs
[36m(ClientAppActor pid=404746)[0m 
[36m(ClientAppActor pid=404746)[0m Transferred 355/355 items from pretrained weights
[36m(ClientAppActor pid=404746)[0m [34m[1mTensorBoard: [0mStart with 'tensorboard --logdir runs/detect/train2061', view at http://localhost:6006/
[36m(ClientAppActor pid=404748)[0m 
[36m(ClientAppActor pid=404748)[0m Freezing layer 'model.22.dfl.conv.weight'
[36m(ClientAppActor pid=404748)[0m [34m[1mAMP: [0mrunning Automatic Mixed Precision (AMP) checks...
[36m(ClientAppActor pid=404741)[0m [Client 7] Device: cuda:0
[36m(ClientAppActor pid=404744)[0m 
[36m(ClientAppActor pid=404744)[0m  12                  -1  1    148224  ultralytics.nn.modules.block.C2f             [384, 128, 1]                 
[36m(ClientAppActor pid=404744)[0m  15                  -1  1     37248  ultralytics.nn.modules.block.C2f             [192, 64, 1]                  
[36m(ClientAppActor pid=404744)[0m  18                  -1  1    123648  ultralytics.nn.modules.block.C2f             [192, 128, 1]                 
[36m(ClientAppActor pid=404744)[0m  21                  -1  1    493056  ultralytics.nn.modules.block.C2f             [384, 256, 1]                 
[36m(ClientAppActor pid=404750)[0m 
[36m(ClientAppActor pid=404740)[0m 
[36m(ClientAppActor pid=404740)[0m  12                  -1  1    148224  ultralytics.nn.modules.block.C2f             [384, 128, 1]                 
[36m(ClientAppActor pid=404740)[0m  15                  -1  1     37248  ultralytics.nn.modules.block.C2f             [192, 64, 1]                  
[36m(ClientAppActor pid=404740)[0m  18                  -1  1    123648  ultralytics.nn.modules.block.C2f             [192, 128, 1]                 
[36m(ClientAppActor pid=404740)[0m  21                  -1  1    493056  ultralytics.nn.modules.block.C2f             [384, 256, 1]                 
[36m(ClientAppActor pid=404744)[0m 
[36m(ClientAppActor pid=404743)[0m 
[36m(ClientAppActor pid=404743)[0m  12                  -1  1    148224  ultralytics.nn.modules.block.C2f             [384, 128, 1]                 
[36m(ClientAppActor pid=404743)[0m  15                  -1  1     37248  ultralytics.nn.modules.block.C2f             [192, 64, 1]                  
[36m(ClientAppActor pid=404743)[0m  18                  -1  1    123648  ultralytics.nn.modules.block.C2f             [192, 128, 1]                 
[36m(ClientAppActor pid=404747)[0m 
[36m(ClientAppActor pid=404747)[0m  12                  -1  1    148224  ultralytics.nn.modules.block.C2f             [384, 128, 1]                 
[36m(ClientAppActor pid=404747)[0m  15                  -1  1     37248  ultralytics.nn.modules.block.C2f             [192, 64, 1]                  
[36m(ClientAppActor pid=404747)[0m  18                  -1  1    123648  ultralytics.nn.modules.block.C2f             [192, 128, 1]                 
[36m(ClientAppActor pid=404747)[0m  21                  -1  1    493056  ultralytics.nn.modules.block.C2f             [384, 256, 1]                 
[36m(ClientAppActor pid=404740)[0m 
[36m(ClientAppActor pid=404743)[0m  21                  -1  1    493056  ultralytics.nn.modules.block.C2f             [384, 256, 1]                 
[36m(ClientAppActor pid=404747)[0m 
[36m(ClientAppActor pid=404741)[0m 
[36m(ClientAppActor pid=404741)[0m  12                  -1  1    148224  ultralytics.nn.modules.block.C2f             [384, 128, 1]                 
[36m(ClientAppActor pid=404741)[0m  15                  -1  1     37248  ultralytics.nn.modules.block.C2f             [192, 64, 1]                  
[36m(ClientAppActor pid=404741)[0m  18                  -1  1    123648  ultralytics.nn.modules.block.C2f             [192, 128, 1]                 
[36m(ClientAppActor pid=404741)[0m  21                  -1  1    493056  ultralytics.nn.modules.block.C2f             [384, 256, 1]                 
[36m(ClientAppActor pid=404743)[0m 
[36m(ClientAppActor pid=404748)[0m [34m[1mAMP: [0mchecks passed âœ…
[36m(ClientAppActor pid=404741)[0m 
[36m(ClientAppActor pid=404750)[0m Plotting labels to runs/detect/train2062/labels.jpg... 
[36m(ClientAppActor pid=404741)[0m New https://pypi.org/project/ultralytics/8.3.122 available ðŸ˜ƒ Update with 'pip install -U ultralytics'[32m [repeated 7x across cluster][0m
…
, shear=0.0, perspective=0.0, flipud=0.0, fliplr=0.5, bgr=0.0, mosaic=1.0, mixup=0.0, copy_paste=0.0, copy_paste_mode=flip, auto_augment=randaugment, erasing=0.4, crop_fraction=1.0, cfg=None, tracker=botsort.yaml, save_dir=runs/detect/train2068
[36m(ClientAppActor pid=404740)[0m Overriding class names with single class.
[36m(ClientAppActor pid=404740)[0m 
[36m(ClientAppActor pid=404740)[0m                    from  n    params  module                                       arguments                     
[36m(ClientAppActor pid=404740)[0m   0                  -1  1       464  ultralytics.nn.modules.conv.Conv             [3, 16, 3, 2]                 
[36m(ClientAppActor pid=404740)[0m   1                  -1  1      4672  ultralytics.nn.modules.conv.Conv             [16, 32, 3, 2]                
[36m(ClientAppActor pid=404740)[0m   2                  -1  1      7360  ultralytics.nn.modules.block.C2f             [32, 32, 1, True]             
[36m(ClientAppActor pid=404740)[0m   3                  -1  1     18560  ultralytics.nn.modules.conv.Conv             [32, 64, 3, 2]                
[36m(ClientAppActor pid=404740)[0m   4                  -1  2     49664  ultralytics.nn.modules.block.C2f             [64, 64, 2, True]             
[36m(ClientAppActor pid=404740)[0m   5                  -1  1     73984  ultralytics.nn.modules.conv.Conv             [64, 128, 3, 2]               
[36m(ClientAppActor pid=404740)[0m   6                  -1  2    197632  ultralytics.nn.modules.block.C2f             [128, 128, 2, True]           
[36m(ClientAppActor pid=404740)[0m   7                  -1  1    295424  ultralytics.nn.modules.conv.Conv             [128, 256, 3, 2]              
[36m(ClientAppActor pid=404740)[0m   8                  -1  1    460288  ultralytics.nn.modules.block.C2f             [256, 256, 1, True]           
[36m(ClientAppActor pid=404740)[0m   9                  -1  1    164608  ultralytics.nn.modules.block.SPPF            [256, 256, 5]                 
[36m(ClientAppActor pid=404740)[0m  10                  -1  1         0  torch.nn.modules.upsampling.Upsample         [None, 2, 'nearest']          
[36m(ClientAppActor pid=404740)[0m  11             [-1, 6]  1         0  ultralytics.nn.modules.conv.Concat           [1]                           
[36m(ClientAppActor pid=404740)[0m  12                  -1  1    148224  ultralytics.nn.modules.block.C2f             [384, 128, 1]                 
[36m(ClientAppActor pid=404747)[0m       10/10      2.08G       1.09      1.478      1.242         86        640:  92%|â–ˆâ–ˆâ–ˆâ–ˆâ–ˆâ–ˆâ–ˆâ–ˆâ–ˆâ–| 11/12 [00:02<00:00,  4.96it/s]      10/10      2.08G       1.09      1.478      1.242         86        640: 100%|â–ˆâ–ˆâ–ˆâ–ˆâ–ˆâ–ˆâ–ˆâ–ˆâ–ˆâ–ˆ| 12/12 [00:02<00:00,  5.13it/s]      10/10      2.08G       1.09      1.478      1.242         86        640: 100%|â–ˆâ–ˆâ–ˆâ–ˆâ–ˆâ–ˆâ–ˆâ–ˆâ–ˆâ–ˆ| 12/12 [00:02<00:00,  5.37it/s]
…
[36m(ClientAppActor pid=404746)[0m       10/10       2.1G      1.079      1.336      1.234         65        640:   8%|â–Š         | 1/12 [00:00<00:01,  7.77it/s]      10/10       2.1G      1.079      1.336      1.234         65        640:  25%|â–ˆâ–ˆâ–Œ       | 3/12 [00:00<00:00,  9.04it/s][32m [repeated 39x across cluster][0m
[36m(ClientAppActor pid=404747)[0m                  Class     Images  Instances      Box(P          R      mAP50  mAP50-95):  50%|â–ˆâ–ˆâ–ˆâ–ˆâ–ˆ     | 1/2 [00:00<00:00,  2.56it/s][32m [repeated 7x across cluster][0m
[36m(ClientAppActor pid=404740)[0m  13                  -1  1         0  torch.nn.modules.upsampling.Upsample         [None, 2, 'nearest']          
[36m(ClientAppActor pid=404740)[0m  14             [-1, 4]  1         0  ultralytics.nn.modules.conv.Concat           [1]                           
[36m(ClientAppActor pid=404740)[0m  15                  -1  1     37248  ultralytics.nn.modules.block.C2f             [192, 64, 1]                  
[36m(ClientAppActor pid=404740)[0m  16                  -1  1     36992  ultralytics.nn.modules.conv.Conv             [64, 64, 3, 2]                
[36m(ClientAppActor pid=404740)[0m  17            [-1, 12]  1         0  ultralytics.nn.modules.conv.Concat           [1]                           
[36m(ClientAppActor pid=404740)[0m  18                  -1  1    123648  ultralytics.nn.modules.block.C2f             [192, 128, 1]                 
[36m(ClientAppActor pid=404740)[0m  19                  -1  1    147712  ultralytics.nn.modules.conv.Conv             [128, 128, 3, 2]              
[36m(ClientAppActor pid=404740)[0m  20             [-1, 9]  1         0  ultralytics.nn.modules.conv.Concat           [1]                           
[36m(ClientAppActor pid=404740)[0m  21                  -1  1    493056  ultralytics.nn.modules.block.C2f             [384, 256, 1]                 
[36m(ClientAppActor pid=404740)[0m  22        [15, 18, 21]  1    751507  ultralytics.nn.modules.head.Detect           [1, [64, 128, 256]]           
[36m(ClientAppActor pid=404740)[0m Model summary: 129 layers, 3,011,043 parameters, 3,011,027 gradients, 8.2 GFLOPs
[36m(ClientAppActor pid=404740)[0m 
[36m(ClientAppActor pid=404740)[0m Transferred 355/355 items from pretrained weights
[36m(ClientAppActor pid=404740)[0m [34m[1mTensorBoard: [0mStart with 'tensorboard --logdir runs/detect/train2068', view at http://localhost:6006/
[36m(ClientAppActor pid=404744)[0m 
[36m(ClientAppActor pid=404740)[0m Freezing layer 'model.22.dfl.conv.weight'
[36m(ClientAppActor pid=404740)[0m [34m[1mAMP: [0mrunning Automatic Mixed Precision (AMP) checks...
[36m(ClientAppActor pid=404743)[0m 
[36m(ClientAppActor pid=404748)[0m 
[36m(ClientAppActor pid=404748)[0m  12                  -1  1    148224  ultralytics.nn.modules.block.C2f             [384, 128, 1]                 
[36m(ClientAppActor pid=404748)[0m  15                  -1  1     37248  ultralytics.nn.modules.block.C2f             [192, 64, 1]                  
[36m(ClientAppActor pid=404748)[0m  18                  -1  1    123648  ultralytics.nn.modules.block.C2f             [192, 128, 1]                 
[36m(ClientAppActor pid=404748)[0m  21                  -1  1    493056  ultralytics.nn.modules.block.C2f             [384, 256, 1]                 
[36m(ClientAppActor pid=404748)[0m 
[36m(ClientAppActor pid=404740)[0m [34m[1mAMP: [0mchecks passed âœ…
[36m(ClientAppActor pid=404741)[0m 
[36m(ClientAppActor pid=404741)[0m  12                  -1  1    148224  ultralytics.nn.modules.block.C2f             [384, 128, 1]                 
[36m(ClientAppActor pid=404741)[0m  15                  -1  1     37248  ultralytics.nn.modules.block.C2f             [192, 64, 1]                  
[36m(ClientAppActor pid=404741)[0m  18                  -1  1    123648  ultralytics.nn.modules.block.C2f             [192, 128, 1]                 
[36m(ClientAppActor pid=404741)[0m  21                  -1  1    493056  ultralytics.nn.modules.block.C2f             [384, 256, 1]                 
[36m(ClientAppActor pid=404741)[0m 
[36m(ClientAppActor pid=404747)[0m 
[36m(ClientAppActor pid=404747)[0m 10 epochs completed in 0.017 hours.
[36m(ClientAppActor pid=404747)[0m Optimizer stripped from runs/detect/train2065/weights/last.pt, 6.2MB
[36m(ClientAppActor pid=404747)[0m Optimizer stripped from runs/detect/train2065/weights/best.pt, 6.2MB
[36m(ClientAppActor pid=404747)[0m 
[36m(ClientAppActor pid=404747)[0m Validating runs/detect/train2065/weights/best.pt...
[36m(ClientAppActor pid=404747)[0m Ultralytics 8.3.86 ðŸš€ Python-3.10.12 torch-2.5.1+cu121 CUDA:0 (NVIDIA A40, 45525MiB)
[36m(ClientAppActor pid=404750)[0m 
[36m(ClientAppActor pid=404750)[0m  12                  -1  1    148224  ultralytics.nn.modules.block.C2f             [384, 128, 1]                 
[36m(ClientAppActor pid=404750)[0m  15                  -1  1     37248  ultralytics.nn.modules.block.C2f             [192, 64, 1]                  
[36m(ClientAppActor pid=404750)[0m  18                  -1  1    123648  ultralytics.nn.modules.block.C2f             [192, 128, 1]                 
[36m(ClientAppActor pid=404750)[0m  21                  -1  1    493056  ultralytics.nn.modules.block.C2f             [384, 256, 1]                 
[36m(ClientAppActor pid=404750)[0m 
[36m(ClientAppActor pid=404747)[0m Model summary (fused): 72 layers, 3,005,843 parameters, 0 gradients, 8.1 GFLOPs
[36m(ClientAppActor pid=404744)[0m                    all         42        107      0.432      0.449      0.371      0.236[32m [repeated 6x across cluster][0m
[36m(ClientAppActor pid=404743)[0m       Epoch    GPU_mem   box_loss   cls_loss   dfl_loss  Instances       Size[32m [repeated 4x across cluster][0m
…
, shear=0.0, perspective=0.0, flipud=0.0, fliplr=0.5, bgr=0.0, mosaic=1.0, mixup=0.0, copy_paste=0.0, copy_paste_mode=flip, auto_augment=randaugment, erasing=0.4, crop_fraction=1.0, cfg=None, tracker=botsort.yaml, save_dir=runs/detect/train2084
[36m(ClientAppActor pid=404747)[0m Overriding class names with single class.
[36m(ClientAppActor pid=404747)[0m 
[36m(ClientAppActor pid=404747)[0m                    from  n    params  module                                       arguments                     
[36m(ClientAppActor pid=404747)[0m   0                  -1  1       464  ultralytics.nn.modules.conv.Conv             [3, 16, 3, 2]                 
[36m(ClientAppActor pid=404747)[0m   1                  -1  1      4672  ultralytics.nn.modules.conv.Conv             [16, 32, 3, 2]                
[36m(ClientAppActor pid=404747)[0m   2                  -1  1      7360  ultralytics.nn.modules.block.C2f             [32, 32, 1, True]             
[36m(ClientAppActor pid=404747)[0m   3                  -1  1     18560  ultralytics.nn.modules.conv.Conv             [32, 64, 3, 2]                
[36m(ClientAppActor pid=404747)[0m   4                  -1  2     49664  ultralytics.nn.modules.block.C2f             [64, 64, 2, True]             
[36m(ClientAppActor pid=404747)[0m   5                  -1  1     73984  ultralytics.nn.modules.conv.Conv             [64, 128, 3, 2]               
[36m(ClientAppActor pid=404747)[0m   6                  -1  2    197632  ultralytics.nn.modules.block.C2f             [128, 128, 2, True]           
[36m(ClientAppActor pid=404747)[0m   7                  -1  1    295424  ultralytics.nn.modules.conv.Conv             [128, 256, 3, 2]              
[36m(ClientAppActor pid=404747)[0m   8                  -1  1    460288  ultralytics.nn.modules.block.C2f             [256, 256, 1, True]           
[36m(ClientAppActor pid=404747)[0m   9                  -1  1    164608  ultralytics.nn.modules.block.SPPF            [256, 256, 5]                 
[36m(ClientAppActor pid=404747)[0m  10                  -1  1         0  torch.nn.modules.upsampling.Upsample         [None, 2, 'nearest']          
[36m(ClientAppActor pid=404747)[0m  11             [-1, 6]  1         0  ultralytics.nn.modules.conv.Concat           [1]                           
[36m(ClientAppActor pid=404747)[0m  12                  -1  1    148224  ultralytics.nn.modules.block.C2f             [384, 128, 1]                 
[36m(ClientAppActor pid=404747)[0m  13                  -1  1         0  torch.nn.modules.upsampling.Upsample         [None, 2, 'nearest']          
[36m(ClientAppActor pid=404747)[0m  14             [-1, 4]  1         0  ultralytics.nn.modules.conv.Concat           [1]                           
…
[36m(ClientAppActor pid=404747)[0m  16                  -1  1     36992  ultralytics.nn.modules.conv.Conv             [64, 64, 3, 2]                
[36m(ClientAppActor pid=404747)[0m  17            [-1, 12]  1         0  ultralytics.nn.modules.conv.Concat           [1]                           
[36m(ClientAppActor pid=404747)[0m  18                  -1  1    123648  ultralytics.nn.modules.block.C2f             [192, 128, 1]                 
[36m(ClientAppActor pid=404746)[0m                  Class     Images  Instances      Box(P          R      mAP50  mAP50-95): 100%|â–ˆâ–ˆâ–ˆâ–ˆâ–ˆâ–ˆâ–ˆâ–ˆâ–ˆâ–ˆ| 2/2 [00:00<00:00,  4.70it/s]
[36m(ClientAppActor pid=404746)[0m   0%|          | 0/12 [00:00<?, ?it/s][32m [repeated 2x across cluster][0m
[36m(ClientAppActor pid=404750)[0m                  Class     Images  Instances      Box(P          R      mAP50  mAP50-95):  50%|â–ˆâ–ˆâ–ˆâ–ˆâ–ˆ     | 1/2 [00:00<00:00,  8.05it/s]                 Class     Images  Instances      Box(P          R      mAP50  mAP50-95): 100%|â–ˆâ–ˆâ–ˆâ–ˆâ–ˆâ–ˆâ–ˆâ–ˆâ–ˆâ–ˆ| 2/2 [00:00<00:00,  9.62it/s]
…
[36m(ClientAppActor pid=404750)[0m                  Class     Images  Instances      Box(P          R      mAP50  mAP50-95): 100%|â–ˆâ–ˆâ–ˆâ–ˆâ–ˆâ–ˆâ–ˆâ–ˆâ–ˆâ–ˆ| 2/2 [00:00<00:00,  6.95it/s]                 Class     Images  Instances      Box(P          R      mAP50  mAP50-95): 100%|â–ˆâ–ˆâ–ˆâ–ˆâ–ˆâ–ˆâ–ˆâ–ˆâ–ˆâ–ˆ| 2/2 [00:00<00:00,  7.01it/s][32m [repeated 2x across cluster][0m
[36m(ClientAppActor pid=404750)[0m /usr/local/lib/python3.10/dist-packages/ultralytics/utils/metrics.py:529: DeprecationWarning: `trapz` is deprecated. Use `trapezoid` instead, or one of the numerical integration functions in `scipy.integrate`.[32m [repeated 4x across cluster][0m
[36m(ClientAppActor pid=404750)[0m   ap = np.trapz(np.interp(x, mrec, mpre), x)  # integrate[32m [repeated 4x across cluster][0m
[36m(ClientAppActor pid=404747)[0m  19                  -1  1    147712  ultralytics.nn.modules.conv.Conv             [128, 128, 3, 2]              
[36m(ClientAppActor pid=404747)[0m  20             [-1, 9]  1         0  ultralytics.nn.modules.conv.Concat           [1]                           
[36m(ClientAppActor pid=404747)[0m  21                  -1  1    493056  ultralytics.nn.modules.block.C2f             [384, 256, 1]                 
[36m(ClientAppActor pid=404747)[0m  22        [15, 18, 21]  1    751507  ultralytics.nn.modules.head.Detect           [1, [64, 128, 256]]           
[36m(ClientAppActor pid=404747)[0m Model summary: 129 layers, 3,011,043 parameters, 3,011,027 gradients, 8.2 GFLOPs
[36m(ClientAppActor pid=404747)[0m 
[36m(ClientAppActor pid=404747)[0m Transferred 355/355 items from pretrained weights
[36m(ClientAppActor pid=404747)[0m [34m[1mTensorBoard: [0mStart with 'tensorboard --logdir runs/detect/train2084', view at http://localhost:6006/
[36m(ClientAppActor pid=404747)[0m Freezing layer 'model.22.dfl.conv.weight'
[36m(ClientAppActor pid=404747)[0m [34m[1mAMP: [0mrunning Automatic Mixed Precision (AMP) checks...
[36m(ClientAppActor pid=404748)[0m 
[36m(ClientAppActor pid=404748)[0m  12                  -1  1    148224  ultralytics.nn.modules.block.C2f             [384, 128, 1]                 
[36m(ClientAppActor pid=404748)[0m  15                  -1  1     37248  ultralytics.nn.modules.block.C2f             [192, 64, 1]                  
[36m(ClientAppActor pid=404748)[0m  18                  -1  1    123648  ultralytics.nn.modules.block.C2f             [192, 128, 1]                 
[36m(ClientAppActor pid=404748)[0m  21                  -1  1    493056  ultralytics.nn.modules.block.C2f             [384, 256, 1]                 
[36m(ClientAppActor pid=404750)[0m                    all         52        100      0.615       0.53      0.497      0.296[32m [repeated 6x across cluster][0m
[36m(ClientAppActor pid=404746)[0m Model summary (fused): 72 layers, 3,005,843 parameters, 0 gradients, 8.1 GFLOPs[32m [repeated 2x across cluster][0m
[36m(ClientAppActor pid=404748)[0m 
[36m(ClientAppActor pid=404747)[0m [34m[1mAMP: [0mchecks passed âœ…
[36m(ClientAppActor pid=404750)[0m 
[36m(ClientAppActor pid=404744)[0m 
[36m(ClientAppActor pid=404744)[0m  12                  -1  1    148224  ultralytics.nn.modules.block.C2f             [384, 128, 1]                 
[36m(ClientAppActor pid=404744)[0m  15                  -1  1     37248  ultralytics.nn.modules.block.C2f             [192, 64, 1]                  
[36m(ClientAppActor pid=404744)[0m  18                  -1  1    123648  ultralytics.nn.modules.block.C2f             [192, 128, 1]                 
[36m(ClientAppActor pid=404744)[0m  21                  -1  1    493056  ultralytics.nn.modules.block.C2f             [384, 256, 1]                 
[36m(ClientAppActor pid=404750)[0m 
[36m(ClientAppActor pid=404744)[0m 
[36m(ClientAppActor pid=404741)[0m 
[36m(ClientAppActor pid=404741)[0m  12                  -1  1    148224  ultralytics.nn.modules.block.C2f             [384, 128, 1]                 
[36m(ClientAppActor pid=404741)[0m  15                  -1  1     37248  ultralytics.nn.modules.block.C2f             [192, 64, 1]                  
[36m(ClientAppActor pid=404741)[0m  18                  -1  1    123648  ultralytics.nn.modules.block.C2f             [192, 128, 1]                 
[36m(ClientAppActor pid=404741)[0m  21                  -1  1    493056  ultralytics.nn.modules.block.C2f             [384, 256, 1]                 
[36m(ClientAppActor pid=404741)[0m 
[36m(ClientAppActor pid=404747)[0m Plotting labels to runs/detect/train2084/labels.jpg... 
[36m(ClientAppActor pid=404740)[0m 
[36m(ClientAppActor pid=404746)[0m Speed: 0.2ms preprocess, 1.4ms inference, 0.0ms loss, 2.9ms postprocess per image
[36m(ClientAppActor pid=404746)[0m Results saved to [1mruns/detect/train2081[0m
[36m(ClientAppActor pid=404750)[0m       Epoch    GPU_mem   box_loss   cls_loss   dfl_loss  Instances       Size
[36m(ClientAppActor pid=404740)[0m  12                  -1  1    148224  ultralytics.nn.modules.block.C2f             [384, 128, 1]                 
[36m(ClientAppActor pid=404740)[0m  15                  -1  1     37248  ultralytics.nn.modules.block.C2f             [192, 64, 1]                  
[36m(ClientAppActor pid=404740)[0m  18                  -1  1    123648  ultralytics.nn.modules.block.C2f             [192, 128, 1]                 
[36m(ClientAppActor pid=404740)[0m  21                  -1  1    493056  ultralytics.nn.modules.block.C2f             [384, 256, 1]                 
[36m(ClientAppActor pid=404740)[0m 
[36m(ClientAppActor pid=404750)[0m Optimizer stripped from runs/detect/train2077/weights/best.pt, 6.2MB[32m [repeated 4x across cluster][0m
[36m(ClientAppActor pid=404750)[0m 10 epochs completed in 0.016 hours.
[36m(ClientAppActor pid=404743)[0m 
[36m(ClientAppActor pid=404750)[0m Validating runs/detect/train2077/weights/best.pt...
…
ixup=0.0, copy_paste=0.0, copy_paste_mode=flip, auto_augment=randaugment, erasing=0.4, crop_fraction=1.0, cfg=None, tracker=botsort.yaml, save_dir=runs/detect/train2089[32m [repeated 5x across cluster][0m
[36m(ClientAppActor pid=404743)[0m Overriding class names with single class.[32m [repeated 5x across cluster][0m
[36m(ClientAppActor pid=404743)[0m                    from  n    params  module                                       arguments                     [32m [repeated 5x across cluster][0m
[36m(ClientAppActor pid=404743)[0m   7                  -1  1    295424  ultralytics.nn.modules.conv.Conv             [128, 256, 3, 2]              [32m [repeated 33x across cluster][0m
[36m(ClientAppActor pid=404743)[0m   8                  -1  1    460288  ultralytics.nn.modules.block.C2f             [256, 256, 1, True]           [32m [repeated 20x across cluster][0m
[36m(ClientAppActor pid=404743)[0m   9                  -1  1    164608  ultralytics.nn.modules.block.SPPF            [256, 256, 5]                 [32m [repeated 5x across cluster][0m
[36m(ClientAppActor pid=404740)[0m [34m[1mtrain: [0mScanning /WehbeDocker/YOLOV8N/datasets/client_14/train/labels.cache... 187 images, 0 backgrounds, 0 corrupt: 100%|â–ˆâ–ˆâ–ˆâ–ˆâ–ˆâ–ˆâ–ˆâ–ˆâ–ˆâ–ˆ| 187/187 [00:00<?, ?it/s][34m[1mtrain: [0mScanning /WehbeDocker/YOLOV8N/datasets/client_14/train/labels.cache... 187 images, 0 backgrounds, 0 corrupt: 100%|â–ˆâ–ˆâ–ˆâ–ˆâ–ˆâ–ˆâ–ˆâ–ˆâ–ˆâ–ˆ| 187/187 [00:00<?, ?it/s][32m [repeated 8x across cluster][0m
[36m(ClientAppActor pid=404740)[0m  13                  -1  1         0  torch.nn.modules.upsampling.Upsample         [None, 2, 'nearest']          [32m [repeated 8x across cluster][0m
[36m(ClientAppActor pid=404740)[0m  20             [-1, 9]  1         0  ultralytics.nn.modules.conv.Concat           [1]                           [32m [repeated 16x across cluster][0m
[36m(ClientAppActor pid=404740)[0m  22        [15, 18, 21]  1    751507  ultralytics.nn.modules.head.Detect           [1, [64, 128, 256]]           [32m [repeated 4x across cluster][0m
[36m(ClientAppActor pid=404740)[0m Model summary: 129 layers, 3,011,043 parameters, 3,011,027 gradients, 8.2 GFLOPs[32m [repeated 4x across cluster][0m
[36m(ClientAppActor pid=404740)[0m Transferred 355/355 items from pretrained weights[32m [repeated 4x across cluster][0m
[36m(ClientAppActor pid=404740)[0m [34m[1mTensorBoard: [0mStart with 'tensorboard --logdir runs/detect/train2088', view at http://localhost:6006/[32m [repeated 4x across cluster][0m
…
, shear=0.0, perspective=0.0, flipud=0.0, fliplr=0.5, bgr=0.0, mosaic=1.0, mixup=0.0, copy_paste=0.0, copy_paste_mode=flip, auto_augment=randaugment, erasing=0.4, crop_fraction=1.0, cfg=None, tracker=botsort.yaml, save_dir=runs/detect/train2090
[36m(ClientAppActor pid=404746)[0m Overriding class names with single class.
[36m(ClientAppActor pid=404746)[0m 
[36m(ClientAppActor pid=404746)[0m                    from  n    params  module                                       arguments                     
[36m(ClientAppActor pid=404746)[0m   2                  -1  1      7360  ultralytics.nn.modules.block.C2f             [32, 32, 1, True]             
[36m(ClientAppActor pid=404746)[0m   4                  -1  2     49664  ultralytics.nn.modules.block.C2f             [64, 64, 2, True]             
[36m(ClientAppActor pid=404746)[0m   6                  -1  2    197632  ultralytics.nn.modules.block.C2f             [128, 128, 2, True]           
[36m(ClientAppActor pid=404746)[0m   8                  -1  1    460288  ultralytics.nn.modules.block.C2f             [256, 256, 1, True]           
[36m(ClientAppActor pid=404746)[0m   9                  -1  1    164608  ultralytics.nn.modules.block.SPPF            [256, 256, 5]                 
[36m(ClientAppActor pid=404746)[0m  12                  -1  1    148224  ultralytics.nn.modules.block.C2f             [384, 128, 1]                 
[36m(ClientAppActor pid=404746)[0m  15                  -1  1     37248  ultralytics.nn.modules.block.C2f             [192, 64, 1]                  
[36m(ClientAppActor pid=404746)[0m  18                  -1  1    123648  ultralytics.nn.modules.block.C2f             [192, 128, 1]                 
[36m(ClientAppActor pid=404746)[0m  21                  -1  1    493056  ultralytics.nn.modules.block.C2f             [384, 256, 1]                 
[36m(ClientAppActor pid=404746)[0m  22        [15, 18, 21]  1    751507  ultralytics.nn.modules.head.Detect           [1, [64, 128, 256]]           
[36m(ClientAppActor pid=404746)[0m Model summary: 129 layers, 3,011,043 parameters, 3,011,027 gradients, 8.2 GFLOPs
[36m(ClientAppActor pid=404743)[0m [34m[1mval: [0mScanning /WehbeDocker/YOLOV8N/datasets/client_8/valid/labels.cache... 56 images, 0 backgrounds, 0 corrupt: 100%|â–ˆâ–ˆâ–ˆâ–ˆâ–ˆâ–ˆâ–ˆâ–ˆâ–ˆâ–ˆ| 56/56 [00:00<?, ?it/s][34m[1mval: [0mScanning /WehbeDocker/YOLOV8N/datasets/client_8/valid/labels.cache... 56 images, 0 backgrounds, 0 corrupt: 100%|â–ˆâ–ˆâ–ˆâ–ˆâ–ˆâ–ˆâ–ˆâ–ˆâ–ˆâ–ˆ| 56/56 [00:00<?, ?it/s][32m [repeated 3x across cluster][0m
…
 degrees=0.0, translate=0.1, scale=0.5, shear=0.0, perspective=0.0, flipud=0.0, fliplr=0.5, bgr=0.0, mosaic=1.0, mixup=0.0, copy_paste=0.0, copy_paste_mode=flip, auto_augment=randaugment, erasing=0.4, crop_fraction=1.0, cfg=None, tracker=botsort.yaml, save_dir=runs/detect/train2091
[36m(ClientAppActor pid=404750)[0m Overriding class names with single class.
[36m(ClientAppActor pid=404750)[0m                    from  n    params  module                                       arguments                     
[36m(ClientAppActor pid=404750)[0m   6                  -1  2    197632  ultralytics.nn.modules.block.C2f             [128, 128, 2, True]           [32m [repeated 3x across cluster][0m
[36m(ClientAppActor pid=404750)[0m   9                  -1  1    164608  ultralytics.nn.modules.block.SPPF            [256, 256, 5]                 
[36m(ClientAppActor pid=404750)[0m  12                  -1  1    148224  ultralytics.nn.modules.block.C2f             [384, 128, 1]                 
[36m(ClientAppActor pid=404750)[0m  15                  -1  1     37248  ultralytics.nn.modules.block.C2f             [192, 64, 1]                  
[36m(ClientAppActor pid=404750)[0m  18                  -1  1    123648  ultralytics.nn.modules.block.C2f             [192, 128, 1]                 
[36m(ClientAppActor pid=404750)[0m  21                  -1  1    493056  ultralytics.nn.modules.block.C2f             [384, 256, 1]                 
[36m(ClientAppActor pid=404750)[0m  22        [15, 18, 21]  1    751507  ultralytics.nn.modules.head.Detect           [1, [64, 128, 256]]           
[36m(ClientAppActor pid=404750)[0m Model summary: 129 layers, 3,011,043 parameters, 3,011,027 gradients, 8.2 GFLOPs
[36m(ClientAppActor pid=404750)[0m 
[36m(ClientAppActor pid=404750)[0m Transferred 355/355 items from pretrained weights
[36m(ClientAppActor pid=404750)[0m [34m[1mTensorBoard: [0mStart with 'tensorboard --logdir runs/detect/train2091', view at http://localhost:6006/
…
, shear=0.0, perspective=0.0, flipud=0.0, fliplr=0.5, bgr=0.0, mosaic=1.0, mixup=0.0, copy_paste=0.0, copy_paste_mode=flip, auto_augment=randaugment, erasing=0.4, crop_fraction=1.0, cfg=None, tracker=botsort.yaml, save_dir=runs/detect/train2092
[36m(ClientAppActor pid=404740)[0m Overriding class names with single class.
[36m(ClientAppActor pid=404740)[0m 
[36m(ClientAppActor pid=404740)[0m                    from  n    params  module                                       arguments                     
[36m(ClientAppActor pid=404740)[0m   0                  -1  1       464  ultralytics.nn.modules.conv.Conv             [3, 16, 3, 2]                 
[36m(ClientAppActor pid=404740)[0m   1                  -1  1      4672  ultralytics.nn.modules.conv.Conv             [16, 32, 3, 2]                
[36m(ClientAppActor pid=404740)[0m   2                  -1  1      7360  ultralytics.nn.modules.block.C2f             [32, 32, 1, True]             
[36m(ClientAppActor pid=404740)[0m   3                  -1  1     18560  ultralytics.nn.modules.conv.Conv             [32, 64, 3, 2]                
[36m(ClientAppActor pid=404740)[0m   4                  -1  2     49664  ultralytics.nn.modules.block.C2f             [64, 64, 2, True]             
[36m(ClientAppActor pid=404740)[0m   5                  -1  1     73984  ultralytics.nn.modules.conv.Conv             [64, 128, 3, 2]               
[36m(ClientAppActor pid=404740)[0m   6                  -1  2    197632  ultralytics.nn.modules.block.C2f             [128, 128, 2, True]           
[36m(ClientAppActor pid=404740)[0m   7                  -1  1    295424  ultralytics.nn.modules.conv.Conv             [128, 256, 3, 2]              
[36m(ClientAppActor pid=404740)[0m   8                  -1  1    460288  ultralytics.nn.modules.block.C2f             [256, 256, 1, True]           
[36m(ClientAppActor pid=404740)[0m   9                  -1  1    164608  ultralytics.nn.modules.block.SPPF            [256, 256, 5]                 
[36m(ClientAppActor pid=404740)[0m  10                  -1  1         0  torch.nn.modules.upsampling.Upsample         [None, 2, 'nearest']          
[36m(ClientAppActor pid=404740)[0m  11             [-1, 6]  1         0  ultralytics.nn.modules.conv.Concat           [1]                           
[36m(ClientAppActor pid=404740)[0m  12                  -1  1    148224  ultralytics.nn.modules.block.C2f             [384, 128, 1]                 
[36m(ClientAppActor pid=404740)[0m  13                  -1  1         0  torch.nn.modules.upsampling.Upsample         [None, 2, 'nearest']          
[36m(ClientAppActor pid=404740)[0m  14             [-1, 4]  1         0  ultralytics.nn.modules.conv.Concat           [1]                           
[36m(ClientAppActor pid=404740)[0m  15                  -1  1     37248  ultralytics.nn.modules.block.C2f             [192, 64, 1]                  
[36m(ClientAppActor pid=404740)[0m  16                  -1  1     36992  ultralytics.nn.modules.conv.Conv             [64, 64, 3, 2]                
[36m(ClientAppActor pid=404740)[0m  17            [-1, 12]  1         0  ultralytics.nn.modules.conv.Concat           [1]                           
[36m(ClientAppActor pid=404740)[0m  18                  -1  1    123648  ultralytics.nn.modules.block.C2f             [192, 128, 1]                 
[36m(ClientAppActor pid=404740)[0m  19                  -1  1    147712  ultralytics.nn.modules.conv.Conv             [128, 128, 3, 2]              
[36m(ClientAppActor pid=404740)[0m  20             [-1, 9]  1         0  ultralytics.nn.modules.conv.Concat           [1]                           
[36m(ClientAppActor pid=404740)[0m  21                  -1  1    493056  ultralytics.nn.modules.block.C2f             [384, 256, 1]                 
[36m(ClientAppActor pid=404740)[0m Speed: 1.2ms preprocess, 1.5ms inference, 0.0ms loss, 1.6ms postprocess per image[32m [repeated 8x across cluster][0m
[36m(ClientAppActor pid=404740)[0m Results saved to [1mruns/detect/val2060[0m[32m [repeated 8x across cluster][0m
[36m(ClientAppActor pid=404740)[0m                    all         58        117       0.68      0.508      0.582      0.425[32m [repeated 7x across cluster][0m
[36m(ClientAppActor pid=404750)[0m [Client 15] Device: cuda:0[32m [repeated 8x across cluster][0m
[36m(ClientAppActor pid=404740)[0m  22        [15, 18, 21]  1    751507  ultralytics.nn.modules.head.Detect           [1, [64, 128, 256]]           
[36m(ClientAppActor pid=404744)[0m 
[36m(ClientAppActor pid=404744)[0m  12                  -1  1    148224  ultralytics.nn.modules.block.C2f             [384, 128, 1]                 
[36m(ClientAppActor pid=404744)[0m  15                  -1  1     37248  ultralytics.nn.modules.block.C2f             [192, 64, 1]                  
[36m(ClientAppActor pid=404744)[0m  18                  -1  1    123648  ultralytics.nn.modules.block.C2f             [192, 128, 1]                 
[36m(ClientAppActor pid=404744)[0m  21                  -1  1    493056  ultralytics.nn.modules.block.C2f             [384, 256, 1]                 
[36m(ClientAppActor pid=404747)[0m 
[36m(ClientAppActor pid=404747)[0m  12                  -1  1    148224  ultralytics.nn.modules.block.C2f             [384, 128, 1]                 
[36m(ClientAppActor pid=404747)[0m  15                  -1  1     37248  ultralytics.nn.modules.block.C2f             [192, 64, 1]                  
[36m(ClientAppActor pid=404747)[0m  18                  -1  1    123648  ultralytics.nn.modules.block.C2f             [192, 128, 1]                 
[36m(ClientAppActor pid=404740)[0m [34m[1mtrain: [0mScanning /WehbeDocker/YOLOV8N/datasets/client_9/train/labels.cache... 206 images, 0 backgrounds, 0 corrupt: 100%|â–ˆâ–ˆâ–ˆâ–ˆâ–ˆâ–ˆâ–ˆâ–ˆâ–ˆâ–ˆ| 206/206 [00:00<?, ?it/s][34m[1mtrain: [0mScanning /WehbeDocker/YOLOV8N/datasets/client_9/train/labels.cache... 206 images, 0 backgrounds, 0 corrupt: 100%|â–ˆâ–ˆâ–ˆâ–ˆâ–ˆâ–ˆâ–ˆâ–ˆâ–ˆâ–ˆ| 206/206 [00:00<?, ?it/s]
…
[36m(ClientAppActor pid=404740)[0m                  Class     Images  Instances      Box(P          R      mAP50  mAP50-95):   0%|          | 0/4 [00:00<?, ?it/s]
[36m(ClientAppActor pid=404744)[0m [34m[1mtrain: [0mScanning /WehbeDocker/YOLOV8N/datasets/client_14/train/labels.cache... 187 images, 0 backgrounds, 0 corrupt: 100%|â–ˆâ–ˆâ–ˆâ–ˆâ–ˆâ–ˆâ–ˆâ–ˆâ–ˆâ–ˆ| 187/187 [00:00<?, ?it/s][34m[1mtrain: [0mScanning /WehbeDocker/YOLOV8N/datasets/client_14/train/labels.cache... 187 images, 0 backgrounds, 0 corrupt: 100%|â–ˆâ–ˆâ–ˆâ–ˆâ–ˆâ–ˆâ–ˆâ–ˆâ–ˆâ–ˆ| 187/187 [00:00<?, ?it/s]
[36m(ClientAppActor pid=404747)[0m  21                  -1  1    493056  ultralytics.nn.modules.block.C2f             [384, 256, 1]                 
[36m(ClientAppActor pid=404740)[0m Model summary: 129 layers, 3,011,043 parameters, 3,011,027 gradients, 8.2 GFLOPs
[36m(ClientAppActor pid=404740)[0m 
[36m(ClientAppActor pid=404740)[0m Transferred 355/355 items from pretrained weights
[36m(ClientAppActor pid=404740)[0m [34m[1mTensorBoard: [0mStart with 'tensorboard --logdir runs/detect/train2092', view at http://localhost:6006/
[36m(ClientAppActor pid=404740)[0m Freezing layer 'model.22.dfl.conv.weight'
[36m(ClientAppActor pid=404740)[0m [34m[1mAMP: [0mrunning Automatic Mixed Precision (AMP) checks...
[36m(ClientAppActor pid=404744)[0m 
[36m(ClientAppActor pid=404747)[0m 
[36m(ClientAppActor pid=404748)[0m 
[36m(ClientAppActor pid=404748)[0m  12                  -1  1    148224  ultralytics.nn.modules.block.C2f             [384, 128, 1]                 
[36m(ClientAppActor pid=404748)[0m  15                  -1  1     37248  ultralytics.nn.modules.block.C2f             [192, 64, 1]                  
[36m(ClientAppActor pid=404748)[0m  18                  -1  1    123648  ultralytics.nn.modules.block.C2f             [192, 128, 1]                 
[36m(ClientAppActor pid=404746)[0m 
[36m(ClientAppActor pid=404746)[0m  12                  -1  1    148224  ultralytics.nn.modules.block.C2f             [384, 128, 1]                 
[36m(ClientAppActor pid=404746)[0m  15                  -1  1     37248  ultralytics.nn.modules.block.C2f             [192, 64, 1]                  
[36m(ClientAppActor pid=404746)[0m  18                  -1  1    123648  ultralytics.nn.modules.block.C2f             [192, 128, 1]                 
[36m(ClientAppActor pid=404746)[0m  21                  -1  1    493056  ultralytics.nn.modules.block.C2f             [384, 256, 1]                 
[36m(ClientAppActor pid=404748)[0m  21                  -1  1    493056  ultralytics.nn.modules.block.C2f             [384, 256, 1]                 
[36m(ClientAppActor pid=404741)[0m 
[36m(ClientAppActor pid=404741)[0m  12                  -1  1    148224  ultralytics.nn.modules.block.C2f             [384, 128, 1]                 
[36m(ClientAppActor pid=404741)[0m  15                  -1  1     37248  ultralytics.nn.modules.block.C2f             [192, 64, 1]                  
[36m(ClientAppActor pid=404741)[0m  18                  -1  1    123648  ultralytics.nn.modules.block.C2f             [192, 128, 1]                 
[36m(ClientAppActor pid=404741)[0m  21                  -1  1    493056  ultralytics.nn.modules.block.C2f             [384, 256, 1]                 
[36m(ClientAppActor pid=404750)[0m 
[36m(ClientAppActor pid=404750)[0m  12                  -1  1    148224  ultralytics.nn.modules.block.C2f             [384, 128, 1]                 
[36m(ClientAppActor pid=404750)[0m  15                  -1  1     37248  ultralytics.nn.modules.block.C2f             [192, 64, 1]                  
[36m(ClientAppActor pid=404750)[0m  18                  -1  1    123648  ultralytics.nn.modules.block.C2f             [192, 128, 1]                 
[36m(ClientAppActor pid=404746)[0m 
[36m(ClientAppActor pid=404748)[0m 
[36m(ClientAppActor pid=404741)[0m 
[36m(ClientAppActor pid=404750)[0m  21                  -1  1    493056  ultralytics.nn.modules.block.C2f             [384, 256, 1]                 
[36m(ClientAppActor pid=404743)[0m 
[36m(ClientAppActor pid=404743)[0m  12                  -1  1    148224  ultralytics.nn.modules.block.C2f             [384, 128, 1]                 
[36m(ClientAppActor pid=404743)[0m  15                  -1  1     37248  ultralytics.nn.modules.block.C2f             [192, 64, 1]                  
[36m(ClientAppActor pid=404743)[0m  18                  -1  1    123648  ultralytics.nn.modules.block.C2f             [192, 128, 1]                 
[36m(ClientAppActor pid=404743)[0m  21                  -1  1    493056  ultralytics.nn.modules.block.C2f             [384, 256, 1]                 
[36m(ClientAppActor pid=404740)[0m [34m[1mAMP: [0mchecks passed âœ…
[36m(ClientAppActor pid=404743)[0m 
[36m(ClientAppActor pid=404750)[0m 
[36m(ClientAppActor pid=404744)[0m Plotting labels to runs/detect/train2093/labels.jpg... 
[36m(ClientAppActor pid=404750)[0m New https://pypi.org/project/ultralytics/8.3.122 available ðŸ˜ƒ Update with 'pip install -U ultralytics'[32m [repeated 7x across cluster][0m
…
[36m(ClientAppActor pid=404748)[0m        8/10      2.07G      1.397      1.885      1.306          5        640:  90%|â–ˆâ–ˆâ–ˆâ–ˆâ–ˆâ–ˆâ–ˆâ–ˆâ–ˆ | 9/10 [00:01<00:00,  9.32it/s]       8/10      2.07G      1.397      1.885      1.306          5        640: 100%|â–ˆâ–ˆâ–ˆâ–ˆâ–ˆâ–ˆâ–ˆâ–ˆâ–ˆâ–ˆ| 10/10 [00:01<00:00,  7.05it/s]       8/10      2.07G      1.397      1.885      1.306          5        640: 100%|â–ˆâ–ˆâ–ˆâ–ˆâ–ˆâ–ˆâ–ˆâ–ˆâ–ˆâ–ˆ| 10/10 [00:01<00:00,  8.36it/s][32m [repeated 14x across cluster][0m
[36m(ClientAppActor pid=404748)[0m                  Class     Images  Instances      Box(P          R      mAP50  mAP50-95):   0%|          | 0/1 [00:00<?, ?it/s][32m [repeated 5x across cluster][0m
[36m(ClientAppActor pid=404750)[0m  21                  -1  1    493056  ultralytics.nn.modules.block.C2f             [384, 256, 1]                 
[36m(ClientAppActor pid=404750)[0m  22        [15, 18, 21]  1    751507  ultralytics.nn.modules.head.Detect           [1, [64, 128, 256]]           
[36m(ClientAppActor pid=404750)[0m Model summary: 129 layers, 3,011,043 parameters, 3,011,027 gradients, 8.2 GFLOPs
[36m(ClientAppActor pid=404750)[0m 
[36m(ClientAppActor pid=404750)[0m Transferred 355/355 items from pretrained weights
[36m(ClientAppActor pid=404750)[0m [34m[1mTensorBoard: [0mStart with 'tensorboard --logdir runs/detect/train2102', view at http://localhost:6006/
[36m(ClientAppActor pid=404750)[0m Freezing layer 'model.22.dfl.conv.weight'
[36m(ClientAppActor pid=404750)[0m [34m[1mAMP: [0mrunning Automatic Mixed Precision (AMP) checks...
[36m(ClientAppActor pid=404746)[0m 
[36m(ClientAppActor pid=404746)[0m  12                  -1  1    148224  ultralytics.nn.modules.block.C2f             [384, 128, 1]                 
[36m(ClientAppActor pid=404746)[0m  15                  -1  1     37248  ultralytics.nn.modules.block.C2f             [192, 64, 1]                  
[36m(ClientAppActor pid=404746)[0m  18                  -1  1    123648  ultralytics.nn.modules.block.C2f             [192, 128, 1]                 
[36m(ClientAppActor pid=404746)[0m  21                  -1  1    493056  ultralytics.nn.modules.block.C2f             [384, 256, 1]                 
[36m(ClientAppActor pid=404746)[0m 
[36m(ClientAppActor pid=404743)[0m 
[36m(ClientAppActor pid=404744)[0m 
[36m(ClientAppActor pid=404744)[0m  12                  -1  1    148224  ultralytics.nn.modules.block.C2f             [384, 128, 1]                 
[36m(ClientAppActor pid=404744)[0m  15                  -1  1     37248  ultralytics.nn.modules.block.C2f             [192, 64, 1]                  
[36m(ClientAppActor pid=404744)[0m  18                  -1  1    123648  ultralytics.nn.modules.block.C2f             [192, 128, 1]                 
[36m(ClientAppActor pid=404744)[0m  21                  -1  1    493056  ultralytics.nn.modules.block.C2f             [384, 256, 1]                 
[36m(ClientAppActor pid=404747)[0m 
[36m(ClientAppActor pid=404747)[0m  12                  -1  1    148224  ultralytics.nn.modules.block.C2f             [384, 128, 1]                 
[36m(ClientAppActor pid=404747)[0m  15                  -1  1     37248  ultralytics.nn.modules.block.C2f             [192, 64, 1]                  
[36m(ClientAppActor pid=404747)[0m  18                  -1  1    123648  ultralytics.nn.modules.block.C2f             [192, 128, 1]                 
[36m(ClientAppActor pid=404747)[0m  21                  -1  1    493056  ultralytics.nn.modules.block.C2f             [384, 256, 1]                 
[36m(ClientAppActor pid=404741)[0m 
[36m(ClientAppActor pid=404741)[0m  12                  -1  1    148224  ultralytics.nn.modules.block.C2f             [384, 128, 1]                 
[36m(ClientAppActor pid=404741)[0m  15                  -1  1     37248  ultralytics.nn.modules.block.C2f             [192, 64, 1]                  
[36m(ClientAppActor pid=404741)[0m  18                  -1  1    123648  ultralytics.nn.modules.block.C2f             [192, 128, 1]                 
[36m(ClientAppActor pid=404741)[0m  21                  -1  1    493056  ultralytics.nn.modules.block.C2f             [384, 256, 1]                 
[36m(ClientAppActor pid=404744)[0m 
[36m(ClientAppActor pid=404747)[0m 
[36m(ClientAppActor pid=404741)[0m 
[36m(ClientAppActor pid=404740)[0m 
[36m(ClientAppActor pid=404740)[0m  12                  -1  1    148224  ultralytics.nn.modules.block.C2f             [384, 128, 1]                 
[36m(ClientAppActor pid=404740)[0m  15                  -1  1     37248  ultralytics.nn.modules.block.C2f             [192, 64, 1]                  
[36m(ClientAppActor pid=404740)[0m  18                  -1  1    123648  ultralytics.nn.modules.block.C2f             [192, 128, 1]                 
[36m(ClientAppActor pid=404740)[0m  21                  -1  1    493056  ultralytics.nn.modules.block.C2f             [384, 256, 1]                 
[36m(ClientAppActor pid=404740)[0m 
[36m(ClientAppActor pid=404750)[0m [34m[1mAMP: [0mchecks passed âœ…
[36m(ClientAppActor pid=404748)[0m 
[36m(ClientAppActor pid=404743)[0m                    all         21         79      0.417      0.304       0.23      0.133[32m [repeated 6x across cluster][0m
[36m(ClientAppActor pid=404748)[0m       Epoch    GPU_mem   box_loss   cls_loss   dfl_loss  Instances       Size[32m [repeated 6x across cluster][0m
…
ixup=0.0, copy_paste=0.0, copy_paste_mode=flip, auto_augment=randaugment, erasing=0.4, crop_fraction=1.0, cfg=None, tracker=botsort.yaml, save_dir=runs/detect/train2107[32m [repeated 5x across cluster][0m
[36m(ClientAppActor pid=404740)[0m Overriding class names with single class.[32m [repeated 5x across cluster][0m
[36m(ClientAppActor pid=404740)[0m                    from  n    params  module                                       arguments                     [32m [repeated 5x across cluster][0m
[36m(ClientAppActor pid=404740)[0m  19                  -1  1    147712  ultralytics.nn.modules.conv.Conv             [128, 128, 3, 2]              [32m [repeated 35x across cluster][0m
[36m(ClientAppActor pid=404740)[0m   8                  -1  1    460288  ultralytics.nn.modules.block.C2f             [256, 256, 1, True]           [32m [repeated 20x across cluster][0m
[36m(ClientAppActor pid=404740)[0m   9                  -1  1    164608  ultralytics.nn.modules.block.SPPF            [256, 256, 5]                 [32m [repeated 5x across cluster][0m
[36m(ClientAppActor pid=404740)[0m  13                  -1  1         0  torch.nn.modules.upsampling.Upsample         [None, 2, 'nearest']          [32m [repeated 10x across cluster][0m
[36m(ClientAppActor pid=404740)[0m  20             [-1, 9]  1         0  ultralytics.nn.modules.conv.Concat           [1]                           [32m [repeated 20x across cluster][0m
[36m(ClientAppActor pid=404740)[0m  22        [15, 18, 21]  1    751507  ultralytics.nn.modules.head.Detect           [1, [64, 128, 256]]           [32m [repeated 5x across cluster][0m
[36m(ClientAppActor pid=404748)[0m 
[36m(ClientAppActor pid=404743)[0m                  Class     Images  Instances      Box(P          R      mAP50  mAP50-95): 100%|â–ˆâ–ˆâ–ˆâ–ˆâ–ˆâ–ˆâ–ˆâ–ˆâ–ˆâ–ˆ| 1/1 [00:00<00:00,  4.29it/s]                 Class     Images  Instances      Box(P          R      mAP50  mAP50-95): 100%|â–ˆâ–ˆâ–ˆâ–ˆâ–ˆâ–ˆâ–ˆâ–ˆâ–ˆâ–ˆ| 1/1 [00:00<00:00,  3.50it/s][32m [repeated 4x across cluster][0m
…
, shear=0.0, perspective=0.0, flipud=0.0, fliplr=0.5, bgr=0.0, mosaic=1.0, mixup=0.0, copy_paste=0.0, copy_paste_mode=flip, auto_augment=randaugment, erasing=0.4, crop_fraction=1.0, cfg=None, tracker=botsort.yaml, save_dir=runs/detect/train2108
[36m(ClientAppActor pid=404743)[0m Overriding class names with single class.
[36m(ClientAppActor pid=404743)[0m 
[36m(ClientAppActor pid=404743)[0m                    from  n    params  module                                       arguments                     
[36m(ClientAppActor pid=404743)[0m   0                  -1  1       464  ultralytics.nn.modules.conv.Conv             [3, 16, 3, 2]                 
[36m(ClientAppActor pid=404743)[0m   1                  -1  1      4672  ultralytics.nn.modules.conv.Conv             [16, 32, 3, 2]                
[36m(ClientAppActor pid=404743)[0m   2                  -1  1      7360  ultralytics.nn.modules.block.C2f             [32, 32, 1, True]             
[36m(ClientAppActor pid=404743)[0m   3                  -1  1     18560  ultralytics.nn.modules.conv.Conv             [32, 64, 3, 2]                
[36m(ClientAppActor pid=404743)[0m   4                  -1  2     49664  ultralytics.nn.modules.block.C2f             [64, 64, 2, True]             
[36m(ClientAppActor pid=404743)[0m   5                  -1  1     73984  ultralytics.nn.modules.conv.Conv             [64, 128, 3, 2]               
[36m(ClientAppActor pid=404743)[0m   6                  -1  2    197632  ultralytics.nn.modules.block.C2f             [128, 128, 2, True]           
[36m(ClientAppActor pid=404743)[0m   7                  -1  1    295424  ultralytics.nn.modules.conv.Conv             [128, 256, 3, 2]              
[36m(ClientAppActor pid=404743)[0m   8                  -1  1    460288  ultralytics.nn.modules.block.C2f             [256, 256, 1, True]           
[36m(ClientAppActor pid=404743)[0m   9                  -1  1    164608  ultralytics.nn.modules.block.SPPF            [256, 256, 5]                 
[36m(ClientAppActor pid=404743)[0m  10                  -1  1         0  torch.nn.modules.upsampling.Upsample         [None, 2, 'nearest']          
[36m(ClientAppActor pid=404743)[0m  11             [-1, 6]  1         0  ultralytics.nn.modules.conv.Concat           [1]                           
[36m(ClientAppActor pid=404743)[0m  12                  -1  1    148224  ultralytics.nn.modules.block.C2f             [384, 128, 1]                 
[36m(ClientAppActor pid=404743)[0m  13                  -1  1         0  torch.nn.modules.upsampling.Upsample         [None, 2, 'nearest']          
[36m(ClientAppActor pid=404743)[0m  14             [-1, 4]  1         0  ultralytics.nn.modules.conv.Concat           [1]                           
[36m(ClientAppActor pid=404743)[0m  15                  -1  1     37248  ultralytics.nn.modules.block.C2f             [192, 64, 1]                  
[36m(ClientAppActor pid=404743)[0m  16                  -1  1     36992  ultralytics.nn.modules.conv.Conv             [64, 64, 3, 2]                
[36m(ClientAppActor pid=404743)[0m  17            [-1, 12]  1         0  ultralytics.nn.modules.conv.Concat           [1]                           
[36m(ClientAppActor pid=404743)[0m  18                  -1  1    123648  ultralytics.nn.modules.block.C2f             [192, 128, 1]                 
[36m(ClientAppActor pid=404743)[0m  19                  -1  1    147712  ultralytics.nn.modules.conv.Conv             [128, 128, 3, 2]              
[36m(ClientAppActor pid=404743)[0m  20             [-1, 9]  1         0  ultralytics.nn.modules.conv.Concat           [1]                           
[36m(ClientAppActor pid=404743)[0m  21                  -1  1    493056  ultralytics.nn.modules.block.C2f             [384, 256, 1]                 
[36m(ClientAppActor pid=404743)[0m  22        [15, 18, 21]  1    751507  ultralytics.nn.modules.head.Detect           [1, [64, 128, 256]]           
[36m(ClientAppActor pid=404743)[0m                    all         58        117      0.688      0.487      0.588      0.426[32m [repeated 7x across cluster][0m
[36m(ClientAppActor pid=404748)[0m [Client 5] Device: cuda:0[32m [repeated 8x across cluster][0m
[36m(ClientAppActor pid=404743)[0m Speed: 0.8ms preprocess, 1.3ms inference, 0.0ms loss, 1.4ms postprocess per image[32m [repeated 8x across cluster][0m
[36m(ClientAppActor pid=404743)[0m Results saved to [1mruns/detect/val2076[0m[32m [repeated 8x across cluster][0m
[36m(ClientAppActor pid=404750)[0m 
[36m(ClientAppActor pid=404750)[0m  12                  -1  1    148224  ultralytics.nn.modules.block.C2f             [384, 128, 1]                 
[36m(ClientAppActor pid=404750)[0m  15                  -1  1     37248  ultralytics.nn.modules.block.C2f             [192, 64, 1]                  
[36m(ClientAppActor pid=404750)[0m  18                  -1  1    123648  ultralytics.nn.modules.block.C2f             [192, 128, 1]                 
[36m(ClientAppActor pid=404750)[0m  21                  -1  1    493056  ultralytics.nn.modules.block.C2f             [384, 256, 1]                 
[36m(ClientAppActor pid=404743)[0m Model summary: 129 layers, 3,011,043 parameters, 3,011,027 gradients, 8.2 GFLOPs
[36m(ClientAppActor pid=404743)[0m 
[36m(ClientAppActor pid=404743)[0m Transferred 355/355 items from pretrained weights
[36m(ClientAppActor pid=404743)[0m [34m[1mTensorBoard: [0mStart with 'tensorboard --logdir runs/detect/train2108', view at http://localhost:6006/
[36m(ClientAppActor pid=404743)[0m Freezing layer 'model.22.dfl.conv.weight'
[36m(ClientAppActor pid=404743)[0m [34m[1mAMP: [0mrunning Automatic Mixed Precision (AMP) checks...
[36m(ClientAppActor pid=404750)[0m 
[36m(ClientAppActor pid=404746)[0m 
[36m(ClientAppActor pid=404746)[0m  12                  -1  1    148224  ultralytics.nn.modules.block.C2f             [384, 128, 1]                 
[36m(ClientAppActor pid=404743)[0m [34m[1mtrain: [0mScanning /WehbeDocker/YOLOV8N/datasets/client_4/train/labels.cache... 126 images, 0 backgrounds, 0 corrupt: 100%|â–ˆâ–ˆâ–ˆâ–ˆâ–ˆâ–ˆâ–ˆâ–ˆâ–ˆâ–ˆ| 126/126 [00:00<?, ?it/s][34m[1mtrain: [0mScanning /WehbeDocker/YOLOV8N/datasets/client_4/train/labels.cache... 126 images, 0 backgrounds, 0 corrupt: 100%|â–ˆâ–ˆâ–ˆâ–ˆâ–ˆâ–ˆâ–ˆâ–ˆâ–ˆâ–ˆ| 126/126 [00:00<?, ?it/s]
…
[36m(ClientAppActor pid=404743)[0m                  Class     Images  Instances      Box(P          R      mAP50  mAP50-95): 100%|â–ˆâ–ˆâ–ˆâ–ˆâ–ˆâ–ˆâ–ˆâ–ˆâ–ˆâ–ˆ| 4/4 [00:03<00:00,  1.08it/s]
[36m(ClientAppActor pid=404743)[0m /usr/local/lib/python3.10/dist-packages/ultralytics/utils/metrics.py:529: DeprecationWarning: `trapz` is deprecated. Use `trapezoid` instead, or one of the numerical integration functions in `scipy.integrate`.
[36m(ClientAppActor pid=404743)[0m   ap = np.trapz(np.interp(x, mrec, mpre), x)  # integrate
[36m(ClientAppActor pid=404746)[0m  15                  -1  1     37248  ultralytics.nn.modules.block.C2f             [192, 64, 1]                  
[36m(ClientAppActor pid=404746)[0m  18                  -1  1    123648  ultralytics.nn.modules.block.C2f             [192, 128, 1]                 
[36m(ClientAppActor pid=404746)[0m  21                  -1  1    493056  ultralytics.nn.modules.block.C2f             [384, 256, 1]                 
[36m(ClientAppActor pid=404746)[0m 
[36m(ClientAppActor pid=404744)[0m 
[36m(ClientAppActor pid=404744)[0m  12                  -1  1    148224  ultralytics.nn.modules.block.C2f             [384, 128, 1]                 
[36m(ClientAppActor pid=404744)[0m  15                  -1  1     37248  ultralytics.nn.modules.block.C2f             [192, 64, 1]                  
[36m(ClientAppActor pid=404744)[0m  18                  -1  1    123648  ultralytics.nn.modules.block.C2f             [192, 128, 1]                 
[36m(ClientAppActor pid=404744)[0m  21                  -1  1    493056  ultralytics.nn.modules.block.C2f             [384, 256, 1]                 
[36m(ClientAppActor pid=404743)[0m [34m[1mAMP: [0mchecks passed âœ…
[36m(ClientAppActor pid=404747)[0m 
[36m(ClientAppActor pid=404747)[0m  12                  -1  1    148224  ultralytics.nn.modules.block.C2f             [384, 128, 1]                 
[36m(ClientAppActor pid=404747)[0m  15                  -1  1     37248  ultralytics.nn.modules.block.C2f             [192, 64, 1]                  
[36m(ClientAppActor pid=404747)[0m  18                  -1  1    123648  ultralytics.nn.modules.block.C2f             [192, 128, 1]                 
[36m(ClientAppActor pid=404747)[0m  21                  -1  1    493056  ultralytics.nn.modules.block.C2f             [384, 256, 1]                 
[36m(ClientAppActor pid=404748)[0m 
[36m(ClientAppActor pid=404741)[0m 
[36m(ClientAppActor pid=404741)[0m  12                  -1  1    148224  ultralytics.nn.modules.block.C2f             [384, 128, 1]                 
[36m(ClientAppActor pid=404741)[0m  15                  -1  1     37248  ultralytics.nn.modules.block.C2f             [192, 64, 1]                  
[36m(ClientAppActor pid=404741)[0m  18                  -1  1    123648  ultralytics.nn.modules.block.C2f             [192, 128, 1]                 
[36m(ClientAppActor pid=404741)[0m  21                  -1  1    493056  ultralytics.nn.modules.block.C2f             [384, 256, 1]                 
[36m(ClientAppActor pid=404740)[0m 
[36m(ClientAppActor pid=404740)[0m  12                  -1  1    148224  ultralytics.nn.modules.block.C2f             [384, 128, 1]                 
[36m(ClientAppActor pid=404740)[0m  15                  -1  1     37248  ultralytics.nn.modules.block.C2f             [192, 64, 1]                  
[36m(ClientAppActor pid=404740)[0m  18                  -1  1    123648  ultralytics.nn.modules.block.C2f             [192, 128, 1]                 
[36m(ClientAppActor pid=404740)[0m  21                  -1  1    493056  ultralytics.nn.modules.block.C2f             [384, 256, 1]                 
[36m(ClientAppActor pid=404747)[0m 
[36m(ClientAppActor pid=404748)[0m  12                  -1  1    148224  ultralytics.nn.modules.block.C2f             [384, 128, 1]                 
[36m(ClientAppActor pid=404748)[0m  15                  -1  1     37248  ultralytics.nn.modules.block.C2f             [192, 64, 1]                  
[36m(ClientAppActor pid=404748)[0m  18                  -1  1    123648  ultralytics.nn.modules.block.C2f             [192, 128, 1]                 
[36m(ClientAppActor pid=404748)[0m  21                  -1  1    493056  ultralytics.nn.modules.block.C2f             [384, 256, 1]                 
[36m(ClientAppActor pid=404741)[0m 
[36m(ClientAppActor pid=404740)[0m 
[36m(ClientAppActor pid=404744)[0m 
[36m(ClientAppActor pid=404748)[0m 
[36m(ClientAppActor pid=404743)[0m Plotting labels to runs/detect/train2108/labels.jpg... 
[36m(ClientAppActor pid=404741)[0m New https://pypi.org/project/ultralytics/8.3.122 available ðŸ˜ƒ Update with 'pip install -U ultralytics'[32m [repeated 7x across cluster][0m
…
ˆâ–ˆâ–ˆâ–ˆâ–ˆâ–ˆ| 47/47 [00:00<?, ?it/s]
[36m(ClientAppActor pid=404747)[0m       10/10      2.15G      1.051       1.38      1.226         42        640:  92%|â–ˆâ–ˆâ–ˆâ–ˆâ–ˆâ–ˆâ–ˆâ–ˆâ–ˆâ–| 11/12 [00:02<00:00,  4.06it/s]      10/10      2.15G      1.051       1.38      1.226         42        640: 100%|â–ˆâ–ˆâ–ˆâ–ˆâ–ˆâ–ˆâ–ˆâ–ˆâ–ˆâ–ˆ| 12/12 [00:02<00:00,  3.60it/s]      10/10      2.15G      1.051       1.38      1.226         42        640: 100%|â–ˆâ–ˆâ–ˆâ–ˆâ–ˆâ–ˆâ–ˆâ–ˆâ–ˆâ–ˆ| 12/12 [00:02<00:00,  4.76it/s]
[36m(ClientAppActor pid=404743)[0m  13                  -1  1         0  torch.nn.modules.upsampling.Upsample         [None, 2, 'nearest']          
[36m(ClientAppActor pid=404743)[0m  14             [-1, 4]  1         0  ultralytics.nn.modules.conv.Concat           [1]                           
[36m(ClientAppActor pid=404743)[0m  15                  -1  1     37248  ultralytics.nn.modules.block.C2f             [192, 64, 1]                  
[36m(ClientAppActor pid=404743)[0m  16                  -1  1     36992  ultralytics.nn.modules.conv.Conv             [64, 64, 3, 2]                
[36m(ClientAppActor pid=404743)[0m  17            [-1, 12]  1         0  ultralytics.nn.modules.conv.Concat           [1]                           
[36m(ClientAppActor pid=404743)[0m  18                  -1  1    123648  ultralytics.nn.modules.block.C2f             [192, 128, 1]                 
[36m(ClientAppActor pid=404743)[0m  19                  -1  1    147712  ultralytics.nn.modules.conv.Conv             [128, 128, 3, 2]              
[36m(ClientAppActor pid=404743)[0m  20             [-1, 9]  1         0  ultralytics.nn.modules.conv.Concat           [1]                           
[36m(ClientAppActor pid=404743)[0m  21                  -1  1    493056  ultralytics.nn.modules.block.C2f             [384, 256, 1]                 
[36m(ClientAppActor pid=404743)[0m  22        [15, 18, 21]  1    751507  ultralytics.nn.modules.head.Detect           [1, [64, 128, 256]]           
[36m(ClientAppActor pid=404743)[0m Model summary: 129 layers, 3,011,043 parameters, 3,011,027 gradients, 8.2 GFLOPs
[36m(ClientAppActor pid=404743)[0m 
[36m(ClientAppActor pid=404743)[0m Transferred 355/355 items from pretrained weights
[36m(ClientAppActor pid=404743)[0m [34m[1mTensorBoard: [0mStart with 'tensorboard --logdir runs/detect/train2116', view at http://localhost:6006/
…
[36m(ClientAppActor pid=404741)[0m       Epoch    GPU_mem   box_loss   cls_loss   dfl_loss  Instances       Size[32m [repeated 6x across cluster][0m
[36m(ClientAppActor pid=404741)[0m                    all         58        117      0.492      0.462       0.43      0.272[32m [repeated 6x across cluster][0m
[36m(ClientAppActor pid=404743)[0m [34m[1mAMP: [0mchecks passed âœ…
[36m(ClientAppActor pid=404747)[0m 
[36m(ClientAppActor pid=404744)[0m 
[36m(ClientAppActor pid=404746)[0m 
[36m(ClientAppActor pid=404741)[0m 
[36m(ClientAppActor pid=404746)[0m  12                  -1  1    148224  ultralytics.nn.modules.block.C2f             [384, 128, 1]                 
[36m(ClientAppActor pid=404746)[0m  15                  -1  1     37248  ultralytics.nn.modules.block.C2f             [192, 64, 1]                  
[36m(ClientAppActor pid=404746)[0m  18                  -1  1    123648  ultralytics.nn.modules.block.C2f             [192, 128, 1]                 
[36m(ClientAppActor pid=404746)[0m  21                  -1  1    493056  ultralytics.nn.modules.block.C2f             [384, 256, 1]                 
[36m(ClientAppActor pid=404746)[0m 
[36m(ClientAppActor pid=404740)[0m 
[36m(ClientAppActor pid=404740)[0m  12                  -1  1    148224  ultralytics.nn.modules.block.C2f             [384, 128, 1]                 
[36m(ClientAppActor pid=404740)[0m  15                  -1  1     37248  ultralytics.nn.modules.block.C2f             [192, 64, 1]                  
[36m(ClientAppActor pid=404740)[0m  18                  -1  1    123648  ultralytics.nn.modules.block.C2f             [192, 128, 1]                 
[36m(ClientAppActor pid=404740)[0m  21                  -1  1    493056  ultralytics.nn.modules.block.C2f             [384, 256, 1]                 
[36m(ClientAppActor pid=404740)[0m 
[36m(ClientAppActor pid=404748)[0m 
[36m(ClientAppActor pid=404748)[0m  12                  -1  1    148224  ultralytics.nn.modules.block.C2f             [384, 128, 1]                 
[36m(ClientAppActor pid=404748)[0m  15                  -1  1     37248  ultralytics.nn.modules.block.C2f             [192, 64, 1]                  
[36m(ClientAppActor pid=404748)[0m  18                  -1  1    123648  ultralytics.nn.modules.block.C2f             [192, 128, 1]                 
[36m(ClientAppActor pid=404748)[0m  21                  -1  1    493056  ultralytics.nn.modules.block.C2f             [384, 256, 1]                 
[36m(ClientAppActor pid=404750)[0m 
[36m(ClientAppActor pid=404750)[0m  12                  -1  1    148224  ultralytics.nn.modules.block.C2f             [384, 128, 1]                 
[36m(ClientAppActor pid=404750)[0m  15                  -1  1     37248  ultralytics.nn.modules.block.C2f             [192, 64, 1]                  
[36m(ClientAppActor pid=404750)[0m  18                  -1  1    123648  ultralytics.nn.modules.block.C2f             [192, 128, 1]                 
[36m(ClientAppActor pid=404750)[0m  21                  -1  1    493056  ultralytics.nn.modules.block.C2f             [384, 256, 1]                 
[36m(ClientAppActor pid=404748)[0m 
[36m(ClientAppActor pid=404750)[0m 
[36m(ClientAppActor pid=404743)[0m Plotting labels to runs/detect/train2116/labels.jpg... 
[36m(ClientAppActor pid=404750)[0m New https://pypi.org/project/ultralytics/8.3.122 available ðŸ˜ƒ Update with 'pip install -U ultralytics'[32m [repeated 4x across cluster][0m
[36m(ClientAppActor 
…
