…
, shear=0.0, perspective=0.0, flipud=0.0, fliplr=0.5, bgr=0.0, mosaic=1.0, mixup=0.0, copy_paste=0.0, copy_paste_mode=flip, auto_augment=randaugment, erasing=0.4, crop_fraction=1.0, cfg=None, tracker=botsort.yaml, save_dir=runs/detect/train2955
[36m(ClientAppActor pid=619798)[0m Overriding class names with single class.
[36m(ClientAppActor pid=619798)[0m 
[36m(ClientAppActor pid=619798)[0m                    from  n    params  module                                       arguments                     
[36m(ClientAppActor pid=619798)[0m   0                  -1  1       464  ultralytics.nn.modules.conv.Conv             [3, 16, 3, 2]                 
[36m(ClientAppActor pid=619798)[0m   1                  -1  1      4672  ultralytics.nn.modules.conv.Conv             [16, 32, 3, 2]                
[36m(ClientAppActor pid=619798)[0m   2                  -1  1      7360  ultralytics.nn.modules.block.C2f             [32, 32, 1, True]             
[36m(ClientAppActor pid=619798)[0m   3                  -1  1     18560  ultralytics.nn.modules.conv.Conv             [32, 64, 3, 2]                
[36m(ClientAppActor pid=619798)[0m   4                  -1  2     49664  ultralytics.nn.modules.block.C2f             [64, 64, 2, True]             
[36m(ClientAppActor pid=619798)[0m   5                  -1  1     73984  ultralytics.nn.modules.conv.Conv             [64, 128, 3, 2]               
[36m(ClientAppActor pid=619798)[0m   6                  -1  2    197632  ultralytics.nn.modules.block.C2f             [128, 128, 2, True]           
[36m(ClientAppActor pid=619798)[0m   7                  -1  1    295424  ultralytics.nn.modules.conv.Conv             [128, 256, 3, 2]              
[36m(ClientAppActor pid=619796)[0m [Client 2] Device: cuda:0[32m [repeated 3x across cluster] (Ray deduplicates logs by default. Set RAY_DEDUP_LOGS=0 to disable log deduplication, or see https://docs.ray.io/en/master/ray-observability/user-guides/configure-logging.html#log-deduplication for more options.)[0m
[36m(ClientAppActor pid=619798)[0m   8                  -1  1    460288  ultralytics.nn.modules.block.C2f             [256, 256, 1, True]           
[36m(ClientAppActor pid=619798)[0m   9                  -1  1    164608  ultralytics.nn.modules.block.SPPF            [256, 256, 5]                 
[36m(ClientAppActor pid=619798)[0m  10                  -1  1         0  torch.nn.modules.upsampling.Upsample         [None, 2, 'nearest']          
[36m(ClientAppActor pid=619798)[0m  11             [-1, 6]  1         0  ultralytics.nn.modules.conv.Concat           [1]                           
[36m(ClientAppActor pid=619798)[0m  12                  -1  1    148224  ultralytics.nn.modules.block.C2f             [384, 128, 1]                 
[36m(ClientAppActor pid=619798)[0m  13                  -1  1         0  torch.nn.modules.upsampling.Upsample         [None, 2, 'nearest']          
[36m(ClientAppActor pid=619798)[0m  14             [-1, 4]  1         0  ultralytics.nn.modules.conv.Concat           [1]                           
[36m(ClientAppActor pid=619798)[0m  15                  -1  1     37248  ultralytics.nn.modules.block.C2f             [192, 64, 1]                  
[36m(ClientAppActor pid=619798)[0m  16                  -1  1     36992  ultralytics.nn.modules.conv.Conv             [64, 64, 3, 2]                
[36m(ClientAppActor pid=619798)[0m  17            [-1, 12]  1         0  ultralytics.nn.modules.conv.Concat           [1]                           
[36m(ClientAppActor pid=619798)[0m  18                  -1  1    123648  ultralytics.nn.modules.block.C2f             [192, 128, 1]                 
[36m(ClientAppActor pid=619798)[0m  19                  -1  1    147712  ultralytics.nn.modules.conv.Conv             [128, 128, 3, 2]              
[36m(ClientAppActor pid=619798)[0m  20             [-1, 9]  1         0  ultralytics.nn.modules.conv.Concat           [1]                           
[36m(ClientAppActor pid=619798)[0m  21                  -1  1    493056  ultralytics.nn.modules.block.C2f             [384, 256, 1]                 
[36m(ClientAppActor pid=619798)[0m  22        [15, 18, 21]  1    751507  ultralytics.nn.modules.head.Detect           [1, [64, 128, 256]]           
[36m(ClientAppActor pid=619794)[0m 
[36m(ClientAppActor pid=619794)[0m  12                  -1  1    148224  ultralytics.nn.modules.block.C2f             [384, 128, 1]                 
[36m(ClientAppActor pid=619794)[0m  15                  -1  1     37248  ultralytics.nn.modules.block.C2f             [192, 64, 1]                  
[36m(ClientAppActor pid=619797)[0m 
[36m(ClientAppActor pid=619797)[0m  12                  -1  1    148224  ultralytics.nn.modules.block.C2f             [384, 128, 1]                 
[36m(ClientAppActor pid=619796)[0m 
[36m(ClientAppActor pid=619796)[0m  12                  -1  1    148224  ultralytics.nn.modules.block.C2f             [384, 128, 1]                 
[36m(ClientAppActor pid=619796)[0m  15                  -1  1     37248  ultralytics.nn.modules.block.C2f             [192, 64, 1]                  
[36m(ClientAppActor pid=619796)[0m  18                  -1  1    123648  ultralytics.nn.modules.block.C2f             [192, 128, 1]                 
[36m(ClientAppActor pid=619796)[0m  21                  -1  1    493056  ultralytics.nn.modules.block.C2f             [384, 256, 1]                 
[36m(ClientAppActor pid=619797)[0m  15                  -1  1     37248  ultralytics.nn.modules.block.C2f             [192, 64, 1]                  
[36m(ClientAppActor pid=619794)[0m  18                  -1  1    123648  ultralytics.nn.modules.block.C2f             [192, 128, 1]                 
[36m(ClientAppActor pid=619797)[0m  18                  -1  1    123648  ultralytics.nn.modules.block.C2f             [192, 128, 1]                 
[36m(ClientAppActor pid=619798)[0m Model summary: 129 layers, 3,011,043 parameters, 3,011,027 gradients, 8.2 GFLOPs
[36m(ClientAppActor pid=619798)[0m 
[36m(ClientAppActor pid=619798)[0m Transferred 355/355 items from pretrained weights
[36m(ClientAppActor pid=619798)[0m [34m[1mTensorBoard: [0mStart with 'tensorboard --logdir runs/detect/train2955', view at http://localhost:6006/
…
ixup=0.0, copy_paste=0.0, copy_paste_mode=flip, auto_augment=randaugment, erasing=0.4, crop_fraction=1.0, cfg=None, tracker=botsort.yaml, save_dir=runs/detect/train2956[32m [repeated 3x across cluster][0m
[36m(ClientAppActor pid=619796)[0m Overriding class names with single class.[32m [repeated 3x across cluster][0m
[36m(ClientAppActor pid=619796)[0m                    from  n    params  module                                       arguments                     [32m [repeated 3x across cluster][0m
[36m(ClientAppActor pid=619797)[0m  19                  -1  1    147712  ultralytics.nn.modules.conv.Conv             [128, 128, 3, 2]              [32m [repeated 21x across cluster][0m
[36m(ClientAppActor pid=619796)[0m   8                  -1  1    460288  ultralytics.nn.modules.block.C2f             [256, 256, 1, True]           [32m [repeated 12x across cluster][0m
[36m(ClientAppActor pid=619796)[0m   9                  -1  1    164608  ultralytics.nn.modules.block.SPPF            [256, 256, 5]                 [32m [repeated 3x across cluster][0m
[36m(ClientAppActor pid=619796)[0m  13                  -1  1         0  torch.nn.modules.upsampling.Upsample         [None, 2, 'nearest']          [32m [repeated 6x across cluster][0m
[36m(ClientAppActor pid=619797)[0m  20             [-1, 9]  1         0  ultralytics.nn.modules.conv.Concat           [1]                           [32m [repeated 12x across cluster][0m
[36m(ClientAppActor pid=619797)[0m  22        [15, 18, 21]  1    751507  ultralytics.nn.modules.head.Detect           [1, [64, 128, 256]]           [32m [repeated 3x across cluster][0m
[36m(ClientAppActor pid=619797)[0m Model summary: 129 layers, 3,011,043 parameters, 3,011,027 gradients, 8.2 GFLOPs[32m [repeated 3x across cluster][0m
[36m(ClientAppActor pid=619797)[0m Transferred 355/355 items from pretrained weights[32m [repeated 3x across cluster][0m
[36m(ClientAppActor pid=619797)[0m [34m[1mTensorBoard: [0mStart with 'tensorboard --logdir runs/detect/train2958', view at http://localhost:6006/[32m [repeated 3x across cluster][0m
…
, shear=0.0, perspective=0.0, flipud=0.0, fliplr=0.5, bgr=0.0, mosaic=1.0, mixup=0.0, copy_paste=0.0, copy_paste_mode=flip, auto_augment=randaugment, erasing=0.4, crop_fraction=1.0, cfg=None, tracker=botsort.yaml, save_dir=runs/detect/train2959
[36m(ClientAppActor pid=619797)[0m Overriding class names with single class.
[36m(ClientAppActor pid=619797)[0m 
[36m(ClientAppActor pid=619797)[0m                    from  n    params  module                                       arguments                     
[36m(ClientAppActor pid=619797)[0m   0                  -1  1       464  ultralytics.nn.modules.conv.Conv             [3, 16, 3, 2]                 
[36m(ClientAppActor pid=619797)[0m   1                  -1  1      4672  ultralytics.nn.modules.conv.Conv             [16, 32, 3, 2]                
[36m(ClientAppActor pid=619797)[0m   2                  -1  1      7360  ultralytics.nn.modules.block.C2f             [32, 32, 1, True]             
[36m(ClientAppActor pid=619797)[0m   3                  -1  1     18560  ultralytics.nn.modules.conv.Conv             [32, 64, 3, 2]                
[36m(ClientAppActor pid=619797)[0m   4                  -1  2     49664  ultralytics.nn.modules.block.C2f             [64, 64, 2, True]             
[36m(ClientAppActor pid=619797)[0m   5                  -1  1     73984  ultralytics.nn.modules.conv.Conv             [64, 128, 3, 2]               
[36m(ClientAppActor pid=619797)[0m   6                  -1  2    197632  ultralytics.nn.modules.block.C2f             [128, 128, 2, True]           
[36m(ClientAppActor pid=619797)[0m   7                  -1  1    295424  ultralytics.nn.modules.conv.Conv             [128, 256, 3, 2]              
[36m(ClientAppActor pid=619797)[0m   8                  -1  1    460288  ultralytics.nn.modules.block.C2f             [256, 256, 1, True]           
[36m(ClientAppActor pid=619797)[0m   9                  -1  1    164608  ultralytics.nn.modules.block.SPPF            [256, 256, 5]                 
[36m(ClientAppActor pid=619797)[0m  10                  -1  1         0  torch.nn.modules.upsampling.Upsample         [None, 2, 'nearest']          
[36m(ClientAppActor pid=619797)[0m  11             [-1, 6]  1         0  ultralytics.nn.modules.conv.Concat           [1]                           
[36m(ClientAppActor pid=619797)[0m  12                  -1  1    148224  ultralytics.nn.modules.block.C2f             [384, 128, 1]                 
[36m(ClientAppActor pid=619797)[0m  13                  -1  1         0  torch.nn.modules.upsampling.Upsample         [None, 2, 'nearest']          
[36m(ClientAppActor pid=619797)[0m  14             [-1, 4]  1         0  ultralytics.nn.modules.conv.Concat           [1]                           
[36m(ClientAppActor pid=619797)[0m  15                  -1  1     37248  ultralytics.nn.modules.block.C2f             [192, 64, 1]                  
[36m(ClientAppActor pid=619797)[0m  16                  -1  1     36992  ultralytics.nn.modules.conv.Conv             [64, 64, 3, 2]                
[36m(ClientAppActor pid=619797)[0m  17            [-1, 12]  1         0  ultralytics.nn.modules.conv.Concat           [1]                           
[36m(ClientAppActor pid=619797)[0m  18                  -1  1    123648  ultralytics.nn.modules.block.C2f             [192, 128, 1]                 
[36m(ClientAppActor pid=619797)[0m  19                  -1  1    147712  ultralytics.nn.modules.conv.Conv             [128, 128, 3, 2]              
[36m(ClientAppActor pid=619797)[0m  20             [-1, 9]  1         0  ultralytics.nn.modules.conv.Concat           [1]                           
[36m(ClientAppActor pid=619797)[0m  21                  -1  1    493056  ultralytics.nn.modules.block.C2f             [384, 256, 1]                 
[36m(ClientAppActor pid=619797)[0m  22        [15, 18, 21]  1    751507  ultralytics.nn.modules.head.Detect           [1, [64, 128, 256]]           
[36m(ClientAppActor pid=619797)[0m Speed: 0.6ms preprocess, 3.0ms inference, 0.0ms loss, 1.3ms postprocess per image[32m [repeated 3x across cluster][0m
[36m(ClientAppActor pid=619797)[0m Results saved to [1mruns/detect/val2914[0m[32m [repeated 3x across cluster][0m
[36m(ClientAppActor pid=619796)[0m [Client 1] Device: cuda:0[32m [repeated 4x across cluster][0m
[36m(ClientAppActor pid=619797)[0m                    all        190        408      0.449      0.238      0.268      0.179[32m [repeated 2x across cluster][0m
[36m(ClientAppActor pid=619796)[0m 
[36m(ClientAppActor pid=619796)[0m  12                  -1  1    148224  ultralytics.nn.modules.block.C2f             [384, 128, 1]                 
[36m(ClientAppActor pid=619796)[0m  15                  -1  1     37248  ultralytics.nn.modules.block.C2f             [192, 64, 1]                  
[36m(ClientAppActor pid=619796)[0m  18                  -1  1    123648  ultralytics.nn.modules.block.C2f             [192, 128, 1]                 
[36m(ClientAppActor pid=619796)[0m  21                  -1  1    493056  ultralytics.nn.modules.block.C2f             [384, 256, 1]                 
[36m(ClientAppActor pid=619798)[0m 
[36m(ClientAppActor pid=619798)[0m  12                  -1  1    148224  ultralytics.nn.modules.block.C2f             [384, 128, 1]                 
[36m(ClientAppActor pid=619798)[0m  15                  -1  1     37248  ultralytics.nn.modules.block.C2f             [192, 64, 1]                  
[36m(ClientAppActor pid=619798)[0m  18                  -1  1    123648  ultralytics.nn.modules.block.C2f             [192, 128, 1]                 
[36m(ClientAppActor pid=619798)[0m  21                  -1  1    493056  ultralytics.nn.modules.block.C2f             [384, 256, 1]                 
[36m(ClientAppActor pid=619794)[0m 
[36m(ClientAppActor pid=619794)[0m  12                  -1  1    148224  ultralytics.nn.modules.block.C2f             [384, 128, 1]                 
[36m(ClientAppActor pid=619794)[0m  15                  -1  1     37248  ultralytics.nn.modules.block.C2f             [192, 64, 1]                  
[36m(ClientAppActor pid=619797)[0m [34m[1mtrain: [0mScanning /WehbeDocker/YOLOV8N/datasets/client_0/train/labels.cache... 540 images, 0 backgrounds, 0 corrupt: 100%|â–ˆâ–ˆâ–ˆâ–ˆâ–ˆâ–ˆâ–ˆâ–ˆâ–ˆâ–ˆ| 540/540 [00:00<?, ?it/s][34m[1mtrain: [0mScanning /WehbeDocker/YOLOV8N/datasets/client_0/train/labels.cache... 540 images, 0 backgrounds, 0 corrupt: 100%|â–ˆâ–ˆâ–ˆâ–ˆâ–ˆâ–ˆâ–ˆâ–ˆâ–ˆâ–ˆ| 540/540 [00:00<?, ?it/s][32m [repeated 4x across cluster][0m
…
, shear=0.0, perspective=0.0, flipud=0.0, fliplr=0.5, bgr=0.0, mosaic=1.0, mixup=0.0, copy_paste=0.0, copy_paste_mode=flip, auto_augment=randaugment, erasing=0.4, crop_fraction=1.0, cfg=None, tracker=botsort.yaml, save_dir=runs/detect/train2963
[36m(ClientAppActor pid=619796)[0m Overriding class names with single class.
[36m(ClientAppActor pid=619796)[0m 
[36m(ClientAppActor pid=619796)[0m                    from  n    params  module                                       arguments                     
[36m(ClientAppActor pid=619796)[0m   0                  -1  1       464  ultralytics.nn.modules.conv.Conv             [3, 16, 3, 2]                 
[36m(ClientAppActor pid=619796)[0m   1                  -1  1      4672  ultralytics.nn.modules.conv.Conv             [16, 32, 3, 2]                
[36m(ClientAppActor pid=619796)[0m   2                  -1  1      7360  ultralytics.nn.modules.block.C2f             [32, 32, 1, True]             
[36m(ClientAppActor pid=619796)[0m   3                  -1  1     18560  ultralytics.nn.modules.conv.Conv             [32, 64, 3, 2]                
[36m(ClientAppActor pid=619796)[0m   4                  -1  2     49664  ultralytics.nn.modules.block.C2f             [64, 64, 2, True]             
[36m(ClientAppActor pid=619796)[0m   5                  -1  1     73984  ultralytics.nn.modules.conv.Conv             [64, 128, 3, 2]               
[36m(ClientAppActor pid=619796)[0m   6                  -1  2    197632  ultralytics.nn.modules.block.C2f             [128, 128, 2, True]           
[36m(ClientAppActor pid=619796)[0m   7                  -1  1    295424  ultralytics.nn.modules.conv.Conv             [128, 256, 3, 2]              
[36m(ClientAppActor pid=619796)[0m   8                  -1  1    460288  ultralytics.nn.modules.block.C2f             [256, 256, 1, True]           
[36m(ClientAppActor pid=619796)[0m   9                  -1  1    164608  ultralytics.nn.modules.block.SPPF            [256, 256, 5]                 
[36m(ClientAppActor pid=619796)[0m  10                  -1  1         0  torch.nn.modules.upsampling.Upsample         [None, 2, 'nearest']          
[36m(ClientAppActor pid=619796)[0m  11             [-1, 6]  1         0  ultralytics.nn.modules.conv.Concat           [1]                           
[36m(ClientAppActor pid=619796)[0m  12                  -1  1    148224  ultralytics.nn.modules.block.C2f             [384, 128, 1]                 
[36m(ClientAppActor pid=619796)[0m  13                  -1  1         0  torch.nn.modules.upsampling.Upsample         [None, 2, 'nearest']          
[36m(ClientAppActor pid=619796)[0m  14             [-1, 4]  1         0  ultralytics.nn.modules.conv.Concat           [1]                           
[36m(ClientAppActor pid=619796)[0m  15                  -1  1     37248  ultralytics.nn.modules.block.C2f             [192, 64, 1]                  
[36m(ClientAppActor pid=619796)[0m  16                  -1  1     36992  ultralytics.nn.modules.conv.Conv             [64, 64, 3, 2]                
[36m(ClientAppActor pid=619796)[0m  17            [-1, 12]  1         0  ultralytics.nn.modules.conv.Concat           [1]                           
[36m(ClientAppActor pid=619796)[0m  18                  -1  1    123648  ultralytics.nn.modules.block.C2f             [192, 128, 1]                 
[36m(ClientAppActor pid=619796)[0m  19                  -1  1    147712  ultralytics.nn.modules.conv.Conv             [128, 128, 3, 2]              
[36m(ClientAppActor pid=619796)[0m  20             [-1, 9]  1         0  ultralytics.nn.modules.conv.Concat           [1]                           
[36m(ClientAppActor pid=619796)[0m  21                  -1  1    493056  ultralytics.nn.modules.block.C2f             [384, 256, 1]                 
[36m(ClientAppActor pid=619796)[0m  22        [15, 18, 21]  1    751507  ultralytics.nn.modules.head.Detect           [1, [64, 128, 256]]           
[36m(ClientAppActor pid=619796)[0m Speed: 0.4ms preprocess, 1.2ms inference, 0.0ms loss, 1.4ms postprocess per image[32m [repeated 3x across cluster][0m
[36m(ClientAppActor pid=619796)[0m Results saved to [1mruns/detect/val2918[0m[32m [repeated 3x across cluster][0m
[36m(ClientAppActor pid=619797)[0m [Client 0] Device: cuda:0[32m [repeated 4x across cluster][0m
[36m(ClientAppActor pid=619796)[0m                    all        197        455      0.604      0.415      0.462       0.32[32m [repeated 2x across cluster][0m
[36m(ClientAppActor pid=619797)[0m 
[36m(ClientAppActor pid=619797)[0m  12                  -1  1    148224  ultralytics.nn.modules.block.C2f             [384, 128, 1]                 
[36m(ClientAppActor pid=619797)[0m  15                  -1  1     37248  ultralytics.nn.modules.block.C2f             [192, 64, 1]                  
[36m(ClientAppActor pid=619797)[0m  18                  -1  1    123648  ultralytics.nn.modules.block.C2f             [192, 128, 1]                 
[36m(ClientAppActor pid=619797)[0m  21                  -1  1    493056  ultralytics.nn.modules.block.C2f             [384, 256, 1]                 
[36m(ClientAppActor pid=619796)[0m Model summary: 129 layers, 3,011,043 parameters, 3,011,027 gradients, 8.2 GFLOPs
[36m(ClientAppActor pid=619796)[0m 
[36m(ClientAppActor pid=619796)[0m Transferred 355/355 items from pretrained weights
[36m(ClientAppActor pid=619796)[0m [34m[1mtrain: [0mScanning /WehbeDocker/YOLOV8N/datasets/client_1/train/labels.cache...
…
      2.19G      1.446      1.868        1.3        136        640: 100%|â–ˆâ–ˆâ–ˆâ–ˆâ–ˆâ–ˆâ–ˆâ–ˆâ–ˆâ–ˆ| 34/34 [00:08<00:00,  4.18it/s]
[36m(ClientAppActor pid=619796)[0m                  Class     Images  Instances      Box(P          R      mAP50  mAP50-95):  67%|â–ˆâ–ˆâ–ˆâ–ˆâ–ˆâ–ˆâ–‹   | 2/3 [00:01<00:01,  1.00s/it]
[36m(ClientAppActor pid=619796)[0m [34m[1mTensorBoard: [0mStart with 'tensorboard --logdir runs/detect/train2963', view at http://localhost:6006/
[36m(ClientAppActor pid=619798)[0m 
[36m(ClientAppActor pid=619798)[0m  12                  -1  1    148224  ultralytics.nn.modules.block.C2f             [384, 128, 1]                 
[36m(ClientAppActor pid=619798)[0m  15                  -1  1     37248  ultralytics.nn.modules.block.C2f             [192, 64, 1]                  
[36m(ClientAppActor pid=619798)[0m  18                  -1  1    123648  ultralytics.nn.modules.block.C2f             [192, 128, 1]                 
[36m(ClientAppActor pid=619798)[0m  21                  -1  1    493056  ultralytics.nn.modules.block.C2f             [384, 256, 1]                 
[36m(ClientAppActor pid=619794)[0m 
[36m(ClientAppActor pid=619794)[0m  12                  -1  1    148224  ultralytics.nn.modules.block.C2f             [384, 128, 1]                 
[36m(ClientAppActor pid=619794)[0m  15                  -1  1     37248  ultralytics.nn.modules.block.C2f             [192, 64, 1]                  
[36m(ClientAppActor pid=619794)[0m  18                  -1  1    123648  ultralytics.nn.modules.block.C2f             [192, 128, 1]                 
[36m(ClientAppActor pid=619794)[0m  21                  -1  1    493056  ultralytics.nn.modules.block.C2f             [384, 256, 1]                 
[36m(ClientAppActor pid=619797)[0m 
[36m(ClientAppActor pid=619796)[0m Freezing layer 'model.22.dfl.conv.weight'
[36m(ClientAppActor pid=619796)[0m [34m[1mAMP: [0mrunning Automatic Mixed Precision (AMP) checks...
[36m(ClientAppActor pid=619798)[0m 
[36m(ClientAppActor pid=619794)[0m 
[36m(ClientAppActor pid=619796)[0m [34m[1mAMP: [0mchecks passed âœ…
…
, shear=0.0, perspective=0.0, flipud=0.0, fliplr=0.5, bgr=0.0, mosaic=1.0, mixup=0.0, copy_paste=0.0, copy_paste_mode=flip, auto_augment=randaugment, erasing=0.4, crop_fraction=1.0, cfg=None, tracker=botsort.yaml, save_dir=runs/detect/train2967
[36m(ClientAppActor pid=619797)[0m Overriding class names with single class.
[36m(ClientAppActor pid=619797)[0m 
[36m(ClientAppActor pid=619797)[0m                    from  n    params  module                                       arguments                     
[36m(ClientAppActor pid=619797)[0m   0                  -1  1       464  ultralytics.nn.modules.conv.Conv             [3, 16, 3, 2]                 
[36m(ClientAppActor pid=619797)[0m   1                  -1  1      4672  ultralytics.nn.modules.conv.Conv             [16, 32, 3, 2]                
[36m(ClientAppActor pid=619797)[0m   2                  -1  1      7360  ultralytics.nn.modules.block.C2f             [32, 32, 1, True]             
[36m(ClientAppActor pid=619797)[0m   3                  -1  1     18560  ultralytics.nn.modules.conv.Conv             [32, 64, 3, 2]                
[36m(ClientAppActor pid=619797)[0m   4                  -1  2     49664  ultralytics.nn.modules.block.C2f             [64, 64, 2, True]             
[36m(ClientAppActor pid=619797)[0m   5                  -1  1     73984  ultralytics.nn.modules.conv.Conv             [64, 128, 3, 2]               
[36m(ClientAppActor pid=619797)[0m   6                  -1  2    197632  ultralytics.nn.modules.block.C2f             [128, 128, 2, True]           
[36m(ClientAppActor pid=619797)[0m   7                  -1  1    295424  ultralytics.nn.modules.conv.Conv             [128, 256, 3, 2]              
[36m(ClientAppActor pid=619797)[0m   8                  -1  1    460288  ultralytics.nn.modules.block.C2f             [256, 256, 1, True]           
[36m(ClientAppActor pid=619797)[0m   9                  -1  1    164608  ultralytics.nn.modules.block.SPPF            [256, 256, 5]                 
[36m(ClientAppActor pid=619797)[0m  10                  -1  1         0  torch.nn.modules.upsampling.Upsample         [None, 2, 'nearest']          
[36m(ClientAppActor pid=619797)[0m  11             [-1, 6]  1         0  ultralytics.nn.modules.conv.Concat           [1]                           
[36m(ClientAppActor pid=619797)[0m  12                  -1  1    148224  ultralytics.nn.modules.block.C2f             [384, 128, 1]                 
[36m(ClientAppActor pid=619797)[0m  13                  -1  1         0  torch.nn.modules.upsampling.Upsample         [None, 2, 'nearest']          
[36m(ClientAppActor pid=619797)[0m  14             [-1, 4]  1         0  ultralytics.nn.modules.conv.Concat           [1]                           
[36m(ClientAppActor pid=619797)[0m  15                  -1  1     37248  ultralytics.nn.modules.block.C2f             [192, 64, 1]                  
[36m(ClientAppActor pid=619797)[0m  16                  -1  1     36992  ultralytics.nn.modules.conv.Conv             [64, 64, 3, 2]                
[36m(ClientAppActor pid=619797)[0m  17            [-1, 12]  1         0  ultralytics.nn.modules.conv.Concat           [1]                           
[36m(ClientAppActor pid=619797)[0m [34m[1mtrain: [0mScanning /WehbeDocker/YOLOV8N/datasets/client_2/train/labels.cache... 779 images, 0 backgrounds, 0 corrupt: 100%|â–ˆâ–ˆâ–ˆâ–ˆâ–ˆâ–ˆâ–ˆâ–ˆâ–ˆâ–ˆ| 779/779 [00:00<?, ?it/s][34m[1mtrain: [0mScanning /WehbeDocker/YOLOV8N/datasets/client_2/train/labels.cache... 779 images, 0 backgrounds, 0 corrupt: 100%|â–ˆâ–ˆâ–ˆâ–ˆâ–ˆâ–ˆâ–ˆâ–ˆâ–ˆâ–ˆ| 779/779 [00:00<?, ?it/s][32m [repeated 4x across cluster][0m
…
[36m(ClientAppActor pid=619794)[0m                  Class     Images  Instances      Box(P          R      mAP50  mAP50-95): 100%|â–ˆâ–ˆâ–ˆâ–ˆâ–ˆâ–ˆâ–ˆâ–ˆâ–ˆâ–ˆ| 5/5 [00:02<00:00,  1.76it/s]
[36m(ClientAppActor pid=619796)[0m                  Class     Images  Instances      Box(P          R      mAP50  mAP50-95): 100%|â–ˆâ–ˆâ–ˆâ–ˆâ–ˆâ–ˆâ–ˆâ–ˆâ–ˆâ–ˆ| 13/13 [00:03<00:00, 10.49it/s]                 Class     Images  Instances      Box(P          R      mAP50  mAP50-95): 100%|â–ˆâ–ˆâ–ˆâ–ˆâ–ˆâ–ˆâ–ˆâ–ˆâ–ˆâ–ˆ| 13/13 [00:03<00:00,  3.45it/s]
[36m(ClientAppActor pid=619797)[0m  18                  -1  1    123648  ultralytics.nn.modules.block.C2f             [192, 128, 1]                 
[36m(ClientAppActor pid=619797)[0m  19                  -1  1    147712  ultralytics.nn.modules.conv.Conv             [128, 128, 3, 2]              
[36m(ClientAppActor pid=619797)[0m  20             [-1, 9]  1         0  ultralytics.nn.modules.conv.Concat           [1]                           
[36m(ClientAppActor pid=619797)[0m  21                  -1  1    493056  ultralytics.nn.modules.block.C2f             [384, 256, 1]                 
[36m(ClientAppActor pid=619796)[0m Speed: 0.7ms preprocess, 1.4ms inference, 0.0ms loss, 2.0ms postprocess per image[32m [repeated 3x across cluster][0m
[36m(ClientAppActor pid=619796)[0m Results saved to [1mruns/detect/val2921[0m[32m [repeated 3x across cluster][0m
[36m(ClientAppActor pid=619796)[0m [Client 3] Device: cuda:0[32m [repeated 4x across cluster][0m
[36m(ClientAppActor pid=619797)[0m                    all        190        408      0.696      0.534      0.618       0.48[32m [repeated 2x across cluster][0m
[36m(ClientAppActor pid=619798)[0m 
[36m(ClientAppActor pid=619794)[0m 
[36m(ClientAppActor pid=619797)[0m  22        [15, 18, 21]  1    751507  ultralytics.nn.modules.head.Detect           [1, [64, 128, 256]]           
[36m(ClientAppActor pid=619797)[0m Model summary: 129 layers, 3,011,043 parameters, 3,011,027 gradients, 8.2 GFLOPs
[36m(ClientAppActor pid=619797)[0m 
[36m(ClientAppActor pid=619796)[0m 
[36m(ClientAppActor pid=619796)[0m  12                  -1  1    148224  ultralytics.nn.modules.block.C2f             [384, 128, 1]                 
[36m(ClientAppActor pid=619796)[0m  15                  -1  1     37248  ultralytics.nn.modules.block.C2f             [192, 64, 1]                  
[36m(ClientAppActor pid=619796)[0m  18                  -1  1    123648  ultralytics.nn.modules.block.C2f             [192, 128, 1]                 
[36m(ClientAppActor pid=619796)[0m  21                  -1  1    493056  ultralytics.nn.modules.block.C2f             [384, 256, 1]                 
[36m(ClientAppActor pid=619798)[0m  12                  -1  1    148224  ultralytics.nn.modules.block.C2f             [384, 128, 1]                 
[36m(ClientAppActor pid=619798)[0m  15                  -1  1     37248  ultralytics.nn.modules.block.C2f             [192, 64, 1]                  
[36m(ClientAppActor pid=619798)[0m  18                  -1  1    123648  ultralytics.nn.modules.block.C2f             [192, 128, 1]                 
[36m(ClientAppActor pid=619798)[0m  21                  -1  1    493056  ultralytics.nn.modules.block.C2f             [384, 256, 1]                 
[36m(ClientAppActor pid=619794)[0m  12                  -1  1    148224  ultralytics.nn.modules.block.C2f             [384, 128, 1]                 
[36m(ClientAppActor pid=619794)[0m  15                  -1  1     37248  ultralytics.nn.modules.block.C2f             [192, 64, 1]                  
[36m(ClientAppActor pid=619794)[0m  18                  -1  1    123648  ultralytics.nn.modules.block.C2f             [192, 128, 1]                 
[36m(ClientAppActor pid=619794)[0m  21                  -1  1    493056  ultralytics.nn.modules.block.C2f             [384, 256, 1]                 
[36m(ClientAppActor pid=619797)[0m Transferred 355/355 items from pretrained weights
[36m(ClientAppActor pid=619797)[0m [34m[1mTensorBoard: [0mStart with 'tensorboard --logdir runs/detect/train2967', view at http://localhost:6006/
[36m(ClientAppActor pid=619797)[0m Freezing layer 'model.22.dfl.conv.weight'
[36m(ClientAppActor pid=619797)[0m [34m[1mAMP: [0mrunning Automatic Mixed Precision (AMP) checks...
…
, shear=0.0, perspective=0.0, flipud=0.0, fliplr=0.5, bgr=0.0, mosaic=1.0, mixup=0.0, copy_paste=0.0, copy_paste_mode=flip, auto_augment=randaugment, erasing=0.4, crop_fraction=1.0, cfg=None, tracker=botsort.yaml, save_dir=runs/detect/train2971
[36m(ClientAppActor pid=619798)[0m Overriding class names with single class.
[36m(ClientAppActor pid=619798)[0m 
[36m(ClientAppActor pid=619798)[0m                    from  n    params  module                                       arguments                     
[36m(ClientAppActor pid=619798)[0m   0                  -1  1       464  ultralytics.nn.modules.conv.Conv             [3, 16, 3, 2]                 
[36m(ClientAppActor pid=619798)[0m   1                  -1  1      4672  ultralytics.nn.modules.conv.Conv             [16, 32, 3, 2]                
[36m(ClientAppActor pid=619798)[0m   2                  -1  1      7360  ultralytics.nn.modules.block.C2f             [32, 32, 1, True]             
[36m(ClientAppActor pid=619798)[0m   3                  -1  1     18560  ultralytics.nn.modules.conv.Conv             [32, 64, 3, 2]                
[36m(ClientAppActor pid=619798)[0m   4                  -1  2     49664  ultralytics.nn.modules.block.C2f             [64, 64, 2, True]             
[36m(ClientAppActor pid=619798)[0m   5                  -1  1     73984  ultralytics.nn.modules.conv.Conv             [64, 128, 3, 2]               
[36m(ClientAppActor pid=619798)[0m   6                  -1  2    197632  ultralytics.nn.modules.block.C2f             [128, 128, 2, True]           
[36m(ClientAppActor pid=619798)[0m   7                  -1  1    295424  ultralytics.nn.modules.conv.Conv             [128, 256, 3, 2]              
[36m(ClientAppActor pid=619798)[0m   8                  -1  1    460288  ultralytics.nn.modules.block.C2f             [256, 256, 1, True]           
[36m(ClientAppActor pid=619798)[0m   9                  -1  1    164608  ultralytics.nn.modules.block.SPPF            [256, 256, 5]                 
[36m(ClientAppActor pid=619798)[0m [34m[1mtrain: [0mScanning /WehbeDocker/YOLOV8N/datasets/client_2/train/labels.cache... 779 images, 0 backgrounds, 0 corrupt: 100%|â–ˆâ–ˆâ–ˆâ–ˆâ–ˆâ–ˆâ–ˆâ–ˆâ–ˆâ–ˆ| 779/779 [00:00<?, ?it/s][34m[1mtrain: [0mScanning /WehbeDocker/YOLOV8N/datasets/client_2/train/labels.cache... 779 images, 0 backgrounds, 0 corrupt: 100%|â–ˆâ–ˆâ–ˆâ–ˆâ–ˆâ–ˆâ–ˆâ–ˆâ–ˆâ–ˆ| 779/779 [00:00<?, ?it/s][32m [repeated 4x across cluster][0m
…
[36m(ClientAppActor pid=619794)[0m                  Class     Images  Instances      Box(P          R      mAP50  mAP50-95):  85%|â–ˆâ–ˆâ–ˆâ–ˆâ–ˆâ–ˆâ–ˆâ–ˆâ– | 11/13 [00:03<00:00,  6.25it/s][32m [repeated 26x across cluster][0m
[36m(ClientAppActor pid=619794)[0m                  Class     Images  Instances      Box(P          R      mAP50  mAP50-95): 100%|â–ˆâ–ˆâ–ˆâ–ˆâ–ˆâ–ˆâ–ˆâ–ˆâ–ˆâ–ˆ| 13/13 [00:03<00:00,  8.44it/s]                 Class     Images  Instances      Box(P          R      mAP50  mAP50-95): 100%|â–ˆâ–ˆâ–ˆâ–ˆâ–ˆâ–ˆâ–ˆâ–ˆâ–ˆâ–ˆ| 13/13 [00:03<00:00,  3.30it/s][32m [repeated 2x across cluster][0m
[36m(ClientAppActor pid=619798)[0m  10                  -1  1         0  torch.nn.modules.upsampling.Upsample         [None, 2, 'nearest']          
[36m(ClientAppActor pid=619798)[0m  11             [-1, 6]  1         0  ultralytics.nn.modules.conv.Concat           [1]                           
[36m(ClientAppActor pid=619798)[0m  12                  -1  1    148224  ultralytics.nn.modules.block.C2f             [384, 128, 1]                 
[36m(ClientAppActor pid=619798)[0m  13                  -1  1         0  torch.nn.modules.upsampling.Upsample         [None, 2, 'nearest']          
[36m(ClientAppActor pid=619798)[0m  14             [-1, 4]  1         0  ultralytics.nn.modules.conv.Concat           [1]                           
[36m(ClientAppActor pid=619798)[0m  15                  -1  1     37248  ultralytics.nn.modules.block.C2f             [192, 64, 1]                  
[36m(ClientAppActor pid=619798)[0m  16                  -1  1     36992  ultralytics.nn.modules.conv.Conv             [64, 64, 3, 2]                
[36m(ClientAppActor pid=619798)[0m  17            [-1, 12]  1         0  ultralytics.nn.modules.conv.Concat           [1]                           
[36m(ClientAppActor pid=619798)[0m  18                  -1  1    123648  ultralytics.nn.modules.block.C2f             [192, 128, 1]                 
[36m(ClientAppActor pid=619798)[0m  19                  -1  1    147712  ultralytics.nn.modules.conv.Conv             [128, 128, 3, 2]              
[36m(ClientAppActor pid=619798)[0m  20             [-1, 9]  1         0  ultralytics.nn.modules.conv.Concat           [1]                           
[36m(ClientAppActor pid=619798)[0m  21                  -1  1    493056  ultralytics.nn.modules.block.C2f             [384, 256, 1]                 
[36m(ClientAppActor pid=619798)[0m  22        [15, 18, 21]  1    751507  ultralytics.nn.modules.head.Detect           [1, [64, 128, 256]]           
[36m(ClientAppActor pid=619794)[0m 
[36m(ClientAppActor pid=619797)[0m 
[36m(ClientAppActor pid=619794)[0m  12                  -1  1    148224  ultralytics.nn.modules.block.C2f             [384, 128, 1]                 
[36m(ClientAppActor pid=619794)[0m  15                  -1  1     37248  ultralytics.nn.modules.block.C2f             [192, 64, 1]                  
[36m(ClientAppActor pid=619797)[0m  12                  -1  1    148224  ultralytics.nn.modules.block.C2f             [384, 128, 1]                 
[36m(ClientAppActor pid=619794)[0m  18                  -1  1    123648  ultralytics.nn.modules.block.C2f             [192, 128, 1]                 
[36m(ClientAppActor pid=619797)[0m  15                  -1  1     37248  ultralytics.nn.modules.block.C2f             [192, 64, 1]                  
[36m(ClientAppActor pid=619797)[0m  18                  -1  1    123648  ultralytics.nn.modules.block.C2f             [192, 128, 1]                 
[36m(ClientAppActor pid=619794)[0m  21                  -1  1    493056  ultralytics.nn.modules.block.C2f             [384, 256, 1]                 
[36m(ClientAppActor pid=619798)[0m Model summary: 129 layers, 3,011,043 parameters, 3,011,027 gradients, 8.2 GFLOPs
[36m(ClientAppActor pid=619798)[0m 
[36m(ClientAppActor pid=619798)[0m Transferred 355/355 items from pretrained weights
[36m(ClientAppActor pid=619798)[0m [34m[1mTensorBoard: [0mStart with 'tensorboard --logdir runs/detect/train2971', view at http://localhost:6006/
[36m(ClientAppActor pid=619798)[0m Freezing layer 'model.22.dfl.conv.weight'
[36m(ClientAppActor pid=619798)[0m [34m[1mAMP: [0mrunning Automatic Mixed Precision (AMP) checks...
[36m(ClientAppActor pid=619797)[0m  21                  -1  1    493056  ultralytics.nn.modules.block.C2f             [384, 256, 1]                 
[36m(ClientAppActor pid=619797)[0m 
[36m(ClientAppActor pid=619796)[0m 
[36m(ClientAppActor pid=619796)[0m  12                  -1  1    148224  ultralytics.nn.modules.block.C2f             [384, 128, 1]                 
[36m(ClientAppActor pid=619796)[0m  15                  -1  1     37248  ultralytics.nn.modules.block.C2f             [192, 64, 1]                  
[36m(ClientAppActor pid=619796)[0m  18                  -1  1    123648  ultralytics.nn.modules.block.C2f             [192, 128, 1]                 
[36m(ClientAppActor pid=619796)[0m  21                  -1  1    493056  ultralytics.nn.modules.block.C2f             [384, 256, 1]                 
[36m(ClientAppActor pid=619794)[0m 
[36m(ClientAppActor pid=619796)[0m 
[36m(ClientAppActor pid=619798)[0m [34m[1mAMP: [0mchecks passed âœ…
[36m(ClientAppActor pid=619798)[0m Plotting labels to runs/detect/train2971/labels.jpg... 
[36m(ClientAppActor pid=619798)[0m [34m[1moptimizer:[0m 'optimizer=auto' found, ignoring 'lr0=0.001' and 'momentum=0.937' and determining best 'optimizer', 'lr0' and 'momentum' automatically... 
…
, shear=0.0, perspective=0.0, flipud=0.0, fliplr=0.5, bgr=0.0, mosaic=1.0, mixup=0.0, copy_paste=0.0, copy_paste_mode=flip, auto_augment=randaugment, erasing=0.4, crop_fraction=1.0, cfg=None, tracker=botsort.yaml, save_dir=runs/detect/train2975
[36m(ClientAppActor pid=619796)[0m Overriding class names with single class.
[36m(ClientAppActor pid=619796)[0m 
[36m(ClientAppActor pid=619796)[0m                    from  n    params  module                                       arguments                     
[36m(ClientAppActor pid=619796)[0m   0                  -1  1       464  ultralytics.nn.modules.conv.Conv             [3, 16, 3, 2]                 
[36m(ClientAppActor pid=619796)[0m   1                  -1  1      4672  ultralytics.nn.modules.conv.Conv             [16, 32, 3, 2]                
[36m(ClientAppActor pid=619796)[0m   2                  -1  1      7360  ultralytics.nn.modules.block.C2f             [32, 32, 1, True]             
[36m(ClientAppActor pid=619796)[0m   3                  -1  1     18560  ultralytics.nn.modules.conv.Conv             [32, 64, 3, 2]                
[36m(ClientAppActor pid=619796)[0m   4                  -1  2     49664  ultralytics.nn.modules.block.C2f             [64, 64, 2, True]             
[36m(ClientAppActor pid=619796)[0m   5                  -1  1     73984  ultralytics.nn.modules.conv.Conv             [64, 128, 3, 2]               
[36m(ClientAppActor pid=619796)[0m   6                  -1  2    197632  ultralytics.nn.modules.block.C2f             [128, 128, 2, True]           
[36m(ClientAppActor pid=619796)[0m   7                  -1  1    295424  ultralytics.nn.modules.conv.Conv             [128, 256, 3, 2]              
[36m(ClientAppActor pid=619796)[0m   8                  -1  1    460288  ultralytics.nn.modules.block.C2f             [256, 256, 1, True]           
[36m(ClientAppActor pid=619796)[0m [34m[1mtrain: [0mScanning /WehbeDocker/YOLOV8N/datasets/client_2/train/labels.cache... 779 images, 0 backgrounds, 0 corrupt: 100%|â–ˆâ–ˆâ–ˆâ–ˆâ–ˆâ–ˆâ–ˆâ–ˆâ–ˆâ–ˆ| 779/779 [00:00<?, ?it/s][34m[1mtrain: [0mScanning /WehbeDocker/YOLOV8N/datasets/client_2/train/labels.cache... 779 images, 0 backgrounds, 0 corrupt: 100%|â–ˆâ–ˆâ–ˆâ–ˆâ–ˆâ–ˆâ–ˆâ–ˆâ–ˆâ–ˆ| 779/779 [00:00<?, ?it/s][32m [repeated 4x across cluster][0m
…
[36m(ClientAppActor pid=619797)[0m                  Class     Images  Instances      Box(P          R      mAP50  mAP50-95):  85%|â–ˆâ–ˆâ–ˆâ–ˆâ–ˆâ–ˆâ–ˆâ–ˆâ– | 11/13 [00:03<00:00,  5.42it/s][32m [repeated 22x across cluster][0m
[36m(ClientAppActor pid=619794)[0m                  Class     Images  Instances      Box(P          R      mAP50  mAP50-95): 100%|â–ˆâ–ˆâ–ˆâ–ˆâ–ˆâ–ˆâ–ˆâ–ˆâ–ˆâ–ˆ| 12/12 [00:03<00:00,  7.48it/s]                 Class     Images  Instances      Box(P          R      mAP50  mAP50-95): 100%|â–ˆâ–ˆâ–ˆâ–ˆâ–ˆâ–ˆâ–ˆâ–ˆâ–ˆâ–ˆ| 12/12 [00:03<00:00,  3.09it/s][32m [repeated 2x across cluster][0m
[36m(ClientAppActor pid=619796)[0m   9                  -1  1    164608  ultralytics.nn.modules.block.SPPF            [256, 256, 5]                 
[36m(ClientAppActor pid=619796)[0m  10                  -1  1         0  torch.nn.modules.upsampling.Upsample         [None, 2, 'nearest']          
[36m(ClientAppActor pid=619796)[0m  11             [-1, 6]  1         0  ultralytics.nn.modules.conv.Concat           [1]                           
[36m(ClientAppActor pid=619796)[0m  12                  -1  1    148224  ultralytics.nn.modules.block.C2f             [384, 128, 1]                 
[36m(ClientAppActor pid=619796)[0m  13                  -1  1         0  torch.nn.modules.upsampling.Upsample         [None, 2, 'nearest']          
[36m(ClientAppActor pid=619796)[0m  14             [-1, 4]  1         0  ultralytics.nn.modules.conv.Concat           [1]                           
[36m(ClientAppActor pid=619796)[0m  15                  -1  1     37248  ultralytics.nn.modules.block.C2f             [192, 64, 1]                  
[36m(ClientAppActor pid=619796)[0m  16                  -1  1     36992  ultralytics.nn.modules.conv.Conv             [64, 64, 3, 2]                
[36m(ClientAppActor pid=619796)[0m  17            [-1, 12]  1         0  ultralytics.nn.modules.conv.Concat           [1]                           
[36m(ClientAppActor pid=619796)[0m  18                  -1  1    123648  ultralytics.nn.modules.block.C2f             [192, 128, 1]                 
[36m(ClientAppActor pid=619796)[0m  19                  -1  1    147712  ultralytics.nn.modules.conv.Conv             [128, 128, 3, 2]              
[36m(ClientAppActor pid=619796)[0m  20             [-1, 9]  1         0  ultralytics.nn.modules.conv.Concat           [1]                           
[36m(ClientAppActor pid=619796)[0m  21                  -1  1    493056  ultralytics.nn.modules.block.C2f             [384, 256, 1]                 
[36m(ClientAppActor pid=619796)[0m  22        [15, 18, 21]  1    751507  ultralytics.nn.modules.head.Detect           [1, [64, 128, 256]]           
[36m(ClientAppActor pid=619797)[0m Speed: 0.3ms preprocess, 1.6ms inference, 0.0ms loss, 1.4ms postprocess per image[32m [repeated 3x across cluster][0m
[36m(ClientAppActor pid=619797)[0m Results saved to [1mruns/detect/val2929[0m[32m [repeated 3x across cluster][0m
[36m(ClientAppActor pid=619798)[0m [Client 3] Device: cuda:0[32m [repeated 4x across cluster][0m
[36m(ClientAppActor pid=619797)[0m                    all        197        455      0.677      0.611      0.664      0.485[32m [repeated 2x across cluster][0m
[36m(ClientAppActor pid=619798)[0m 
[36m(ClientAppActor pid=619798)[0m  12                  -1  1    148224  ultralytics.nn.modules.block.C2f             [384, 128, 1]                 
[36m(ClientAppActor pid=619798)[0m  15                  -1  1     37248  ultralytics.nn.modules.block.C2f             [192, 64, 1]                  
[36m(ClientAppActor pid=619798)[0m  18                  -1  1    123648  ultralytics.nn.modules.block.C2f             [192, 128, 1]                 
[36m(ClientAppActor pid=619798)[0m  21                  -1  1    493056  ultralytics.nn.modules.block.C2f             [384, 256, 1]                 
[36m(ClientAppActor pid=619794)[0m 
[36m(ClientAppActor pid=619794)[0m  12                  -1  1    148224  ultralytics.nn.modules.block.C2f             [384, 128, 1]                 
[36m(ClientAppActor pid=619794)[0m  15                  -1  1     37248  ultralytics.nn.modules.block.C2f             [192, 64, 1]                  
[36m(ClientAppActor pid=619794)[0m  18                  -1  1    123648  ultralytics.nn.modules.block.C2f             [192, 128, 1]                 
[36m(ClientAppActor pid=619794)[0m  21                  -1  1    493056  ultralytics.nn.modules.block.C2f             [384, 256, 1]                 
[36m(ClientAppActor pid=619797)[0m 
[36m(ClientAppActor pid=619797)[0m  12                  -1  1    148224  ultralytics.nn.modules.block.C2f             [384, 128, 1]                 
[36m(ClientAppActor pid=619797)[0m  15                  -1  1     37248  ultralytics.nn.modules.block.C2f             [192, 64, 1]                  
[36m(ClientAppActor pid=619797)[0m  18                  -1  1    123648  ultralytics.nn.modules.block.C2f             [192, 128, 1]                 
[36m(ClientAppActor pid=619797)[0m  21                  -1  1    493056  ultralytics.nn.modules.block.C2f             [384, 256, 1]                 
[36m(ClientAppActor pid=619796)[0m Model summary: 129 layers, 3,011,043 parameters, 3,011,027 gradients, 8.2 GFLOPs
[36m(ClientAppActor pid=619796)[0m 
[36m(ClientAppActor pid=619796)[0m Transferred 355/355 items from pretrained weights
[36m(ClientAppActor pid=619796)[0m [34m[1mTensorBoard: [0mStart with 'tensorboard --logdir runs/detect/train2975', view at http://localhost:6006/
…
, shear=0.0, perspective=0.0, flipud=0.0, fliplr=0.5, bgr=0.0, mosaic=1.0, mixup=0.0, copy_paste=0.0, copy_paste_mode=flip, auto_augment=randaugment, erasing=0.4, crop_fraction=1.0, cfg=None, tracker=botsort.yaml, save_dir=runs/detect/train2979
[36m(ClientAppActor pid=619796)[0m Overriding class names with single class.
[36m(ClientAppActor pid=619796)[0m 
[36m(ClientAppActor pid=619796)[0m                    from  n    params  module                                       arguments                     
[36m(ClientAppActor pid=619796)[0m   0                  -1  1       464  ultralytics.nn.modules.conv.Conv             [3, 16, 3, 2]                 
[36m(ClientAppActor pid=619796)[0m   1                  -1  1      4672  ultralytics.nn.modules.conv.Conv             [16, 32, 3, 2]                
[36m(ClientAppActor pid=619796)[0m   2                  -1  1      7360  ultralytics.nn.modules.block.C2f             [32, 32, 1, True]             
[36m(ClientAppActor pid=619796)[0m   3                  -1  1     18560  ultralytics.nn.modules.conv.Conv             [32, 64, 3, 2]                
[36m(ClientAppActor pid=619796)[0m   4                  -1  2     49664  ultralytics.nn.modules.block.C2f             [64, 64, 2, True]             
[36m(ClientAppActor pid=619796)[0m   5                  -1  1     73984  ultralytics.nn.modules.conv.Conv             [64, 128, 3, 2]               
[36m(ClientAppActor pid=619796)[0m   6                  -1  2    197632  ultralytics.nn.modules.block.C2f             [128, 128, 2, True]           
[36m(ClientAppActor pid=619796)[0m   7                  -1  1    295424  ultralytics.nn.modules.conv.Conv             [128, 256, 3, 2]              
[36m(ClientAppActor pid=619796)[0m   8                  -1  1    460288  ultralytics.nn.modules.block.C2f             [256, 256, 1, True]           
[36m(ClientAppActor pid=619796)[0m   9                  -1  1    164608  ultralytics.nn.modules.block.SPPF            [256, 256, 5]                 
[36m(ClientAppActor pid=619796)[0m  10                  -1  1         0  torch.nn.modules.upsampling.Upsample         [None, 2, 'nearest']          
[36m(ClientAppActor pid=619796)[0m  11             [-1, 6]  1         0  ultralytics.nn.modules.conv.Concat           [1]                           
[36m(ClientAppActor pid=619796)[0m  12                  -1  1    148224  ultralytics.nn.modules.block.C2f             [384, 128, 1]                 
[36m(ClientAppActor pid=619796)[0m  13                  -1  1         0  torch.nn.modules.upsampling.Upsample         [None, 2, 'nearest']          
[36m(ClientAppActor pid=619796)[0m  14             [-1, 4]  1         0  ultralytics.nn.modules.conv.Concat           [1]                           
[36m(ClientAppActor pid=619796)[0m  15                  -1  1     37248  ultralytics.nn.modules.block.C2f             [192, 64, 1]                  
[36m(ClientAppActor pid=619796)[0m  16                  -1  1     36992  ultralytics.nn.modules.conv.Conv             [64, 64, 3, 2]                
[36m(ClientAppActor pid=619796)[0m  17            [-1, 12]  1         0  ultralytics.nn.modules.conv.Concat           [1]                           
[36m(ClientAppActor pid=619796)[0m  18                  -1  1    123648  ultralytics.nn.modules.block.C2f             [192, 128, 1]                 
[36m(ClientAppActor pid=619796)[0m  19                  -1  1    147712  ultralytics.nn.modules.conv.Conv             [128, 128, 3, 2]              
[36m(ClientAppActor pid=619796)[0m  20             [-1, 9]  1         0  ultralytics.nn.modules.conv.Concat           [1]                           
[36m(ClientAppActor pid=619796)[0m  21                  -1  1    493056  ultralytics.nn.modules.block.C2f             [384, 256, 1]                 
[36m(ClientAppActor pid=619796)[0m  22        [15, 18, 21]  1    751507  ultralytics.nn.modules.head.Detect           [1, [64, 128, 256]]           
[36m(ClientAppActor pid=619797)[0m [Client 1] Device: cuda:0[32m [repeated 4x across cluster][0m
[36m(ClientAppActor pid=619796)[0m                    all        197        455      0.675      0.624      0.683        0.5[32m [repeated 2x across cluster][0m
[36m(ClientAppActor pid=619796)[0m Speed: 0.5ms preprocess, 1.8ms inference, 0.0ms loss, 2.1ms postprocess per image[32m [repeated 3x across cluster][0m
…
[36m(ClientAppActor pid=619796)[0m Model summary: 129 layers, 3,011,043 parameters, 3,011,027 gradients, 8.2 GFLOPs
[36m(ClientAppActor pid=619796)[0m 
[36m(ClientAppActor pid=619796)[0m Transferred 355/355 items from pretrained weights
[36m(ClientAppActor pid=619796)[0m [34m[1mTensorBoard: [0mStart with 'tensorboard --logdir runs/detect/train2979', view at http://localhost:6006/
[36m(ClientAppActor pid=619796)[0m Freezing layer 'model.22.dfl.conv.weight'
[36m(ClientAppActor pid=619796)[0m [34m[1mAMP: [0mrunning Automatic Mixed Precision (AMP) checks...
[36m(ClientAppActor pid=619794)[0m 
[36m(ClientAppActor pid=619794)[0m  12                  -1  1    148224  ultralytics.nn.modules.block.C2f             [384, 128, 1]                 
[36m(ClientAppActor pid=619797)[0m 
[36m(ClientAppActor pid=619798)[0m 
[36m(ClientAppActor pid=619794)[0m  15                  -1  1     37248  ultralytics.nn.modules.block.C2f             [192, 64, 1]                  
[36m(ClientAppActor pid=619794)[0m  18                  -1  1    123648  ultralytics.nn.modules.block.C2f             [192, 128, 1]                 
[36m(ClientAppActor pid=619798)[0m  12                  -1  1    148224  ultralytics.nn.modules.block.C2f             [384, 128, 1]                 
[36m(ClientAppActor pid=619798)[0m  15                  -1  1     37248  ultralytics.nn.modules.block.C2f             [192, 64, 1]                  
[36m(ClientAppActor pid=619798)[0m  18                  -1  1    123648  ultralytics.nn.modules.block.C2f             [192, 128, 1]                 
[36m(ClientAppActor pid=619798)[0m  21                  -1  1    493056  ultralytics.nn.modules.block.C2f             [384, 256, 1]                 
[36m(ClientAppActor pid=619794)[0m  21                  -1  1    493056  ultralytics.nn.modules.block.C2f             [384, 256, 1]                 
[36m(ClientAppActor pid=619797)[0m  12                  -1  1    148224  ultralytics.nn.modules.block.C2f             [384, 128, 1]                 
[36m(ClientAppActor pid=619797)[0m  15                  -1  1     37248  ultralytics.nn.modules.block.C2f             [192, 64, 1]                  
[36m(ClientAppActor pid=619796)[0m [34m[1mtrain: [0mScanning /WehbeDocker/YOLOV8N/datasets/client_2/train/labels.cache... 779 images, 0 backgrounds, 0 corrupt: 100%|â–ˆâ–ˆâ–ˆâ–ˆâ–ˆâ–ˆâ–ˆâ–ˆâ–ˆâ–ˆ| 779/779 [00:00<?, ?it/s][34m[1mtrain: [0mScanning /WehbeDocker/YOLOV8N/datasets/client_2/train/labels.cache... 779 images, 0 backgrounds, 0 corrupt: 100%|â–ˆâ–ˆâ–ˆâ–ˆâ–ˆâ–ˆâ–ˆâ–ˆâ–ˆâ–ˆ| 779/779 [00:00<?, ?it/s][32m [repeated 4x across cluster][0m
…
[36m(ClientAppActor pid=619794)[0m                  Class     Images  Instances      Box(P          R      mAP50  mAP50-95):  92%|â–ˆâ–ˆâ–ˆâ–ˆâ–ˆâ–ˆâ–ˆâ–ˆâ–ˆâ–| 11/12 [00:04<00:00,  4.61it/s]                 Class     Images  Instances      Box(P          R      mAP50  mAP50-95): 100%|â–ˆâ–ˆâ–ˆâ–ˆâ–ˆâ–ˆâ–ˆâ–ˆâ–ˆâ–ˆ| 12/12 [00:04<00:00,  2.83it/s][32m [repeated 3x across cluster][0m
[36m(ClientAppActor pid=619794)[0m /usr/local/lib/python3.10/dist-packages/ultralytics/utils/metrics.py:529: DeprecationWarning: `trapz` is deprecated. Use `trapezoid` instead, or one of the numerical integration functions in `scipy.integrate`.[32m [repeated 4x across cluster][0m
[36m(ClientAppActor pid=619794)[0m   ap = np.trapz(np.interp(x, mrec, mpre), x)  # integrate[32m [repeated 4x across cluster][0m
[36m(ClientAppActor pid=619796)[0m  12                  -1  1    148224  ultralytics.nn.modules.block.C2f             [384, 128, 1]                 
[36m(ClientAppActor pid=619796)[0m  15                  -1  1     37248  ultralytics.nn.modules.block.C2f             [192, 64, 1]                  
[36m(ClientAppActor pid=619796)[0m  18                  -1  1    123648  ultralytics.nn.modules.block.C2f             [192, 128, 1]                 
[36m(ClientAppActor pid=619796)[0m  21                  -1  1    493056  ultralytics.nn.modules.block.C2f             [384, 256, 1]                 
[36m(ClientAppActor pid=619798)[0m 
[36m(ClientAppActor pid=619798)[0m  12                  -1  1    148224  ultralytics.nn.modules.block.C2f             [384, 128, 1]                 
[36m(ClientAppActor pid=619798)[0m  15                  -1  1     37248  ultralytics.nn.modules.block.C2f             [192, 64, 1]                  
[36m(ClientAppActor pid=619798)[0m  18                  -1  1    123648  ultralytics.nn.modules.block.C2f             [192, 128, 1]                 
[36m(ClientAppActor pid=619798)[0m  21                  -1  1    493056  ultralytics.nn.modules.block.C2f             [384, 256, 1]                 
[36m(ClientAppActor pid=619794)[0m Model summary: 129 layers, 3,011,043 parameters, 3,011,027 gradients, 8.2 GFLOPs
[36m(ClientAppActor pid=619794)[0m 
[36m(ClientAppActor pid=619794)[0m Transferred 355/355 items from pretrained weights
[36m(ClientAppActor pid=619794)[0m [34m[1mTensorBoard: [0mStart with 'tensorboard --logdir runs/detect/train2983', view at http://localhost:6006/
[36m(ClientAppActor pid=619797)[0m 
[36m(ClientAppActor pid=619797)[0m  12                  -1  1    148224  ultralytics.nn.modules.block.C2f             [384, 128, 1]                 
[36m(ClientAppActor pid=619797)[0m  15                  -1  1     37248  ultralytics.nn.modules.block.C2f             [192, 64, 1]                  
[36m(ClientAppActor pid=619797)[0m  18                  -1  1    123648  ultralytics.nn.modules.block.C2f             [192, 128, 1]                 
[36m(ClientAppActor pid=619797)[0m  21                  -1  1    493056  ultralytics.nn.modules.block.C2f             [384, 256, 1]                 
[36m(ClientAppActor pid=619796)[0m 
[36m(ClientAppActor pid=619798)[0m 
[36m(ClientAppActor pid=619794)[0m Freezing layer 'model.22.dfl.conv.weight'
[36m(ClientAppActor pid=619794)[0m [34m[1mAMP: [0mrunning Automatic Mixed Precision (AMP) checks...
[36m(ClientAppActor pid=619797)[0m 
[36m(ClientAppActor pid=619794)[0m [34m[1mAMP: [0mchecks passed âœ…
…
, shear=0.0, perspective=0.0, flipud=0.0, fliplr=0.5, bgr=0.0, mosaic=1.0, mixup=0.0, copy_paste=0.0, copy_paste_mode=flip, auto_augment=randaugment, erasing=0.4, crop_fraction=1.0, cfg=None, tracker=botsort.yaml, save_dir=runs/detect/train2986
[36m(ClientAppActor pid=619798)[0m Overriding class names with single class.
[36m(ClientAppActor pid=619798)[0m 
[36m(ClientAppActor pid=619798)[0m                    from  n    params  module                                       arguments                     
[36m(ClientAppActor pid=619798)[0m   0                  -1  1       464  ultralytics.nn.modules.conv.Conv             [3, 16, 3, 2]                 
[36m(ClientAppActor pid=619798)[0m   1                  -1  1      4672  ultralytics.nn.modules.conv.Conv             [16, 32, 3, 2]                
[36m(ClientAppActor pid=619798)[0m   2                  -1  1      7360  ultralytics.nn.modules.block.C2f             [32, 32, 1, True]             
[36m(ClientAppActor pid=619798)[0m   3                  -1  1     18560  ultralytics.nn.modules.conv.Conv             [32, 64, 3, 2]                
[36m(ClientAppActor pid=619798)[0m   4                  -1  2     49664  ultralytics.nn.modules.block.C2f             [64, 64, 2, True]             
[36m(ClientAppActor pid=619798)[0m   5                  -1  1     73984  ultralytics.nn.modules.conv.Conv             [64, 128, 3, 2]               
[36m(ClientAppActor pid=619798)[0m   6                  -1  2    197632  ultralytics.nn.modules.block.C2f             [128, 128, 2, True]           
[36m(ClientAppActor pid=619798)[0m   7                  -1  1    295424  ultralytics.nn.modules.conv.Conv             [128, 256, 3, 2]              
[36m(ClientAppActor pid=619798)[0m   8                  -1  1    460288  ultralytics.nn.modules.block.C2f             [256, 256, 1, True]           
[36m(ClientAppActor pid=619798)[0m   9                  -1  1    164608  ultralytics.nn.modules.block.SPPF            [256, 256, 5]                 
[36m(ClientAppActor pid=619798)[0m  10                  -1  1         0  torch.nn.modules.upsampling.Upsample         [None, 2, 'nearest']          
[36m(ClientAppActor pid=619798)[0m  11             [-1, 6]  1         0  ultralytics.nn.modules.conv.Concat           [1]                           
[36m(ClientAppActor pid=619798)[0m  12                  -1  1    148224  ultralytics.nn.modules.block.C2f             [384, 128, 1]                 
[36m(ClientAppActor pid=619798)[0m  13                  -1  1         0  torch.nn.modules.upsampling.Upsample         [None, 2, 'nearest']          
[36m(ClientAppActor pid=619798)[0m  14             [-1, 4]  1         0  ultralytics.nn.modules.conv.Concat           [1]                           
[36m(ClientAppActor pid=619798)[0m  15                  -1  1     37248  ultralytics.nn.modules.block.C2f             [192, 64, 1]                  
[36m(ClientAppActor pid=619798)[0m  16                  -1  1     36992  ultralytics.nn.modules.conv.Conv             [64, 64, 3, 2]                
[36m(ClientAppActor pid=619798)[0m  17            [-1, 12]  1         0  ultralytics.nn.modules.conv.Concat           [1]                           
[36m(ClientAppActor pid=619798)[0m  18                  -1  1    123648  ultralytics.nn.modules.block.C2f             [192, 128, 1]                 
[36m(ClientAppActor pid=619798)[0m  19                  -1  1    147712  ultralytics.nn.modules.conv.Conv             [128, 128, 3, 2]              
[36m(ClientAppActor pid=619798)[0m  20             [-1, 9]  1         0  ultralytics.nn.modules.conv.Concat           [1]                           
[36m(ClientAppActor pid=619798)[0m  21                  -1  1    493056  ultralytics.nn.modules.block.C2f             [384, 256, 1]                 
[36m(ClientAppActor pid=619798)[0m [34m[1mtrain: [0mScanning /WehbeDocker/YOLOV8N/datasets/client_3/train/labels.cache... 768 images, 0 backgrounds, 0 corrupt: 100%|â–ˆâ–ˆâ–ˆâ–ˆâ–ˆâ–ˆâ–ˆâ–ˆâ–ˆâ–ˆ| 768/768 [00:00<?, ?it/s][34m[1mtrain: [0mScanning /WehbeDocker/YOLOV8N/datasets/client_3/train/labels.cache... 768 images, 0 backgrounds, 0 corrupt: 100%|â–ˆâ–ˆâ–ˆâ–ˆâ–ˆâ–ˆâ–ˆâ–ˆâ–ˆâ–ˆ| 768/768 [00:00<?, ?it/s][32m [repeated 4x across cluster][0m
…
, shear=0.0, perspective=0.0, flipud=0.0, fliplr=0.5, bgr=0.0, mosaic=1.0, mixup=0.0, copy_paste=0.0, copy_paste_mode=flip, auto_augment=randaugment, erasing=0.4, crop_fraction=1.0, cfg=None, tracker=botsort.yaml, save_dir=runs/detect/train2990
[36m(ClientAppActor pid=619798)[0m Overriding class names with single class.
[36m(ClientAppActor pid=619798)[0m 
[36m(ClientAppActor pid=619798)[0m                    from  n    params  module                                       arguments                     
[36m(ClientAppActor pid=619798)[0m   0                  -1  1       464  ultralytics.nn.modules.conv.Conv             [3, 16, 3, 2]                 
[36m(ClientAppActor pid=619798)[0m   1                  -1  1      4672  ultralytics.nn.modules.conv.Conv             [16, 32, 3, 2]                
[36m(ClientAppActor pid=619798)[0m   2                  -1  1      7360  ultralytics.nn.modules.block.C2f             [32, 32, 1, True]             
[36m(ClientAppActor pid=619798)[0m   3                  -1  1     18560  ultralytics.nn.modules.conv.Conv             [32, 64, 3, 2]                
[36m(ClientAppActor pid=619798)[0m   4                  -1  2     49664  ultralytics.nn.modules.block.C2f             [64, 64, 2, True]             
[36m(ClientAppActor pid=619798)[0m   5                  -1  1     73984  ultralytics.nn.modules.conv.Conv             [64, 128, 3, 2]               
[36m(ClientAppActor pid=619798)[0m   6                  -1  2    197632  ultralytics.nn.modules.block.C2f             [128, 128, 2, True]           
[36m(ClientAppActor pid=619798)[0m   7                  -1  1    295424  ultralytics.nn.modules.conv.Conv             [128, 256, 3, 2]              
[36m(ClientAppActor pid=619798)[0m   8                  -1  1    460288  ultralytics.nn.modules.block.C2f             [256, 256, 1, True]           
[36m(ClientAppActor pid=619798)[0m   9                  -1  1    164608  ultralytics.nn.modules.block.SPPF            [256, 256, 5]                 
[36m(ClientAppActor pid=619798)[0m  10                  -1  1         0  torch.nn.modules.upsampling.Upsample         [None, 2, 'nearest']          
[36m(ClientAppActor pid=619798)[0m  11             [-1, 6]  1         0  ultralytics.nn.modules.conv.Concat           [1]                           
[36m(ClientAppActor pid=619798)[0m  12                  -1  1    148224  ultralytics.nn.modules.block.C2f             [384, 128, 1]                 
[36m(ClientAppActor pid=619798)[0m  13                  -1  1         0  torch.nn.modules.upsampling.Upsample         [None, 2, 'nearest']          
[36m(ClientAppActor pid=619798)[0m  14             [-1, 4]  1         0  ultralytics.nn.modules.conv.Concat           [1]                           
[36m(ClientAppActor pid=619798)[0m  15                  -1  1     37248  ultralytics.nn.modules.block.C2f             [192, 64, 1]                  
[36m(ClientAppActor pid=619798)[0m [34m[1mtrain: [0mScanning /WehbeDocker/YOLOV8N/datasets/client_0/train/labels.cache... 540 images, 0 backgrounds, 0 corrupt: 100%|â–ˆâ–ˆâ–ˆâ–ˆâ–ˆâ–ˆâ–ˆâ–ˆâ–ˆâ–ˆ| 540/540 [00:00<?, ?it/s][34m[1mtrain: [0mScanning /WehbeDocker/YOLOV8N/datasets/client_0/train/labels.cache... 540 images, 0 backgrounds, 0 corrupt: 100%|â–ˆâ–ˆâ–ˆâ–ˆâ–ˆâ–ˆâ–ˆâ–ˆâ–ˆâ–ˆ| 540/540 [00:00<?, ?it/s][32m [repeated 4x across cluster][0m
…
[36m(ClientAppActor pid=619798)[0m                  Class     Images  Instances      Box(P          R      mAP50  mAP50-95):  83%|â–ˆâ–ˆâ–ˆâ–ˆâ–ˆâ–ˆâ–ˆâ–ˆâ–Ž | 10/12 [00:03<00:00,  6.10it/s][32m [repeated 27x across cluster][0m
[36m(ClientAppActor pid=619797)[0m                  Class     Images  Instances      Box(P          R      mAP50  mAP50-95):  92%|â–ˆâ–ˆâ–ˆâ–ˆâ–ˆâ–ˆâ–ˆâ–ˆâ–ˆâ–| 12/13 [00:03<00:00,  6.44it/s]                 Class     Images  Instances      Box(P          R      mAP50  mAP50-95): 100%|â–ˆâ–ˆâ–ˆâ–ˆâ–ˆâ–ˆâ–ˆâ–ˆâ–ˆâ–ˆ| 13/13 [00:03<00:00,  3.35it/s][32m [repeated 2x across cluster][0m
[36m(ClientAppActor pid=619798)[0m  16                  -1  1     36992  ultralytics.nn.modules.conv.Conv             [64, 64, 3, 2]                
[36m(ClientAppActor pid=619798)[0m  17            [-1, 12]  1         0  ultralytics.nn.modules.conv.Concat           [1]                           
[36m(ClientAppActor pid=619798)[0m  18                  -1  1    123648  ultralytics.nn.modules.block.C2f             [192, 128, 1]                 
[36m(ClientAppActor pid=619798)[0m  19                  -1  1    147712  ultralytics.nn.modules.conv.Conv             [128, 128, 3, 2]              
[36m(ClientAppActor pid=619798)[0m  20             [-1, 9]  1         0  ultralytics.nn.modules.conv.Concat           [1]                           
[36m(ClientAppActor pid=619798)[0m  21                  -1  1    493056  ultralytics.nn.modules.block.C2f             [384, 256, 1]                 
[36m(ClientAppActor pid=619798)[0m  22        [15, 18, 21]  1    751507  ultralytics.nn.modules.head.Detect           [1, [64, 128, 256]]           
[36m(ClientAppActor pid=619796)[0m [Client 3] Device: cuda:0[32m [repeated 4x across cluster][0m
[36m(ClientAppActor pid=619798)[0m                    all        190        408       0.72      0.662       0.72      0.557[32m [repeated 2x across cluster][0m
[36m(ClientAppActor pid=619798)[0m Speed: 0.5ms preprocess, 1.4ms inference, 0.0ms loss, 2.5ms postprocess per image[32m [repeated 3x across cluster][0m
…
